2_Party/best_discriminator.pt (torch, 281330 bytes, 18 tensors)

model.0.bias f4 [256]
000000 43 b0 0e bd 91 d9 95 bc c9 8e ab bd 13 7c 32 3d
       -0.034836065 -0.01829222 -0.083768435 0.043575358
000010 8a 67 17 be 6f b7 69 bd 34 b1 ac bc c4 9a 36 3d
       -0.14785591 -0.0570597 -0.02108059 0.04458119
000020 be 96 4d bd 79 3c 3f 3d 86 60 0e 3c 36 11 3f bd
       -0.050192587 0.04668853 0.008690005 -0.046647273
000030 1b e8 b9 bd 2f 1b 4e 3d ea 1e 3b bd f6 a7 8d 3d
       -0.09077474 0.050318893 -0.04568378 0.06916802
000040 fe 92 97 3d 7c cd dc bd b2 b2 42 3d 81 c7 91 bd
       0.074010834 -0.107813805 0.0475337 -0.071181305
000050 4e 32 b2 bd 49 23 78 3d 2a 1d 78 3d 45 3e 80 bb
       -0.08701001 0.060580526 0.060574688 -0.003913673
000060 9e 87 03 bd 3e b6 24 be 0c 5c 67 3c bb af d3 3c
       -0.032111757 -0.16085145 0.014121067 0.02584063
000070 77 22 96 3d c0 b6 61 bd 76 4a e5 bc f0 c0 1a bc
       0.073307924 -0.055105925 -0.027989607 -0.009445414
000080 cd 11 7a bc 3b 72 e5 bc e4 c0 2b 3d 56 a6 95 bd
       -0.015263033 -0.02800857 0.041932 -0.07307117
000090 1d c7 fb bb 77 7d 49 bd dc e6 7b bd 4f 68 e2 3c
       -0.0076836483 -0.04919192 -0.06149946 0.027637629
0000a0 64 b9 96 bd 7c a3 b8 3d 06 20 ab bc 69 5a fc bb
       -0.07359579 0.09015557 -0.020889293 -0.0077012074
0000b0 5d d7 ad 3d ab d0 be bd d5 03 8b bd 6d 6f 2d 3d
       0.08488343 -0.09317144 -0.0678784 0.042342592
0000c0 23 3c 95 3d 76 af dd bd 6d 59 63 3d 0c 48 e0 3b
       0.07286861 -0.10824482 0.055505205 0.006844526
0000d0 84 de 2e bd 3f 27 3b bd 6c 4e c4 bb d4 af db bc
       -0.042692676 -0.045691725 -0.005990794 -0.02681724
0000e0 ba 06 68 3d e3 42 73 3b 7b 0a 33 3b ff 8a 3d bd
       0.05664704 0.0037118725 0.002731948 -0.046275135
0000f0 ec 04 94 3c 41 a4 83 3c 05 f5 1e bd 35 6f 06 bd
       0.018068753 0.016069533 -0.038807888 -0.0328209
000100 1d b4 6a bd 2a c7 3f bc 8c 95 21 3d 25 03 0f 3d
       -0.057300676 -0.011705199 0.03944926 0.03491511
000110 c6 0c e5 bb 5d 0e af bd de 7e 69 bc e3 6c 33 bd
       -0.006990048 -0.085476615 -0.014251439 -0.043805014
000120 ac 6d a8 bd 46 25 ab 3d ec 02 bd bd 6c ee de 3b
       -0.08224043 0.08356719 -0.09229073 0.0068033244
000130 9e 64 7c bd 03 e4 55 3d eb 3e 65 3d fa 78 17 3d
       -0.061619394 0.052219402 0.055968206 0.036980607
000140 e2 2c 86 bd 20 26 43 3d 9e c2 4b bb 5a d2 11 bc
       -0.065515295 0.04764378 -0.0031091343 -0.008900249
000150 1b 72 d0 bd 09 e5 be 3d 51 5e d2 b9 da 80 bf 3a
       -0.10178014 0.09321029 -0.00040124592 0.0014610544
000160 38 98 3b 3d 13 f6 63 3c 0d d4 35 3d 91 e3 ab bb
       0.045799464 0.013913649 0.04439168 -0.005245634
000170 36 1c 24 bd 61 de f4 bc 6c 1d 07 bd b2 7b 94 bd
       -0.040065967 -0.029891195 -0.032987043 -0.072501555
000180 42 e8 9e bd 00 2c b2 3c c2 5e 5d 3d 4d c6 03 bd
       -0.077591434 0.021749496 0.054045446 -0.032171536
000190 1c 33 29 bd 56 eb 8f bc 09 41 db bc bd 16 06 3d
       -0.041308507 -0.017568272 -0.02676441 0.03273653
0001a0 1a 02 81 bd fe c5 8e 3d 27 5c 5b bd 6c 34 61 bd
       -0.06299229 0.06971358 -0.05355468 -0.054981634
0001b0 7f 3a 5b bd 2f 72 24 bc e6 ff 7e bc 42 6a 88 3c
       -0.053522583 -0.010036989 -0.015563941 0.01665223
0001c0 2c 0f 1d bd 0c 3a db bd e1 18 99 bd 71 67 95 bb
       -0.038344547 -0.10704431 -0.074754484 -0.0045594503
0001d0 97 69 a2 bc e2 eb cf 3b 60 1d 3d bd 9b 7d 27 3d
       -0.01982574 0.006345258 -0.046170592 0.04089127
0001e0 aa b6 6c bd e1 aa ad 3c d9 fe 11 3d 77 95 38 3d
       -0.05779139 0.021199645 0.035643432 0.045064416
0001f0 5f 61 5a bd 86 44 ff 3c af 54 25 3b 0f e5 47 3d
       -0.053315517 0.031160604 0.0025227477 0.04880243
000200 a8 2e cf 3c 14 cf 1b be 2d 87 a8 bc a8 c6 8c bd
       0.025290802 -0.15215713 -0.02057227 -0.06873828
000210 cd 21 47 bd bd b0 37 bc f0 e2 81 bc aa 05 07 3c
       -0.04861622 -0.011211571 -0.015855283 0.0082410965
000220 d1 41 e7 3c fb 0d 1b 3c 7f 38 64 3d e7 37 92 bd
       0.028229626 0.009463782 0.05571794 -0.07139569
000230 9b 7d 87 bd 92 8b a5 3d 4e 6c b3 bc e4 dd 63 3d
       -0.06615754 0.080832615 -0.02190223 0.055631533
000240 9f 8f 7a bb 7a 40 8f bd 66 49 0d 3d a6 38 8a bd
       -0.0038232577 -0.0699472 0.034493826 -0.06749086
000250 15 64 4f 3d 08 04 09 3d d8 b3 eb 3d a6 fa ad 3c
       0.050632555 0.03345111 0.11508912 0.021237683
000260 65 fe 7c bc bc 0d f1 3c 52 40 77 3d 8a 2b a0 bd
       -0.015441512 0.029425494 0.060364075 -0.078208044
000270 57 a8 ab bc b5 7c e6 bd bb 77 d1 bc 9a 92 f5 bb
       -0.020954294 -0.11254255 -0.025569787 -0.007494283
000280 50 6b 3f bb 91 3d be bd 9f 86 9f 3a b0 a2 d9 3c
       -0.002920825 -0.092890866 0.0012170858 0.026566833
000290 b5 30 e4 bd 7a a1 ba 3d a5 7f 97 3d bf ce 31 bd
       -0.11142103 0.091128305 0.07397393 -0.04341006
0002a0 5f 78 b0 3d 68 cf 19 bd c6 e3 c2 bd 7f f6 26 3d
       0.08616709 -0.037551314 -0.095161006 0.04076242
0002b0 fa 6d 04 3d 09 a6 28 3d 4c 8f b3 bc 55 9e 63 bb
       0.032331444 0.04117397 -0.021918915 -0.0034731824
0002c0 5d 6c a1 3d 85 2c a1 bc 8c 74 e1 3c 8f 06 9b bc
       0.07881997 -0.019674549 0.027521394 -0.018924026
0002d0 4e 68 b7 bc a9 ff 82 bd be 14 5f 3b 40 5e 09 3d
       -0.022388604 -0.063964196 0.0034039463 0.03353715
0002e0 6d e9 62 bd 8d b2 c3 bc 29 fe b6 bc 44 f8 12 3d
       -0.055398393 -0.02388885 -0.02233799 0.035881296
0002f0 e4 1b 3d bd cc db 72 3d 23 96 08 bc 70 e6 83 bc
       -0.046169177 0.059291646 -0.008336577 -0.016101092
000300 8b 14 b5 3c 1a fd 8f bd 83 3e b0 3d 90 a4 b5 3c
       0.022104522 -0.07030697 0.08605673 0.022173196
000310 b1 f1 22 3d 27 21 66 3d ac 8e 8f bd 05 61 fb ba
       0.039781276 0.05618396 -0.070096344 -0.0019178694
000320 d1 be 6e bd cc 56 f5 3c d2 80 5d bd 09 0b ac 3c
       -0.058287445 0.029948615 -0.05407793 0.021001356
000330 0e 64 4f 3c ab 42 72 3c af f3 71 bd fc f8 7b bb
       0.012658132 0.014786403 -0.059070285 -0.0038447967
000340 39 85 06 ba 0d 8d 33 bc 3c 42 94 3d b5 2b c6 3d
       -0.0005131546 -0.010958922 0.07239196 0.09676305
000350 13 76 d7 3c 96 34 e2 3b d3 61 84 bc 24 16 8b bd
       0.02630142 0.0069032414 -0.016159927 -0.06791332
000360 2a 6a 98 3c 52 7b a6 3d 68 bd fe 3c 25 1c 25 bd
       0.01860531 0.0812899 0.031096175 -0.040310044
000370 7d 85 a7 3d 5d 4d 98 bd a1 2d 5a 3d 16 14 fd bc
       0.08179758 -0.07436631 0.05326617 -0.030893367
000380 44 d5 2b bd 3e a9 d2 3b ba d2 02 bd 69 e3 98 bd
       -0.041951433 0.0064288666 -0.031939246 -0.0746525
000390 22 bb 35 3d 82 c6 b9 3c 7a 07 d9 bd 7c 75 98 3d
       0.044367917 0.022677664 -0.10597129 0.07444283
0003a0 a0 c0 ee 3c 8c 88 82 3c 7c 99 96 3d 22 6d 8b 3c
       0.029144585 0.015934251 0.073534936 0.017019812
0003b0 a0 b6 bc bc 95 d1 14 3d a2 09 5c 3c cc 9a eb 38
       -0.023036301 0.036332686 0.013430031 0.000112345064
0003c0 ac ad 54 bd 9d 79 ee 3c 31 da 69 bd f7 43 42 3b
       -0.05192344 0.029110724 -0.05709285 0.002964256
0003d0 47 76 ff bc 21 bb c8 bc 87 84 d7 bc fd 50 41 bd
       -0.031184329 -0.024503293 -0.026308311 -0.047196377
0003e0 6e 78 15 3d ea 43 fc bc e7 fd 90 3d a1 df 17 be
       0.036491804 -0.030794103 0.07079678 -0.14831401
0003f0 91 57 e4 bd dd 5c 44 3c 66 d1 b8 bd 61 11 9a bc
       -0.111495145 0.011985031 -0.090243146 -0.018807115

model.0.weight_orig f4 [256, 128]
000000 fa fb da 3c 6a 9b 64 bd ba 8e 68 bd 1f 43 92 3d
       0.02673148 -0.055812277 -0.05677674 0.071417086
000010 b6 57 26 bd 2b 0b 8c 3c 68 73 3e bd 4e 1b 57 bc
       -0.04061099 0.017095169 -0.04649678 -0.013129069
000020 5e 9f af 3d 27 39 47 3d 05 c5 c3 3c 3c 2b 8c bc
       0.08575319 0.04863849 0.023897657 -0.01711046
000030 18 39 a2 3b f4 3d 4c 3d e7 9e 37 bd 27 fe 41 bd
       0.0049506538 0.04986377 -0.044829275 -0.04736152
000040 e3 11 6c bd 46 1e 14 bd b6 e5 11 3c 4a d5 03 3d
       -0.057634246 -0.036161683 0.008904865 0.03218583
000050 9b 9c a0 3b 9a 4d 84 3b 63 68 3a bd 13 eb 07 3d
       0.0049014813 0.004037571 -0.045509707 0.03318317
000060 ca 48 a9 3b 24 51 40 bd 05 4f 14 3d 17 3b 4b 3c
       0.005166148 -0.04695238 0.03620817 0.012404225
000070 21 e3 d2 3c de 82 46 3d 49 ba 02 bd 51 e7 d2 bc
       0.02574307 0.04846465 -0.031915937 -0.025745066
000080 f6 bc 2a 3d 35 9d c5 bc 6c e9 11 ba cb 41 ba 3d
       0.041684113 -0.024122814 -0.00055660936 0.0909458
000090 92 c5 a4 3c 98 ad 26 bd 33 99 5e 3d e7 54 bf bd
       0.02011374 -0.040692896 0.05434532 -0.09342366
0000a0 84 31 57 3d d4 2e 66 3d 5a e4 78 3d fe 21 5e 3c
       0.052537456 0.056197003 0.060764648 0.013557909
0000b0 f0 f6 a9 3d dd df 31 3c f9 44 1d bd c4 a8 5f bc
       0.08299053 0.010856596 -0.038395856 -0.013651077
0000c0 2b d2 6b bd f4 26 2a 3d cd 15 8e bd 2b 1f 16 bd
       -0.05757348 0.041541055 -0.06937752 -0.036650818
0000d0 ee 0e e7 3c 37 cc 3c 3d 7b 07 55 bd c1 6b f5 3c
       0.028205361 0.046093192 -0.052009087 0.029958608
0000e0 4e 0f 3b bd bd 7a aa bd ce d7 77 be 45 91 5b 3b
       -0.045668893 -0.08324192 -0.24203417 0.0033503335
0000f0 9b 21 c4 3c 03 c0 09 be e9 dd 95 bc fd 39 97 bd
       0.023941806 -0.13452153 -0.018294292 -0.07384107
000100 66 6f 3f 3d 11 86 84 bd 09 00 71 3d 50 15 c4 bc
       0.046737097 -0.06470884 0.058837924 -0.023935944
000110 c6 f8 d4 3a 05 14 08 3d 53 44 03 bc ab 66 8f bd
       0.0016248457 0.033222217 -0.008011895 -0.07002004
000120 cb 94 2b 3c ae 15 54 ba 8a ce 88 3d 3b 71 56 3d
       0.010472487 -0.0008090389 0.06680019 0.05235408
000130 4a b0 dd bd 6e 4b 03 bd 46 46 e3 3b 4b 2f 67 3d
       -0.1082464 -0.032054357 0.0069358675 0.056441586
000140 df 99 16 3d e4 b7 4c bc e0 47 03 3b d1 ef e7 bd
       0.036767837 -0.012495015 0.0020031855 -0.11325038
000150 e6 97 50 3d cd de ed bd 3e e7 74 3d 69 d4 d8 3c
       0.05092611 -0.116147615 0.059790842 0.026468473
000160 3e 30 b4 bc 42 cc 8a 3d 70 8e ed 3c 6e db 5b bd
       -0.02199566 0.0677724 0.028998584 -0.05367606
000170 ba e2 e7 3d a0 d4 97 bb 90 fd 81 3d 00 1b 67 bd
       0.113225415 -0.004633501 0.06347191 -0.056422234
000180 99 3e f0 3d 58 45 d0 3c 06 04 9e bd 91 da 37 bd
       0.117306896 0.02542369 -0.07715611 -0.044886176
000190 9c ba f9 bb 2c 3e 09 bd 51 17 a3 3d 51 be 43 bd
       -0.0076211225 -0.033506557 0.079634316 -0.04778892
0001a0 aa f6 9b bd 1e 6a 90 3c 3f f8 6d 3d 74 65 ce bc
       -0.07615407 0.017628726 0.058098074 -0.025194861
0001b0 f5 6b 38 bd 2d b9 a3 bd c7 79 fd bd f0 07 49 3d
       -0.04502483 -0.07994304 -0.12376743 0.049079835
0001c0 df d6 d5 3c 7a 14 18 bd 1d 59 ae bd b7 4d f8 bd
       0.026103435 -0.037128903 -0.08513091 -0.12124198
0001d0 60 5b 5d 3d e1 37 98 bd eb b9 3e bd b0 99 86 3d
       0.05404222 -0.07432533 -0.046564024 0.06572282
0001e0 af f6 98 bd b5 dd db 3c d5 da 90 bd 0c b5 21 3d
       -0.07468926 0.026839117 -0.07072989 0.0394793
0001f0 df 94 72 3c fe d5 6a 3d d1 9b 77 3d 14 2c c3 3c
       0.014806001 0.057332985 0.060451332 0.023824729
000200 a5 83 1b bc 2f a7 4b bd 99 d2 0e bd d5 56 51 bd
       -0.009491836 -0.049719986 -0.03486881 -0.0511082
000210 03 60 15 3d 5b 64 3e bd 41 e7 b8 bd 25 43 9f 3a
       0.036468517 -0.046482425 -0.09028483 0.0012150748
000220 fc 0d 66 3c 92 d6 60 3d b9 4e b1 bd 10 f7 aa 3b
       0.01404142 0.05489213 -0.08657593 0.0052174404
000230 e0 39 17 3b d5 e3 1c 3d 53 a5 f4 3b 93 8f c3 bb
       0.0023075268 0.038303215 0.0074659972 -0.005968043
000240 6f 91 53 bd 4c fd 13 bc 7a 1d c0 bc 35 1b a5 3d
       -0.05165237 -0.009032559 -0.023451556 0.0806183
000250 06 1e a8 bd f3 d8 cf bc 6a 3f ed 3c a4 39 b8 bd
       -0.082088515 -0.025372004 0.028960902 -0.08995369
000260 68 1c 77 bd 70 0a 53 bd ec ec 8a bd 8e 22 2f 3c
       -0.060329825 -0.051523626 -0.067834705 0.010689391
000270 17 33 d7 3d 61 64 9d bd 32 ff c7 bb 2d 8a 4c 3d
       0.105077915 -0.076851614 -0.0061034197 0.049936462
000280 85 f2 96 bd c5 c7 c4 bc fb cf 87 bc 9a c2 d9 ba
       -0.07370476 -0.024021039 -0.016578665 -0.0016613782
000290 b2 d4 b1 3a b9 f4 7c bb e7 f7 13 3c de 6a 12 3c
       0.0013567416 -0.0038598015 0.0090312725 0.008936612
0002a0 c8 ba e7 3c 93 93 47 bc 74 11 80 bd d0 f9 16 3d
       0.028287306 -0.0121811805 -0.06253329 0.036859334
0002b0 c6 16 7f bd 99 e4 9d bd d8 19 16 3d 4f 2e 51 3d
       -0.062277578 -0.07709617 0.03664574 0.051069554
0002c0 e8 f5 6f bd f9 8c 45 bd 63 d7 d4 bc 14 42 e2 3c
       -0.058584124 -0.048230145 -0.02598161 0.0276194
0002d0 97 5e 54 bd 25 1f 89 3d d9 21 60 bd 26 0c ad bc
       -0.05184802 0.066953935 -0.05471978 -0.021123957
0002e0 99 e2 37 bd ea db 48 3b 5c 9a 43 3e dd 0e 4a 3c
       -0.044893835 0.0030648657 0.19101852 0.012332645
0002f0 47 bc 34 3d a4 4c d5 3b 4c 56 43 3d 3f 71 c2 3d
       0.044124868 0.0065093804 0.04768972 0.09494256
000300 54 63 55 3a 30 2f b9 3d 39 1d 01 3e e3 d5 d4 3d
       0.0008140106 0.090422034 0.12608804 0.10392358
000310 c0 54 56 3d a1 cb 97 3d b8 01 e2 bc ae 90 80 bd
       0.052326918 0.07411886 -0.02758871 -0.062775955
000320 fb c8 84 3d 3c be 83 3c 4d 80 76 3d 83 18 58 bd
       0.064836465 0.016081922 0.06018095 -0.05275775
000330 d2 b7 06 be 44 16 48 3d 88 ad 71 bd 61 00 1f bc
       -0.1315606 0.04884936 -0.059003383 -0.00970468
000340 3f ee 30 bd ad 6b 5b bd ed c1 91 bd 20 be d4 bc
       -0.04319596 -0.053569485 -0.071170665 -0.025969565
000350 d1 80 44 bd 66 92 aa 3d d6 eb 48 bd 4a df 53 bd
       -0.04797441 0.083287045 -0.049053036 -0.051726617
000360 8e c5 87 3d d7 a8 49 bc a7 55 f7 bc 15 a7 03 bd
       0.066294774 -0.012308321 -0.03019221 -0.032141764
000370 42 71 9c 3d 30 b1 58 bd dc ca 56 3b 89 a2 48 bb
       0.0763879 -0.052903354 0.0032774722 -0.0030614457
000380 79 b9 06 bd a4 de a9 bd a4 04 52 bc 0f 3a 35 bd
       -0.032891724 -0.082944185 -0.012818489 -0.044244822
000390 1d 49 0d 3d 38 ca 6b bd ac 60 ef 3d f4 b9 f3 bd
       0.034493554 -0.057565898 0.116883606 -0.11900702
0003a0 92 84 bf bd cc 0b 23 3d 9d 8a 22 3d 97 a1 78 3d
       -0.09351458 0.039806172 0.039682973 0.06070098
0003b0 4e 0c 26 bd cd 1d 7a 3d bc b1 3e bd 3a 7c 6f bd
       -0.04053908 0.061063576 -0.04655622 -0.05846808
0003c0 63 9d 8b bd 70 37 04 bc 40 49 c3 3d 89 56 a4 3b
       -0.068171285 -0.008069858 0.09535456 0.0050151986
0003d0 73 5f 25 3c 4b b5 b9 3c 1e ef 8f 3d f5 7f 93 bd
       0.010093558 0.022669455 0.0702803 -0.0720214
0003e0 5f 2e f7 bc 27 6a cb bc 56 fa d4 bd 76 52 99 3d
       -0.030173479 -0.02483089 -0.1039931 0.07486431
0003f0 6a bd 51 3d eb fe b1 3c ed 03 25 bd 90 cc 98 3d
       0.05120603 0.021728 -0.040286947 0.07460892

model.0.weight_u f4 [256]
000000 db 95 72 3a 72 45 94 bc 8c 5c 38 be 45 40 56 3e
       0.00092538976 -0.01809952 -0.18004054 0.20922954
000010 7f d4 91 3c 35 a8 fb 3c 26 30 79 3d 6b 22 13 bc
       0.017801521 0.030719856 0.060836934 -0.008980374
000020 06 f0 31 bd 0f ee e2 3d 31 72 08 3e cd 3d 9c bc
       -0.043441795 0.11080562 0.1332481 -0.019072438
000030 2e c8 40 bc b3 f5 78 3d 10 05 6e 3c 43 34 9f 3d
       -0.011766477 0.060781192 0.014527574 0.0777364
000040 4d bc 92 3c d1 f3 3e bd 32 d9 2c 3d f0 44 a9 3c
       0.017912054 -0.04661924 0.04219932 0.020662755
000050 68 e2 55 3d a5 86 05 3e af 0b 70 b9 2a d3 71 bd
       0.05221787 0.13039644 -0.00022892536 -0.059039272
000060 18 00 9c 3b ed 20 02 bd 8d a6 91 3d 78 95 56 3e
       0.0047607534 -0.03176968 0.07111845 0.20955455
000070 ba c0 65 bd 75 df 81 bd 47 f1 f5 bc 5a 0a 6f bc
       -0.056092 -0.06341449 -0.030022277 -0.01458987
000080 6d ff 4c bd 18 53 ed bb 4e 6b 13 3c 7f 94 1b 3e
       -0.05004828 -0.0072425716 0.008997751 0.15193366
000090 90 e0 6b bc 45 92 3e 3c 02 b5 6f 3c 77 9d 5e bd
       -0.014396802 0.011631553 0.014630558 -0.05434939
0000a0 e6 cb b1 bd 64 a9 6e bc f1 81 b8 3d fd ca 91 bd
       -0.08681469 -0.014566753 0.09009159 -0.07118795
0000b0 5e b1 1a bd f3 76 b7 3d d4 19 40 3d 21 e2 1c bb
       -0.037766807 0.08958235 0.04689963 -0.0023938494
0000c0 07 00 a8 3d 3e 08 9d 3d b2 68 47 3c 2f 0b 23 bd
       0.0820313 0.07667588 0.012170957 -0.039805587
0000d0 c0 b8 f2 bd 76 b7 1b 3d df 30 04 bd 97 cb cc 3c
       -0.118516445 0.03801676 -0.03227317 0.024999423
0000e0 4e 3d 17 be d4 f7 ce 3c c1 1a 83 3d 35 38 59 bc
       -0.1476948 0.025264658 0.06401587 -0.01325803
0000f0 de e7 0d 3d f1 5a 1b bc 01 0d 02 3e c7 a7 0b bd
       0.034644954 -0.009482131 0.12700273 -0.03409555
000100 60 a3 ea bd fe 62 8b 3a 2e bc 0f be bf 6a cb bd
       -0.114569426 0.001063436 -0.14036629 -0.099324696
000110 54 cd c1 bd a0 af 26 bc 8c fd 82 ba da 5d 58 3c
       -0.09462991 -0.010173708 -0.0009993776 0.01320597
000120 f1 c6 52 bc 00 37 7e 3d aa 47 88 3d 24 d2 03 be
       -0.012864814 0.06206417 0.06654294 -0.12873131
000130 81 b6 84 bd b9 63 07 bd 0e 48 bf 3d 4a 7d 2a bd
       -0.06480122 -0.033054087 0.09339915 -0.04162339
000140 92 18 f0 3c a4 78 e6 bc 15 f3 28 bd d5 de d7 bc
       0.029308591 -0.028133698 -0.041247446 -0.026351372
000150 5c 38 d9 3b 2b c8 a5 bc e6 e2 d2 3b 6d f5 5f 3b
       0.006629033 -0.02023705 0.00643574 0.0034173385
000160 ee 7a be bc a8 85 7e 3d 82 bc ca 3d 33 d5 36 3d
       -0.023251977 0.062139183 0.09899236 0.044636916
000170 6f 81 8f 3c 26 cb 2c bc aa b0 6a 3c bd 60 b1 3c
       0.017517773 -0.010546481 0.014324347 0.021652574
000180 02 eb c0 3c 49 16 d8 3d eb 30 72 bd dc b1 b2 bc
       0.02354956 0.105511256 -0.059128683 -0.021813326
000190 59 3a 67 bc 11 90 ae 3c 73 f1 55 3d d3 cb 18 bd
       -0.014113032 0.02130893 0.052232217 -0.037303757
0001a0 4d 93 c3 3d 66 bd c7 3d bb a4 eb bd 8f 6f a6 bc
       0.0954958 0.09752922 -0.11506029 -0.020316867
0001b0 fa 8b 1e 3d 23 e4 49 bd 40 0c 50 3d 3b 8c 17 bc
       0.03870771 -0.049289834 0.050792933 -0.009249742
0001c0 3f 12 1e 3d 1c ac c3 3c 4d 4f 72 3d 0d 22 8b bd
       0.03859162 0.02388578 0.05915766 -0.06793604
0001d0 c8 fd 0a be f0 e1 3a bd b6 7a c4 bb fa d3 a2 3c
       -0.13573372 -0.045625627 -0.0059960736 0.019876469
0001e0 17 b7 67 3d a9 11 0b 3d d9 5f b4 bc cd 42 10 bd
       0.056571092 0.03395239 -0.02201836 -0.035219956
0001f0 ee 3b 69 bc cf 51 15 bc e3 d9 f1 3c fc c6 11 bd
       -0.01423548 -0.009113743 0.029522842 -0.035590157
000200 3f 0b 3b bc d0 8b 98 3d 24 30 fb 3d 78 0f 72 bd
       -0.0114162555 0.07448542 0.122650415 -0.059096783
000210 59 c7 01 3d 20 2d 9e 3c 60 d6 05 3c 20 6d 85 3d
       0.031684253 0.019308627 0.008168787 0.065149546
000220 8c 63 bb ba ba 38 8b bb 06 45 30 bd 85 75 72 3b
       -0.0014296635 -0.0042487057 -0.043034576 0.0036996317
000230 79 51 92 bd 64 bf 00 3d b5 18 06 3d 9d e2 7a 3d
       -0.07144446 0.031432524 0.032738406 0.06125127
000240 81 90 26 bd 4c d1 3a bd b1 3b 8c bc 40 d8 84 3d
       -0.040665153 -0.045609757 -0.017118307 0.06486559
000250 26 78 c2 3d 5d 82 0a 3d 7c 6d 86 3d 82 22 d4 bc
       0.09495573 0.03381573 0.06563851 -0.02589536
000260 13 12 17 bd 19 e5 a7 bc 8a 44 fc 3c 37 c8 e9 bc
       -0.03688247 -0.020494984 0.0307944 -0.028537853
000270 bb 51 3f bc 7d 0e ad bd 48 38 3a bd a7 de c2 bd
       -0.011677201 -0.08450029 -0.04546383 -0.09515124
000280 88 f3 cd 3b bb 21 f2 bd 5e df 90 bc 8c e2 5d bc
       0.0062851347 -0.1182284 -0.017684635 -0.0135427825
000290 1c b7 f2 3d 3d 78 a0 3d dd 0f 11 bd 7a f8 51 3b
       0.118513316 0.07835434 -0.03541552 0.0032038973
0002a0 79 48 5a 3d e1 25 ca 3d b5 94 a7 3d aa 8d 91 bc
       0.05329177 0.09870506 0.081826605 -0.017767746
0002b0 cb c9 43 bd 44 e5 0c 3e ff 1e be 3d 3e 9f 8f bd
       -0.047799867 0.13759333 0.09283256 -0.07012795
0002c0 61 8b 52 3c 35 28 29 bb fd 52 ba bc e7 33 93 bd
       0.012850613 -0.0025811319 -0.02274465 -0.07187634
0002d0 9b c6 40 3d a3 50 81 bd 23 2b 6f 3c 23 21 02 bd
       0.047064405 -0.06314208 0.014597687 -0.031769883
0002e0 13 9e 6a bd d8 6a 07 bd ae de 13 3d 2c fe f1 3c
       -0.057279658 -0.03306088 0.036101036 0.029540144
0002f0 6c 6f 18 bc 56 37 2d 3d bc c0 6d 3d 71 ff 4b 3d
       -0.009303909 0.0422891 0.058045134 0.049804155
000300 be 01 25 be 63 6e b2 3b 9d 5c 20 bd d8 ce ec 3c
       -0.16113946 0.005445288 -0.039150823 0.028907225
000310 6f 28 b9 3c c5 f7 d1 3b 53 d9 ea bc 03 7f a4 3c
       0.022602288 0.0064077103 -0.028668081 0.020080095
000320 3d d5 91 3c 65 db 10 be 21 06 de bb 1c 4a c6 bd
       0.017801875 -0.14146192 -0.006775633 -0.09682104
000330 fa b0 bb 3c 56 62 42 3d 75 f3 72 bb 78 50 df bc
       0.022911537 0.04745706 -0.0037071381 -0.02726005
000340 03 9d 35 3d 3b 70 8a bd eb 63 1d 3d f5 06 c4 3b
       0.04433919 -0.067596875 0.038425367 0.0059822747
000350 52 ce a1 3d 94 6f 09 bd e5 64 ce 3d db 43 83 bb
       0.079006806 -0.033553675 0.10077838 -0.0040058917
000360 6d 42 12 bc 81 aa c2 3c bf 61 0d 3e 0e 21 0f be
       -0.00892697 0.023762943 0.13806818 -0.13977453
000370 28 e1 0b 3a 18 0d ae bc 27 ce a0 3c ed 2b 1b 3c
       0.000533598 -0.021246478 0.019629551 0.009470922
000380 bb ff 97 3c 30 95 9f 3d 18 73 99 3c 2f a2 c8 3a
       0.018554559 0.07792127 0.018731639 0.0015307124
000390 87 c4 ab bd 80 5d b2 bc a8 2e de 3d fc 84 0b bd
       -0.08387094 -0.0217731 0.10848743 -0.03406237
0003a0 7c f5 7a 3d 70 75 89 3c d9 ab 8d 3d 14 25 11 3d
       0.06126927 0.016779631 0.06917543 0.03543575
0003b0 22 ac 93 3b 6f 99 bb bc bc 76 19 bd 24 63 ab 3c
       0.004506604 -0.022900311 -0.03746675 0.020921297
0003c0 71 1d 80 bc 9d 46 3b bc 2d a3 56 bc 2f a0 8e bd
       -0.015639039 -0.01143041 -0.013100428 -0.06964146
0003d0 1b ab db ba 32 f6 b3 3c 9f 5e 7d bc 10 54 f2 3c
       -0.0016759367 0.021967981 -0.015464454 0.0295811
0003e0 17 20 41 3e 09 02 7b bc fb 39 17 bd e2 33 ef 3d
       0.18859898 -0.015320309 -0.03692053 0.11679818
0003f0 6a 70 00 bd 61 2a d0 3a ef 6a 7d bc dc c9 81 bd
       -0.031357206 0.001588177 -0.0154673895 -0.0633733

model.0.weight_v f4 [128]
000000 5f 81 b2 3a 9a de b5 3d 04 87 77 38 ea e3 b0 3e
       0.0013618878 0.088803485 5.9015132e-05 0.34548885
000010 63 0b 0a ba 66 b9 5b 39 91 b4 d1 bd ad d3 de bc
       -0.0005265979 0.00020954534 -0.102395184 -0.027200544
000020 03 aa 83 3a af 53 c0 3c cd ca 9c bd ab ed d9 b9
       0.0010045174 0.023477403 -0.07655869 -0.00041566542
000030 d3 44 ec ba 27 9d 0f ba 7a 80 a7 39 2f fb 61 ba
       -0.0018025882 -0.00054784346 0.00031948445 -0.0008620498
000040 d6 f4 f1 b9 db 9f 3e bd f2 0a d0 39 50 6f eb ba
       -0.0004614952 -0.04653917 0.00039681006 -0.0017962251
000050 89 93 78 b9 34 20 03 39 15 fd c9 38 09 60 23 bd
       -0.00023706084 0.0001250513 9.631567e-05 -0.039886508
000060 31 6b 88 39 7f 70 09 ba 05 ca 4c bb 73 3b 6d ba
       0.00026019805 -0.00052428985 -0.0031248343 -0.0009049691
000070 12 b6 8e be cf 00 ad be d5 d9 2a 3e e0 bf 0c 3b
       -0.27873284 -0.3378968 0.16684659 0.002147667
000080 af 25 b1 3d 8c ec e5 36 3d 89 0b b9 a7 64 1a be
       0.08649766 6.8522695e-06 -0.00013307198 -0.15077458
000090 06 0e 4f 3d ac 06 20 3c 9b f8 21 bd fe 65 52 39
       0.050550483 0.009767216 -0.03954373 0.00020065156
0000a0 70 2e 45 39 f8 0d 7c ba 7c 83 2d 3c 6a 1c 94 3c
       0.00018804683 -0.00096151186 0.01059043 0.018079955
0000b0 ef 89 d2 bd cd 3e 2c b9 d4 40 65 3b ad d2 49 bb
       -0.10280215 -0.00016426593 0.0034981268 -0.0030795739
0000c0 c1 07 56 3b c0 0c 3a 3e 25 4a 73 3e ae 0c 27 3a
       0.003265843 0.18168926 0.23758753 0.0006372434
0000d0 f7 8a 31 ba 44 b5 3e 3d e5 85 09 3a 0b 21 5c 38
       -0.00067727215 0.046559587 0.0005246087 5.248286e-05
0000e0 ec ac 79 b9 34 18 81 3e 04 83 47 bd 80 ee 70 bb
       -0.00023810909 0.25213778 -0.04870893 -0.003676325
0000f0 ba 5d 18 ba 51 aa 91 bd 9a a9 1d bf ef 90 09 3b
       -0.0005812306 -0.071125634 -0.61586916 0.0020990928
000100 71 14 17 bd be d9 3a ba dd f6 fa 3c bc 3b 3c 3c
       -0.03688473 -0.0007127783 0.030635292 0.011488851
000110 45 e4 da 3b 54 cc 4a b9 00 ae 0c 3d a4 aa a7 3a
       0.006680044 -0.0001934034 0.034345627 0.0012791944
000120 d2 91 86 ba 9d b4 0b 3c ce c8 fe 3c e8 bf b7 3a
       -0.0010266847 0.008526948 0.03110161 0.0014018985
000130 67 c6 4a bc 53 88 83 3b 7d 00 89 bc 31 ff b4 3c
       -0.012376404 0.004014054 -0.016723866 0.022094341
000140 10 e9 e1 bc 29 2e a3 3c 91 8e ed 3c 59 50 78 3c
       -0.027576953 0.019919472 0.028998645 0.015155875
000150 60 da 6b bd fe ff 83 bc d8 c4 81 b9 26 ae 41 bb
       -0.057581306 -0.016113278 -0.00024751457 -0.0029553263
000160 99 29 a8 bc 13 d5 a4 bc 55 9a 7f 3a 56 72 c8 3c
       -0.020527648 -0.020121133 0.00097504753 0.024468582
000170 a8 71 2c 3d cf ca 89 3d 53 ae c9 bc f6 33 0a 3c
       0.04210058 0.06728136 -0.024619257 0.00843524
000180 c8 19 65 bc f4 74 26 3c e8 11 a4 bd 3d 86 b9 bc
       -0.0139831975 0.01015972 -0.08011228 -0.022647018
000190 3b 55 34 bc ec 04 18 3c 98 a1 6e 3d 6f 02 28 bc
       -0.011006649 0.009278517 0.058259577 -0.010254486
0001a0 15 b5 0d 3c c4 1f 6f bc 76 f3 ee 3a 9e e2 7d 3b
       0.00864913 -0.014594976 0.0018230516 0.003873981
0001b0 66 bb 79 3c 47 4d f3 bc 2c 68 f7 bc 8a 33 ae bc
       0.015242433 -0.029699935 -0.03020104 -0.02126481
0001c0 20 18 40 bd c2 52 f6 3b fc d0 75 bc 87 51 98 3c
       -0.046898007 0.0075171897 -0.015003439 0.018593563
0001d0 6d 2e a4 3b 0a 6d 1e bd 58 62 89 3b a1 17 92 bb
       0.005010417 -0.038678207 0.0041926317 -0.004458383
0001e0 d0 73 80 bc 8a f9 33 3b 50 b3 58 bd f0 3f f1 bb
       -0.015680224 0.002746197 -0.05290538 -0.0073623583
0001f0 49 92 12 bc 39 0e a9 bb 22 b8 95 3c 2d 0a 55 3d
       -0.00894601 -0.005159166 0.018276278 0.052011658

model.2.weight f4 [256]
000000 89 93 7b 3f 01 47 77 3f 7f 36 85 3f 37 27 89 3f
       0.98271996 0.9659272 1.0407256 1.0715092
000010 41 ca 61 3f f2 f2 6a 3f bc 1e 6f 3f 7f 5a 76 3f
       0.8819924 0.91776955 0.9340627 0.96231836
000020 e4 06 73 3f 4e 74 80 3f 7b 94 84 3f 38 49 73 3f
       0.9493239 1.0035493 1.0357813 0.950336
000030 6e b7 85 3f 7c 07 83 3f b8 c9 75 3f f1 29 78 3f
       1.0446603 1.0236659 0.96010923 0.96939
000040 3c 35 6f 3f 9e 29 89 3f b4 98 72 3f 27 0c 86 3f
       0.93440604 1.0715826 0.94764256 1.0472459
000050 60 4d 82 3f 48 6a 8b 3f df 17 6e 3f 7f 99 7d 3f
       1.0179863 1.089181 0.93005174 0.9906234
000060 42 2c 6e 3f a2 1b 6b 3f d0 34 82 3f d1 ee 85 3f
       0.9303628 0.9183904 1.0172367 1.0463506
000070 5d 9e 76 3f 03 71 85 3f 71 af 74 3f 9c ff 7f 3f
       0.96335393 1.0425113 0.955802 0.99999404
000080 4b 51 7b 3f 2c dd 78 3f 30 fe 76 3f a9 d1 82 3f
       0.9817092 0.9721248 0.9648161 1.0220233
000090 e8 37 88 3f 4b 81 6b 3f 28 58 62 3f e9 bb 79 3f
       1.0642061 0.9199416 0.88415766 0.97552353
0000a0 00 53 6f 3f d3 7c 71 3f 21 8d 73 3f ff ea 77 3f
       0.9348602 0.9433109 0.9513722 0.9684295
0000b0 74 b9 75 3f 14 89 7b 3f 07 d8 71 3f 47 6b 76 3f
       0.95986104 0.9825604 0.94470257 0.9625744
0000c0 c8 a4 85 3f e2 13 7f 3f ee 1f 73 3f 5d 18 81 3f
       1.0440912 0.99639714 0.94970596 1.008556
0000d0 d5 79 88 3f d2 6b 6c 3f 99 18 6f 3f 82 2f 78 3f
       1.066218 0.9235202 0.9339691 0.9694749
0000e0 29 28 94 3f 0d d7 81 3f ae 5e 76 3f bf 8d 65 3f
       1.1574756 1.0143753 0.9623822 0.8966941
0000f0 7c d7 a6 3f 22 7b 6d 3f 03 09 79 3f 25 9b 72 3f
       1.3034511 0.9276601 0.97279376 0.9476798
000100 04 de 7a 3f fc c6 83 3f f2 6e 76 3f 01 db 6a 3f
       0.9799502 1.02951 0.9626304 0.91740423
000110 30 16 83 3f 90 39 62 3f e1 60 7f 3f e2 48 73 3f
       1.0241146 0.88369083 0.997572 0.95033085
000120 dd 74 81 3f 8b 0f 82 3f 98 90 67 3f 82 63 80 3f
       1.0113789 1.0160993 0.9045501 1.0030367
000130 58 c7 8a 3f 4b 0e 6c 3f 29 9a 85 3f 2f 0d 6a 3f
       1.0842085 0.9220931 1.0437671 0.91426367
000140 61 0c 78 3f 78 74 71 3f 2a 21 7f 3f 2d 46 84 3f
       0.9689389 0.9431834 0.9965998 1.0333916
000150 8e 14 71 3f 27 dc 6f 3f 1b de 80 3f 59 c7 7e 3f
       0.9417199 0.936953 1.0067781 0.9952293
000160 1c 26 6e 3f fc 1c 72 3f f2 9f 70 3f 3c 07 85 3f
       0.930269 0.94575477 0.9399406 1.0392833
000170 1e 80 74 3f 6a ad 68 3f 5b a9 82 3f d3 7a 81 3f
       0.9550799 0.9088961 1.0207933 1.0115608
000180 87 08 71 3f 14 fb 79 3f bd 80 73 3f 81 b6 86 3f
       0.94153637 0.9764874 0.95118314 1.0524446
000190 2c 64 6d 3f 7f 57 80 3f 8d 11 7d 3f de 02 7d 3f
       0.92730975 1.0026702 0.98854905 0.988325
0001a0 e3 61 80 3f 62 2a 82 3f c3 1f 83 3f 49 77 85 3f
       1.0029873 1.0169184 1.0244068 1.0427028
0001b0 49 31 7d 3f c2 de 82 3f 84 5d 78 3f 82 2f 6a 3f
       0.9890333 1.022423 0.97017694 0.9147874
0001c0 72 64 7b 3f cf e3 5e 3f 6e c0 6f 3f 38 ea 73 3f
       0.9820014 0.8706636 0.93653 0.95279264
0001d0 16 1c 83 3f 88 e2 82 3f 44 62 81 3f 65 78 6f 3f
       1.0242946 1.0225382 1.0108113 0.9354308
0001e0 7b b5 80 3f 95 c2 85 3f a8 7a 72 3f 99 3c 7b 3f
       1.0055383 1.0450007 0.9471841 0.9813934
0001f0 60 c2 74 3f 9e 5c 82 3f 38 73 70 3f 82 50 7f 3f
       0.9560909 1.0184515 0.9392581 0.9973222
000200 8c 44 84 3f be ac 76 3f d8 71 74 3f 69 f9 66 3f
       1.0333419 0.96357334 0.9548621 0.9022432
000210 ab e9 74 3f 22 45 6e 3f fc 6d 70 3f fa 89 6e 3f
       0.9566905 0.9307424 0.9391782 0.93179286
000220 46 39 77 3f ee 39 65 3f 8d 02 66 3f ae 94 70 3f
       0.9657177 0.8954152 0.8984764 0.9397687
000230 99 83 73 3f 16 a9 6e 3f 10 09 7c 3f f9 27 7b 3f
       0.9512268 0.93226755 0.9845133 0.9810787
000240 30 65 85 3f bb 35 84 3f 50 40 79 3f 67 af 81 3f
       1.0421505 1.0328897 0.9736376 1.0131654
000250 52 dd 73 3f 9e 2e 6a 3f 1a a4 71 3f e8 17 7a 3f
       0.95259583 0.9147738 0.94391024 0.9769273
000260 1e 4b 86 3f 9f 33 7c 3f da cc 76 3f 32 16 74 3f
       1.0491674 0.9851627 0.9640633 0.9534637
000270 60 ab 7d 3f ab 3d 82 3f ce d8 75 3f 30 d3 74 3f
       0.9908962 1.017507 0.9603394 0.95634747
000280 83 bc 84 3f f7 53 7e 3f a4 89 79 3f 32 7b 76 3f
       1.0370029 0.9934687 0.9747565 0.9628173
000290 65 a6 82 3f e4 a4 76 3f 41 10 63 3f f0 18 79 3f
       1.020703 0.96345353 0.88696676 0.97303677
0002a0 58 fe 75 3f 07 15 7b 3f 45 74 78 3f 2a 8e 7c 3f
       0.9609122 0.9807896 0.97052413 0.98654425
0002b0 dd 3a 87 3f 94 79 83 3f 56 cd 78 3f 21 fe 73 3f
       1.0564839 1.0271478 0.9718832 0.95309645
0002c0 08 36 81 3f cc 2a 6c 3f c9 9a 80 3f 14 eb 74 3f
       1.0094614 0.922528 1.0047237 0.956712
0002d0 66 b2 80 3f eb b9 74 3f 9b 2e 7a 3f a0 3d 84 3f
       1.0054443 0.9559619 0.97727364 1.0331306
0002e0 a4 12 7f 3f 62 74 73 3f 01 5b 73 3f 50 b4 83 3f
       0.9963782 0.9509946 0.95060736 1.0289402
0002f0 8a a3 71 3f 29 8a 78 3f 64 91 88 3f f6 cd 7f 3f
       0.94390166 0.97085816 1.066937 0.99923646
000300 5f 47 7e 3f a6 da 69 3f 00 67 76 3f 0c b3 75 3f
       0.99327654 0.91349256 0.96250916 0.9597633
000310 9d e1 7c 3f 55 92 75 3f 26 48 7f 3f 3d 7e 73 3f
       0.9878176 0.9592641 0.99719465 0.951145
000320 4d a0 73 3f e2 96 94 3f 42 07 66 3f c5 89 71 3f
       0.95166475 1.1608546 0.89854825 0.94350845
000330 67 a3 81 3f 0b b1 70 3f 51 fb 78 3f 54 5f 7d 3f
       1.0127991 0.94020146 0.9725848 0.98973584
000340 52 09 6a 3f bb dc 6f 3f 8a 2b 82 3f fb 50 6a 3f
       0.9142047 0.9369618 1.0169537 0.91529816
000350 1e ab 6e 3f c7 9b 6e 3f ba 40 78 3f 1e 64 7a 3f
       0.93229854 0.9320645 0.96973765 0.97809017
000360 c2 27 76 3f 13 85 70 3f 99 b8 85 3f 65 a2 7e 3f
       0.96154416 0.93953055 1.044696 0.99466544
000370 04 ca 70 3f f2 bb 7f 3f e6 fb 87 3f ae 1c 91 3f
       0.9405825 0.99896157 1.0623748 1.1336877
000380 23 1b 70 3f 8b c1 85 3f be 85 7e 3f 57 f1 7d 3f
       0.9379141 1.044969 0.99422824 0.9919638
000390 8d a5 7a 3f a8 63 76 3f 25 78 8a 3f 40 58 73 3f
       0.9790886 0.96245813 1.0817915 0.95056534
0003a0 58 fd 80 3f 6d ab 70 3f 57 26 6f 3f f2 04 64 3f
       1.0077314 0.94011575 0.93417877 0.89070046
0003b0 79 28 84 3f 14 f9 7a 3f e6 d2 81 3f ef 2c 79 3f
       1.0324851 0.98036313 1.0142486 0.9733419
0003c0 4e 42 81 3f 4c d6 7c 3f b9 93 80 3f 6c 6d 81 3f
       1.009836 0.9876449 1.0045081 1.0111518
0003d0 cf f7 76 3f e6 b5 6c 3f 97 73 66 3f f8 81 7f 3f
       0.96471876 0.92465055 0.90020126 0.9980769
0003e0 ae 68 80 3f 3c 81 81 3f a9 fc 76 3f 94 14 76 3f
       1.0031946 1.0117564 0.9647928 0.9612515
0003f0 1d 46 6c 3f 5a a3 88 3f 30 9c 79 3f ee 6a 7c 3f
       0.92294484 1.0674851 0.9750395 0.9860066

model.2.bias f4 [256]
000000 0e e8 b7 3c 29 26 1e bc 19 b1 26 3c 20 a0 84 bb
       0.02244952 -0.009652653 0.010174059 -0.0040474087
000010 e3 32 54 bd 45 cd 06 3d 15 58 db 3c 6c 0f e1 39
       -0.05180634 0.032910604 0.0267754 0.00042926834
000020 17 8a 6a 3c 26 08 32 bd a6 39 62 bc 4f f0 6b bc
       0.01431515 -0.043464802 -0.01380769 -0.014400556
000030 ed 0d aa 3c 57 48 70 bc 10 9c e3 3a 5f 0e 8d ba
       0.020758593 -0.014665685 0.0017365236 -0.0010761729
000040 4b 3d b3 bc 65 fd 7e bd 9d 88 af ba a9 4b 56 3a
       -0.021879813 -0.062253375 -0.0013392154 0.00081747264
000050 21 7e 03 3d 2e 1d 90 bc e4 50 52 bc 0f ec bc bc
       0.032102708 -0.017592039 -0.012836669 -0.02306178
000060 2e 8f 9f bc db b7 fd bc 40 49 32 3d 17 db 1f bc
       -0.019477453 -0.030971458 0.043526888 -0.009756825
000070 eb a9 03 bd 28 2c 6c 3d a2 8e 62 bc b0 b4 9d bb
       -0.03214447 0.0576593 -0.013827952 -0.0048127994
000080 7b b6 2a 3d b0 f1 6a bd c8 16 cc bc 6e 9c 96 3b
       0.041677933 -0.057359397 -0.024913207 0.0045962846
000090 35 2c 5a 3c b4 35 f9 ba a8 74 7b 3d 6c 2e 09 bd
       0.013316204 -0.0019013197 0.06139055 -0.033491537
0000a0 89 57 c1 3c 67 cc 1f bd e2 02 ae 3c ff 74 41 bc
       0.02360131 -0.039013293 0.021241609 -0.011807679
0000b0 f3 28 72 3d b2 2c bb 3b 62 5d 10 3d 2a 1e 01 bc
       0.059121083 0.005712115 0.035245307 -0.007880727
0000c0 c5 42 0f 3d 95 8d 40 bb 63 c5 7f 3d 2e 1a 1e 3d
       0.034975786 -0.0029381264 0.062444102 0.038599186
0000d0 b5 db 77 bc c0 65 d9 3c 8e e0 99 3b 52 05 e7 bc
       -0.015128066 0.026537776 0.0046959585 -0.02820078
0000e0 9f da dc 3c 84 ce 41 3d 7c 34 21 3d d8 54 2c bd
       0.026959715 0.04731609 0.039356694 -0.0420731
0000f0 96 7a 08 bd 37 b4 46 bc 19 d7 8a 3c 9b 14 0f bc
       -0.033320032 -0.0121279275 0.01694827 -0.00873294
000100 07 27 d2 3a 93 0c d9 3c 8e 8c 19 bd 5f 08 e0 3c
       0.001603336 0.026495254 -0.03748756 0.027347742
000110 00 78 0f 3d 2a 62 89 bc 08 65 65 bb 07 7b dc 3c
       0.03502655 -0.016770441 -0.0035002846 0.026914133
000120 73 2a b3 3c a7 9d 6c bd c7 4e 48 bd 74 94 85 bd
       0.021870827 -0.057767536 -0.048903253 -0.06522456
000130 b5 8a 73 39 ba a6 cd bb 74 f1 24 3d 6f a2 84 bc
       0.00023225958 -0.006275979 0.04026933 -0.016190736
000140 3f f3 9a 3d ad 45 c4 bd b0 c4 c6 3b c0 3f 13 3c
       0.07565927 -0.09583602 0.0060659274 0.008987367
000150 ba de 16 3d b4 c5 d0 3b 71 ef 16 bc b6 e1 15 3d
       0.036833502 0.0063712243 -0.009212361 0.036592208
000160 7f 82 0f 3d 48 60 14 bd a4 21 27 3c 8a ec b7 bd
       0.03503656 -0.036224633 0.010200892 -0.08980663
000170 a6 60 91 3c 73 a3 26 bd f6 81 8a 3b 8a 74 ec 3b
       0.01774628 -0.04068322 0.0042269183 0.007216041
000180 9d 64 c8 bc 58 a9 fc 3c ee 7b 8b bd dd d6 ee bc
       -0.024462039 0.030842468 -0.06810747 -0.02915519
000190 04 43 eb 3c b2 e9 36 bc 5a 45 e0 3c a0 6f 8e 3d
       0.028718479 -0.011164116 0.02737682 0.069548845
0001a0 f1 04 3c bc e0 dd 7c 3d 57 84 0f 3c 49 ca f1 bb
       -0.0114757875 0.061735034 0.00875958 -0.0073788506
0001b0 fb de 58 bd 48 d2 48 bb f1 3d 9d 3c 20 e8 a9 3d
       -0.052947026 -0.0030642916 0.019194575 0.082962275
0001c0 d6 30 89 3d d8 24 1b bc 37 db 2f 3c 57 4f 2d bc
       0.06698768 -0.009469233 0.010733417 -0.010577998
0001d0 26 e3 bc 3b 10 45 2c bb 37 49 2f 3d 6f 4a 58 3d
       0.005764383 -0.0026286282 0.042794432 0.05280536
0001e0 68 9f 05 3d d6 ff b2 3d a7 fc 7b bc 2d 00 42 bc
       0.032622725 0.08740203 -0.015380061 -0.011840862
0001f0 3e af 3c bd 01 72 e9 bc 13 74 1c bc 70 c4 2d 3c
       -0.04606556 -0.028496744 -0.009549159 0.010605916
000200 29 4a 0f bc 81 e7 f0 bb da 00 2f 3d aa 60 4a bc
       -0.0087457085 -0.007351816 0.04272542 -0.012352148
000210 0f a9 22 bd 46 eb 66 bb fe c5 0a 3d 9d 86 4c bb
       -0.039712008 -0.0035235449 0.033880226 -0.0031208165
000220 14 d7 69 bc 50 cb 44 3d 01 3e 4b 3c f4 f9 89 3c
       -0.01427247 0.048045456 0.01240492 0.01684282
000230 fe 82 3a bd 0a 8a bc 3d 4c f2 44 3d f7 a6 28 3c
       -0.04553508 0.09206016 0.048082635 0.010293714
000240 9d 08 61 3c d9 23 9c bb 2f c7 1e 3c 14 14 96 3c
       0.013734964 -0.0047650156 0.009691044 0.01832012
000250 00 9f 18 bc c9 af 14 bd 69 5a 26 bc 0c c9 05 3c
       -0.009315252 -0.036300454 -0.010153391 0.008165609
000260 24 16 37 bd ea 2d ff bb 06 02 01 bd a5 9b 57 3d
       -0.04469885 -0.007787456 -0.03149607 0.05263867
000270 4e e4 3c bd b7 7b 39 bd 2c 44 36 3d 4e 04 ad bc
       -0.046116166 -0.045284 0.044498608 -0.021120217
000280 88 23 b5 bc 64 1e be bb 5d 81 23 3d 88 f8 7c ba
       -0.02211167 -0.0058019627 0.039918292 -0.0009650071
000290 49 20 df 3c e2 24 74 3c 6a 5c 98 bd f9 9e c1 3b
       0.027237074 0.014901372 -0.074395016 0.0059088436
0002a0 ea 67 0f bd c2 7e 42 3b 91 13 d9 bb fe bb 9b 3d
       -0.03501121 0.0029677604 -0.006624647 0.07604216
0002b0 18 be 08 bd 3e 1b 51 bd 05 d9 09 bc 45 7b e8 bb
       -0.033384413 -0.05105137 -0.008413558 -0.007094773
0002c0 5b 2f f0 3b 5d c2 00 bd 83 8a 75 bc 71 af 00 bd
       0.007329864 -0.03143536 -0.014986637 -0.031417314
0002d0 4e e7 17 3d ee 25 80 3d 26 9d 80 bc c6 9e be 39
       0.037085824 0.062572345 -0.015699934 0.0003635792
0002e0 f9 bc 81 3c 05 d1 4c 3d 8d 62 a5 3d 04 9e 2a 3d
       0.01583718 0.050004024 0.08075438 0.0416546
0002f0 9b 65 0e ba 90 48 86 3c f5 60 05 bd 16 63 16 bb
       -0.00054320105 0.016392022 -0.03256317 -0.0022947243
000300 95 6a 10 bd e2 f8 01 bb b6 da 8e 3b b2 7d 0c bd
       -0.035257895 -0.0019832184 0.0043595685 -0.03429956
000310 0b 77 49 3c 08 25 6e bc a3 49 94 3d 5d 2f 04 3d
       0.012296448 -0.014535196 0.072406076 0.03227173
000320 bd 9b 61 bd b2 24 10 3d 94 aa 88 bc 29 f9 16 bb
       -0.055080164 0.035191245 -0.0166829 -0.0023036695
000330 44 82 0d bc 18 85 39 bb a4 07 79 ba ff e7 55 3d
       -0.008637015 -0.002830809 -0.0009499735 0.0522232
000340 02 dd 9f 3d 0e 73 a8 bc 37 bd 69 3d dc bf b8 3b
       0.07805826 -0.020562675 0.057065215 0.005638106
000350 84 18 a5 bc 78 ef 6f 3c c8 1d 9c 3d e9 45 43 3d
       -0.020153292 0.014644496 0.07622868 0.047674093
000360 42 4a c2 bb 23 8c 45 bd 2e 4d 95 bc 09 48 80 3c
       -0.0059292624 -0.048229348 -0.018225279 0.015659349
000370 fa 30 40 bb 23 5f 94 bc f1 14 a3 bd 6a 6d ca bc
       -0.0029326067 -0.018111771 -0.07962979 -0.024710376
000380 55 5f e0 3c 20 b6 39 3d c2 c5 4b bd 1e a4 3a 3d
       0.027389208 0.045339704 -0.049749143 0.04556667
000390 e1 4c 4f bc 1f 0f 64 bd 6a 88 ca 3c f4 b1 1c 3d
       -0.012652607 -0.055678483 0.02472325 0.038255647
0003a0 ed f5 00 39 69 fd 8c bc d5 97 0f 3d 92 22 0f 3d
       0.00012298646 -0.01721068 0.035056908 0.03494508
0003b0 b2 21 b6 3c 65 1c e3 bc a5 48 df bc a0 34 05 3d
       0.022232864 -0.0277235 -0.02725632 0.03252089
0003c0 e2 37 c2 bb bf 74 90 bb cf f6 6b bd 7e f8 70 bc
       -0.005927072 -0.0044084485 -0.057608422 -0.014707683
0003d0 67 28 a4 3a a3 be 52 bb ca ba 1f 3d 3b 48 30 3c
       0.0012524248 -0.0032157085 0.038996495 0.010759409
0003e0 f1 21 dd 3c 9e 8e 25 bd af 6c 82 3d 14 67 89 3d
       0.026993724 -0.040419213 0.06368386 0.06709114
0003f0 51 85 fa 3c eb 0f 7d bd 8c b5 55 bd 9d 1d 48 3c
       0.030581148 -0.06178276 -0.05217509 0.012214092

model.2.running_mean f4 [256]
000000 90 18 e9 3b 97 de af bc 0e 81 14 bb ea 68 44 3c
       0.007113524 -0.021468444 -0.002265993 0.011987904
000010 92 6a 04 bd 72 6a 81 bc d4 fb 90 bc d4 f9 14 3d
       -0.032328196 -0.015797827 -0.017698206 0.036371067
000020 36 f4 6e bb 95 e7 bf 3c d8 6a bd 3c 28 76 54 bc
       -0.003646148 0.023425857 0.023122236 -0.012967624
000030 f8 2d a7 ba 7b 73 23 bb d9 2f 81 ba e6 b3 6d 3d
       -0.0012754789 -0.0024940658 -0.0009856179 0.058032893
000040 20 d1 57 3d b2 21 28 bd 60 6c 61 3d d2 40 e6 3b
       0.05268967 -0.04104776 0.055034995 0.00702677
000050 a1 1e 87 bb 2c 6c 1d 3c bc bc 09 3e 61 d0 70 3d
       -0.0041235243 0.00960831 0.13450903 0.058792476
000060 cc 19 ce bc 7e c2 28 bd 36 92 32 3b ba dd 64 3d
       -0.025158785 -0.041201107 0.0027247793 0.055875517
000070 fd db 00 3e 6e 1b a4 bb 1d 1e 1f bc 54 1d ea 3b
       0.12583919 -0.0050081527 -0.009711769 0.0071446095
000080 ed 99 eb 3c b5 48 a7 bc 64 52 88 3d 28 30 59 bc
       0.028759921 -0.020420412 0.0665634 -0.01325611
000090 84 96 36 bb c6 ac ab bb 83 2f da bb 1b ac 88 3d
       -0.002786071 -0.005239102 -0.006658496 0.066734515
0000a0 ca 7c e4 bc 96 f7 5f 3d c4 87 32 3c 0c 9e 4a 3c
       -0.027891535 0.054679476 0.010896627 0.012366783
0000b0 3c c1 f6 3c f6 3b 88 bc cb f6 c2 bb 74 de c9 3d
       0.030121438 -0.016630154 -0.00594983 0.09856883
0000c0 61 3e b8 3c 09 52 c1 bc 89 c9 20 3d 55 ef c6 3c
       0.022490682 -0.023598688 0.0392547 0.024284044
0000d0 98 9d 9f 3b 11 26 8b 3b 8e 28 1b bb c9 58 2d bc
       0.0048710816 0.004246481 -0.0023675296 -0.01058025
0000e0 08 e7 1f 3c fe a9 d3 3c 35 89 3a 3d e1 2d 3b bc
       0.009759672 0.025837895 0.045541007 -0.011424513
0000f0 07 03 9b ba 9e 9a 74 3d 89 9a e6 3b 40 28 4c bc
       -0.0011826464 0.059717767 0.007037465 -0.012460768
000100 e5 78 a4 bb d4 95 a6 3b 64 fa 52 3d ce 4b 8c 3c
       -0.0050192946 0.005083779 0.051508322 0.01712599
000110 5c 0e 6a 3b 06 21 71 bc 2c 80 3d 3c ee e8 ad bc
       0.0035714125 -0.014717346 0.011566203 -0.021229234
000120 34 ca a1 3b a3 c7 b0 3c 4f 44 95 bc 60 fe 76 bb
       0.0049374346 0.02157957 -0.018221049 -0.003768824
000130 cd d0 21 bb 8c 5b 98 3d e2 24 31 3c 1c 0f fc 3c
       -0.0024691105 0.07439336 0.010812016 0.030768923
000140 52 51 03 3d 7b 42 38 bc b2 ca 13 3c 2a 4c ac 3c
       0.032059975 -0.011246319 0.009020494 0.021032412
000150 cf a6 d1 bc 18 62 33 3d d1 0e 60 bb 8c 97 32 3c
       -0.025592236 0.04379472 -0.0034188519 0.010900389
000160 e5 e1 bf 3d 8c c5 e2 3d f8 c8 95 3d cf 31 8f bb
       0.09369258 0.11072835 0.07313722 -0.0043699513
000170 55 5e 94 bc 2b 20 c6 bc db 31 27 bc 84 5f 74 3c
       -0.018111387 -0.02418526 -0.010204758 0.014915351
000180 1e ad 77 bc 91 3d 99 3d 84 57 24 3d d7 be 51 bb
       -0.015116958 0.07482446 0.040122524 -0.0032004619
000190 90 b9 60 bc bc 61 a5 bb 4c f1 0f 3d 76 a5 49 3c
       -0.013716117 -0.0050470512 0.035142228 0.012307515
0001a0 b0 f9 88 3c 30 f7 21 3d 4d 40 5c 3a b6 34 d2 3b
       0.016720623 0.039542377 0.00084019155 0.006414975
0001b0 59 40 63 3d 96 0b bd bb f1 2f a3 3a 48 bb 13 3d
       0.05548129 -0.0057692034 0.0012450201 0.036067277
0001c0 14 c5 24 3b 3b 88 50 bc 68 78 80 bc 0d 63 8c bc
       0.0025141882 -0.012727792 -0.015682414 -0.017137075
0001d0 c4 ed 30 3c a0 4d ab 3c b6 df 10 bc 5b 16 50 3d
       0.010798875 0.020911038 -0.008842399 0.05080257
0001e0 f5 6a 0b 3d b6 91 b4 3b e3 84 60 3d a8 8b 13 3d
       0.03403755 0.005510534 0.05481423 0.03602186
0001f0 c2 58 2d bc 00 fb 3e 3c 92 56 03 3e 8e 47 bd 3c
       -0.010580244 0.011656523 0.12825993 0.023105409
000200 ff 95 29 ba 67 35 f3 bc 13 b3 88 3d 6f 0b 86 bc
       -0.00064691895 -0.02968855 0.06674781 -0.016362874
000210 17 a2 e2 bb f1 2b 1b 3d a1 08 b6 bc 82 35 85 bb
       -0.0069162953 0.037883703 -0.022220911 -0.0040652165
000220 0b a1 de bb 46 07 1a 3d 28 f3 9b 3d c1 0a 10 bd
       -0.0067941 0.037604593 0.07614738 -0.035166506
000230 41 86 31 bc 09 25 d6 3d c2 70 ac 3c 39 e0 30 3d
       -0.010835231 0.10456283 0.02104986 0.043182585
000240 e5 dc af bb 6a 95 25 bb 4c 0a 01 3d c4 46 5b 3c
       -0.005366909 -0.002526606 0.03150396 0.013383571
000250 2a 7f f9 3d ae f2 1a 3e 0e 07 9f 3d 3d 2a 76 3b
       0.12182458 0.15131637 0.077650174 0.0037561797
000260 44 22 d3 bb f2 2e bc bb c2 8c 1c 3e ba 96 bb bc
       -0.0064432938 -0.005742901 0.1528807 -0.02289902
000270 97 50 c8 bb fe 5a ff bc 5c 64 de ba 05 b8 31 bc
       -0.0061131227 -0.031171318 -0.0016967165 -0.010847096
000280 ef 4d 27 bb 70 63 cb bc 06 73 a5 3c e7 08 18 3d
       -0.002552863 -0.024827689 0.020196449 0.037117865
000290 cd cd 8c bc 54 f8 66 3d fb 4b 92 3d 4a 21 f4 bc
       -0.017187977 0.056389168 0.071433984 -0.02980103
0002a0 ff 17 4e 3d d8 96 bc bb 0c 73 a8 bc f1 c1 44 3c
       0.050315853 -0.0057552867 -0.020562671 0.01200913
0002b0 13 f9 72 3b 98 d2 c4 3c b8 30 0e 3b ee cc fa bb
       0.003707473 0.0240262 0.002169652 -0.007653824
0002c0 e8 d5 ac 3c b7 8a a7 bc 3b b9 00 3d 01 18 43 bc
       0.021098092 -0.020451887 0.03142665 -0.011907578
0002d0 a1 2d 32 3c 1f 9d 06 bc 16 73 b4 3c 48 cc bd bb
       0.010875137 -0.0082161715 0.022027534 -0.0057921745
0002e0 60 62 76 bb f2 95 ce ba 3b 96 55 bc 10 b9 8b 3c
       -0.0037595257 -0.001576124 -0.013036306 0.017056018
0002f0 cb 0e b2 bc ad 75 91 3c 8c cc 18 3b 04 95 22 3d
       -0.02173557 0.017756307 0.0023315279 0.039692894
000300 6a fb ae 3b 60 5d 34 bc ae ff 8a 3d 7d c1 10 3c
       0.0053400295 -0.01100859 0.06787048 0.008835194
000310 70 e8 85 3b 42 38 0d 3d a4 ac 25 3d fe 6f 87 bb
       0.0040865466 0.03447748 0.040447846 -0.0041332236
000320 34 1f 8d bc 69 e5 49 3b 24 5e 5f bc 64 e4 af 3c
       -0.017226793 0.0030806905 -0.013633285 0.02147121
000330 46 26 a5 3a 2a 40 18 bc c0 cd 64 3c 02 f1 69 3b
       0.0012599907 -0.009292642 0.01396507 0.003569663
000340 58 0c 0d 3d 27 ed 99 bc 79 28 f0 3c 93 b2 9f 3d
       0.0344356 -0.01878984 0.029316174 0.07797732
000350 07 90 b2 3d 1e 2a 2b 3d 02 42 09 bc 0c 0b cc bc
       0.08718877 0.041788213 -0.008377554 -0.024907611
000360 83 49 b7 bb 35 7b 06 3e 68 06 bc 3b 4f 43 51 bc
       -0.00559348 0.13132937 0.0057380684 -0.012772395
000370 a9 70 d9 3c 2d 77 a7 3c ae 56 b4 3b 73 f7 5a bb
       0.026542978 0.02044257 0.005503497 -0.0033411651
000380 4f e8 92 bb bd c7 e9 3c c8 fc ea bb 70 07 05 3d
       -0.0044832597 0.028537625 -0.007171247 0.032477796
000390 a4 59 f7 3c 4e 41 a5 3d 13 36 c0 bc cb c0 ae 3d
       0.030194111 0.080690965 -0.023463285 0.08532866
0003a0 1d 5c 60 3c 58 86 56 3d 6b 53 f7 3d 3e a5 84 3d
       0.0136938365 0.052374214 0.120764576 0.0647683
0003b0 44 c5 a4 bb d1 a7 2e 3c 27 63 a6 3c 40 59 67 bb
       -0.0050283987 0.010660128 0.020310951 -0.0035301
0003c0 78 fc e9 ba 78 82 0e bc 91 32 29 3d 67 9b f2 bb
       -0.0017851731 -0.008698098 0.04130799 -0.0074037793
0003d0 4c e3 70 3b 73 45 97 3d ac 60 57 3d 05 3a 1e bc
       0.0036756573 0.07386293 0.052582428 -0.009657388
0003e0 ec 28 c3 3d bc 68 89 3c d9 df ea 3d e9 bd d9 bc
       0.095292896 0.016773574 0.11468477 -0.026579814
0003f0 f2 fc 1b bd c9 6d 61 bb 97 b1 6c bc cf f3 55 3c
       -0.038083024 -0.0034397712 -0.014446638 0.013058617
