2_Party/shadow_model_data/shadow_minus_F_client1_bottom.pt (torch, 21888 bytes, 4 tensors)

net.0.weight f4 [64, 10]
0	0xbf1291ca	-0.57253706
1	0xbf1a45c6	-0.60262716
2	0xbe53f85a	-0.20700207
3	0x3f7c793b	0.98622483
4	0x3f966652	1.1749976
5	0x3f8170ba	1.0112526
6	0x3d31e94f	0.04343539
7	0xbe9ba974	-0.3040272
8	0x3c0d806c	0.008636575
9	0xbde525a0	-0.11188817
10	0xbf15afac	-0.5847118
11	0xbeefed73	-0.46860847
12	0xbf3b8565	-0.7325042
13	0x3faef0b9	1.3667213
14	0x3f805877	1.0026997
15	0x3fadfd17	1.3592862
16	0xbe8c6c9b	-0.2742661
17	0xbd7e9b86	-0.062160037
18	0xbe0df987	-0.13864718
19	0xbe284ba4	-0.16435105
20	0xbf94fb88	-1.1639261
21	0xbf5a6581	-0.8531113
22	0xbf051421	-0.5198384
23	0xbf538aea	-0.8263384
24	0xbf548172	-0.8301002
25	0xbf053c76	-0.5204538
26	0x3e9811c2	0.29701048
27	0x3f0d50a5	0.5520118
28	0x3da12939	0.07869191
29	0xbf3842d9	-0.71977
30	0x3f19cfe5	0.60082847
31	0x3ea6f57e	0.3260917
32	0x3f635625	0.8880332
33	0x3f5ecd24	0.8703177
34	0x3f64077b	0.89073914
35	0x3f5d5bcb	0.8646819
36	0xbf3ac730	-0.72960186
37	0xbedfffcc	-0.43749845
38	0xbf4a48dc	-0.79017425
39	0x3ebd4288	0.36964822
40	0xbe89360c	-0.26799047
41	0x3e5c63c9	0.2152244
42	0xbe01d6cf	-0.12679599
43	0x3cf24f29	0.029578762
44	0xbcf1fde3	-0.029540008
45	0x3e88e197	0.2673461
46	0xbe8b6066	-0.27221984
47	0x3e94b7c1	0.29046443
48	0x3e90b14f	0.28260276
49	0xbe967275	-0.293842
50	0x3f83af2b	1.0287832
51	0x3fa7b08e	1.3100755
52	0x3f6763ad	0.9038647
53	0x3f0efdc4	0.55855966
54	0x3f43cce6	0.76484525
55	0x3f036c5b	0.5133721
56	0xbe8de998	-0.2771728
57	0x3c54ac97	0.012980602
58	0x3cfa6f8e	0.030570772
59	0xbf9b9886	-1.2155921
60	0xbf62fd42	-0.8866769
61	0xbf4dfb80	-0.80461884
62	0xbf8066e8	-1.0031404
63	0xbef359ab	-0.4752935
64	0xbf2ce4bb	-0.67536515
65	0xbf32442d	-0.6963528
66	0x3d07a905	0.033120174
67	0xbe72109d	-0.2363915
68	0x3e1fe17f	0.15613364
69	0xbe7a4bff	-0.24443053
70	0x3f8d642f	1.1046199
71	0x3f50132a	0.8127924
72	0x3f414c85	0.75507385
73	0x3eec6478	0.46170402
74	0x3f3990c9	0.7248655
75	0x3f2522d1	0.6450625
76	0xbed3b605	-0.41349807
77	0xbee3c6e9	-0.44487694
78	0xbf02045e	-0.50787914
79	0xbd451a15	-0.048120577
80	0xbe993bab	-0.29928336
81	0x3d553387	0.052051093
82	0xbe30f885	-0.17282303
83	0x3e045c4a	0.1292583
84	0x3e6d233b	0.2315797
85	0xbd568714	-0.052374914
86	0xbe1b6699	-0.15175857
87	0x3e01666b	0.12636726
88	0xbe39668c	-0.18105525
89	0xbe6e80c8	-0.23291314
90	0x3d7da691	0.06192643
91	0xbe4d0aef	-0.20023702
92	0xbe48d6ff	-0.19613265
93	0x3d0d82db	0.03454862
94	0x3d962c34	0.0733265
95	0x3cc98f0b	0.024604341
96	0xbe66b72a	-0.22530809
97	0xbdc05d01	-0.09392739
98	0x3e023aea	0.12717786
99	0x3df2da52	0.118580475
100	0x3e017fd9	0.12646426
101	0xbe28e279	-0.16492642
102	0xbdc7d754	-0.097578675
103	0xbe044761	-0.12917854
104	0x3e960079	0.29297236
105	0xbdef351c	-0.11680052
106	0x3e672e25	0.22576196
107	0x3e300ca7	0.17192326
108	0xbe95a227	-0.29225275
109	0xbe889d9a	-0.2668274
110	0x3d863ebe	0.06554936
111	0x3e965ee4	0.2936927
112	0x3e15f497	0.14644085
113	0x3e0350b1	0.1282375
114	0xbe76e62c	-0.24111241
115	0x3e418e43	0.18901925
116	0x3ea03b0d	0.31295052
117	0xbe26841e	-0.16261336
118	0x3e5f7e8c	0.21825618
119	0xbe337f53	-0.17529039
120	0x3d35237b	0.04422329
121	0x3e7e8de3	0.24858813
122	0x3cbea892	0.02327374
123	0x3d849659	0.06473989
124	0x3e1eb06b	0.15496986
125	0x3e47f629	0.19527496
126	0x3d9c15de	0.07621358
127	0xbe32237e	-0.17396352
128	0xbc4e9bc8	-0.012610383
129	0x3e0b502b	0.136048
130	0xbe1956b7	-0.14974485
131	0x3e85ebf2	0.26156574
132	0x3e4f5964	0.20248944
133	0xbda969fc	-0.08272168
134	0x3e4d861b	0.20070688
135	0xbe8a78e0	-0.27045345
136	0x3e886fd0	0.26647806
137	0xbe5da198	-0.21643674
138	0xbe733cce	-0.23753664
139	0x3df7c0e5	0.120973386
140	0xbf8e5f4b	-1.1122831
141	0xbf7f6c27	-0.997744
142	0xbf231e55	-0.6371816
143	0x3e733d20	0.23753786
144	0xbd2ca852	-0.04215271
145	0x3e943aae	0.2895102
146	0xbf2cb75c	-0.67467284
147	0xbf2ba992	-0.6705562
148	0xbf04d240	-0.51883316
149	0x3fb73e5e	1.4315908
150	0xbe0852cb	-0.13312833
151	0xbded88f6	-0.11598389
152	0xbda1f3e0	-0.079078436
153	0xbe7b2cb9	-0.24528779
154	0x3e640bec	0.22270173
155	0x3e277cf9	0.16356267
156	0xbe8187a4	-0.25298798
157	0xbe2f48ac	-0.17117566
158	0xbe101ca4	-0.14073426
159	0x3ba293b1	0.004961454
160	0xbfba5f3a	-1.4560311
161	0xbf8097e7	-1.0046357
162	0xbf6cc968	-0.9249482
163	0x3ea89064	0.3292266
164	0xbe0c3c25	-0.13694818
165	0xbd9fe052	-0.078064576
166	0xbf0e72e0	-0.55644035
167	0xbf1c2b9b	-0.61004037
168	0xbf3c11d8	-0.7346473
169	0x3fa6f0f8	1.3042288
170	0xbfd0d97d	-1.6316372
171	0xbfe27d49	-1.7694484
172	0xbfd22e00	-1.6420288
173	0x3fcf2c58	1.6185408
174	0x3fe66706	1.800019
175	0x3ff6e31c	1.9288058
176	0x3e00ea39	0.12589349
177	0x3c9346a4	0.01797802
178	0x3e881089	0.26575115
179	0x3eaace71	0.33360627
180	0x3eef1e64	0.46702874
181	0x3f5c68a9	0.860972
182	0x3f6e572b	0.9310176
183	0x3f562aba	0.83658946
184	0x3f839c3d	1.0282055
185	0x3f4378e7	0.7635636
186	0xbe764975	-0.24051459
187	0xbf34ef0f	-0.70677274
188	0xbf2f0726	-0.6837028
189	0x3e92b87e	0.2865638
190	0x3f5afaf3	0.8553917
191	0x3f887888	1.0661783
192	0x3f3634f6	0.7117456
193	0x3f0f1c4f	0.5590257
194	0x3f21e47a	0.6323925
195	0x3f2a01fc	0.6640928
196	0xbee30dca	-0.44346458
197	0xbf08eb76	-0.53484285
198	0xbf5baf59	-0.85814434
199	0xbd93855b	-0.0720317
200	0x3e106fa2	0.14105085
201	0x3e322e02	0.17400363
202	0x3e0fea20	0.14054155
203	0xbdeb2d9e	-0.1148331
204	0x3cad82ef	0.021180598
205	0xbd30f614	-0.04320343
206	0xbd83b44e	-0.06430875
207	0xbe6c45ce	-0.23073503
208	0xbe693b75	-0.22776587
209	0xbd47d768	-0.04878941
210	0x3df38168	0.11889917
211	0xbe358c75	-0.17729361
212	0x3e0498ed	0.12948962
213	0xbe0c5389	-0.13703741
214	0xbd45f28d	-0.048327018
215	0xbe9a73ee	-0.30166572
216	0xbd4baf4f	-0.049727734
217	0xbca8a0a6	-0.020584416
218	0x3db887f1	0.09010304
219	0xbe88f198	-0.2674682
220	0x3dbb1e39	0.09136624
221	0x3e8be6d4	0.27324545
222	0xbc0c43aa	-0.008561054
223	0xbcb0f1cf	-0.021599678
224	0x3cc9cb34	0.024633028
225	0x3e359d29	0.17735733
226	0x3d672d97	0.056439962
227	0x3cf3a7ed	0.02974316
228	0xbddeb468	-0.108742535
229	0xbe3c5e37	-0.18395315
230	0xbda21e58	-0.07915944
231	0x3d9790ee	0.0740069
232	0x3e8bcfd6	0.27307004
233	0x3e9ce6a6	0.3064472
234	0x3e6d3b49	0.23167147
235	0x3daa387b	0.08311554
236	0x3cc17dc2	0.023619536
237	0xbe055e40	-0.13024235
238	0xbe84e707	-0.2595751
239	0xbdeb6106	-0.11493115
240	0x3f287d25	0.65815955
241	0x3f32cf54	0.6984761
242	0x3f26b186	0.6511463
243	0x3f7c13a9	0.984675
244	0x3f68acb6	0.90888536
245	0x3f59d151	0.85085016
246	0xbf1073ff	-0.56426996
247	0xbef2e2ab	-0.4743856
248	0xbeff2fea	-0.49841243
249	0x3ea79ed9	0.3273838
250	0xc000549a	-2.0051637
251	0xbfe5886c	-1.7932258
252	0xbfddfe81	-1.7343293
253	0x3fc99d5a	1.5751145
254	0x3ffba84e	1.9660738
255	0x3fe24940	1.7678604

net.0.bias f4 [64]
0	0x3d2b1e70	0.041777074
1	0x3d542948	0.05179718
2	0xbd802a5a	-0.06258078
3	0xbda3f249	-0.080051966
4	0xbe927822	-0.2860728
5	0xbd844355	-0.06458155
6	0xbd307430	-0.043079555
7	0xbce08c89	-0.027410762
8	0xbe5274f6	-0.2055243
9	0xbd6cecec	-0.057843134
10	0xbcdbb92c	-0.026821695
11	0xbe95d57c	-0.29264438
12	0xbe7d9d65	-0.24767072
13	0xbe9ea728	-0.30986905
14	0x3d98232d	0.07428584
15	0xbd6413d4	-0.055682972
16	0x3d748d47	0.059705045
17	0x3c19ecbd	0.009394822
18	0xbd050f10	-0.032485068
19	0xbd0b7172	-0.034043737
20	0xbe935cc0	-0.287817
21	0xbe566b4f	-0.20939372
22	0xbe1478a6	-0.14499149
23	0xbe1eed4a	-0.15520206
24	0xbccbd226	-0.02488048
25	0x3cbe9f93	0.02326945
26	0x3d183c3e	0.037166826
27	0x3d4073fb	0.046985608
28	0x3e146a2e	0.1449363
29	0xbe9f0760	-0.31060314
30	0x3e21926f	0.15778516
31	0xbd61951d	-0.055073846
32	0xbdb453fe	-0.08805083
33	0xbdbcd071	-0.092194445
34	0x3da4c47b	0.08045288
35	0xbe976896	-0.2957198
36	0x3e40c055	0.18823369
37	0x3e276a2f	0.163491
38	0xbd7e8464	-0.062137976
39	0xbe34805e	-0.17627093
40	0xbe43e0c3	-0.19128709
41	0xbe49d215	-0.19709046
42	0xbda5371e	-0.080671534
43	0x3e0fa0b3	0.14026146
44	0x3cec2886	0.028827917
45	0x3d9434a9	0.07236607
46	0xbe568d20	-0.20952272
47	0xbe63a364	-0.22230297
48	0xbe0402f4	-0.12891752
49	0x3d9c447e	0.07630251
50	0x3d1d7b61	0.03844774
51	0xbe88e671	-0.26738313
52	0xbd6ba50c	-0.057530448
53	0xbe08b74f	-0.13351177
54	0xbe4fb3a5	-0.20283373
55	0xbe5189ab	-0.20462672
56	0x3d4eaff0	0.050460756
57	0xbe82f6c7	-0.255789
58	0x3dc5ddd8	0.09661454
59	0x3d7de0e6	0.061982058
60	0x3e118916	0.1421245
61	0xbd41645b	-0.047214847
62	0xbc0fa50a	-0.008767376
63	0xbde8e5f5	-0.11371986

net.3.weight f4 [64, 64]
0	0x3d8dc35b	0.06922027
1	0x3c4f1af4	0.0126407035
2	0xbfa7f17d	-1.3120571
3	0x3d4d6588	0.050145656
4	0xbdecca3a	-0.11562009
5	0x3d244cdc	0.04011236
6	0xbf67e0ff	-0.9057769
7	0xbe0e321b	-0.13886301
8	0x3d1951ac	0.037431404
9	0x3da3d11a	0.07998867
10	0x3dac9740	0.08427286
11	0xbdd1ef32	-0.10250701
12	0x3dcef740	0.10105753
13	0xbd2cfb28	-0.04223171
14	0xbf5b1ef2	-0.85594094
15	0xbcfd7cf8	-0.030943379
16	0xbf5fae39	-0.8737522
17	0x3c8f35c7	0.017481698
18	0x3d2595f8	0.040426224
19	0xbde79264	-0.11307219
20	0x3c4159b0	0.011801168
21	0x3c5d5f70	0.013511524
22	0x3d5e36a4	0.054251328
23	0xbd452828	-0.048134
24	0xbd0dadfd	-0.034589756
25	0xbca4eb54	-0.020131744
26	0x3c04dfb2	0.008109974
27	0xbfb9eb7f	-1.4524993
28	0x3e842304	0.25807965
29	0xbda6dc9c	-0.08147547
30	0x3dc569f0	0.096393466
31	0x3e252be1	0.1613002
32	0x3f872a45	1.0559775
33	0x3d352530	0.044224918
34	0xbf497b25	-0.7870353
35	0xbd335834	-0.04378529
36	0x3d29aa38	0.0414221
37	0x3e8fcbfa	0.2808531
38	0xbccca0e5	-0.024979064
39	0xbdc28fc4	-0.09500077
40	0x3da7da20	0.08195901
41	0x3d49d368	0.04927388
42	0xc0130fcf	-2.2978399
43	0x3e93809f	0.28809068
44	0xbc7b2f6d	-0.015331131
45	0xbf6a2bf1	-0.914733
46	0xbd775448	-0.06038311
47	0xbc144140	-0.00904876
48	0xbd1ca88c	-0.038246676
49	0xbf36b0f1	-0.7136374
50	0x3b30d232	0.0026980755
51	0xbdb2c6be	-0.08729313
52	0xbfac7f7e	-1.3476408
53	0x3c80d9d0	0.015728861
54	0xbda24752	-0.079237595
55	0xbdb5d8d2	-0.08879246
56	0xbfb3bd0d	-1.4042069
57	0xbcf70e78	-0.030158266
58	0x3ea1aa68	0.31575322
59	0xbf40bc3d	-0.7528723
60	0x3ed6ee5c	0.4197873
61	0xbd0d787d	-0.034538735
62	0x3e0fae6c	0.1403138
63	0x3d96afc2	0.07357742
64	0xbc40d779	-0.011770123
65	0xbe072db4	-0.13201028
66	0xbfc8d028	-1.5688524
67	0x3f12d334	0.5735352
68	0xbccabec0	-0.02474916
69	0x3ee4da64	0.4469787
70	0xbfaf0d46	-1.3675926
71	0x3f1f3d73	0.6220314
72	0x3cdeca90	0.027196199
73	0xbd949518	-0.07255
74	0x3d029b6c	0.031886503
75	0x3dbdfed4	0.0927712
76	0x3d281f1c	0.041045293
77	0xbd0f3350	-0.034961045
78	0xbd19be62	-0.03753508
79	0xbd39364c	-0.045217797
80	0xbd8e952d	-0.06962047
81	0xbea8e332	-0.32985836
82	0x3e9cd898	0.30633998
83	0x3f2ceca1	0.6754857
84	0x3dae1508	0.08500105
85	0x3bf03180	0.0073301196
86	0x3d9a4f9c	0.075347155
87	0x3d980282	0.07422353
88	0x3eb13094	0.34607375
89	0xbe9a9d4e	-0.3019814
90	0x3cceb7c6	0.025234114
91	0xbec81de5	-0.39085308
92	0xbba06631	-0.0048949947
93	0xbdb1aee2	-0.086759344
94	0xbcc87e92	-0.024474416
95	0x3e81721e	0.25282377
96	0x3f496660	0.78671837
97	0x3d227e1c	0.03967105
98	0x3d8b11b6	0.067904875
99	0x3dafd8ac	0.08586249
100	0xbdf40b5d	-0.1191623
101	0x3d1c35eb	0.038137358
102	0x3f00ff01	0.50389105
103	0xbcd400b8	-0.025879249
104	0x3df6bfcc	0.12048301
105	0xbcaa0d20	-0.020758212
106	0xc000021d	-2.000129
107	0x3e46b2fe	0.19404218
108	0x3e0c0412	0.13673428
109	0x3b207fad	0.0024490163
110	0xbd73371c	-0.05937873
111	0x3dd5ae1a	0.10433598
112	0xbd77fb64	-0.06054248
113	0x3cb0d495	0.021585742
114	0xbc93b145	-0.018028865
115	0xbdedb5f4	-0.116069704
116	0xbfbaea20	-1.4602699
117	0x3dc90e8c	0.09817228
118	0x3db3b79a	0.087752536
119	0x3dc1ab12	0.09456457
120	0xbebb224c	-0.36549604
121	0x3d1c4230	0.03814906
122	0x3e263dbf	0.16234492
123	0xbddae0a1	-0.10687376
124	0x3d8b5c0a	0.068046644
125	0x3f10aa11	0.565095
126	0x3ee434a0	0.445714
127	0x3cc65268	0.024209216
128	0x3e9e89b4	0.30964434
129	0x3f034a77	0.512855
130	0xbe1f12af	-0.15534471
131	0x3f4db49f	0.8035373
132	0xbc89ac18	-0.016805694
133	0x3f7a6024	0.9780295
134	0xbdbaf859	-0.091294
135	0x3f2c86cc	0.67393184
136	0x3de1e89e	0.11030696
137	0x3c347960	0.011015266
138	0x3d1b51e8	0.03791991
139	0xbd838b26	-0.06423025
140	0xbd41572c	-0.047202274
141	0xbd4450e8	-0.04792872
142	0x3dab3fdf	0.08361792
143	0x3db6c5f8	0.08924478
144	0x3d27755b	0.040883403
145	0x3d75e081	0.060028557
146	0x3f3095c6	0.68978536
147	0x3f4a2b5b	0.78972405
148	0x3d9b508a	0.07583721
149	0x3d878bcc	0.06618461
150	0x3c47a000	0.012184143
151	0x3c887448	0.01665701
152	0x3ef77d83	0.48337945
153	0x3e4680d1	0.19385077
154	0x3f0213e8	0.50811625
155	0x3c5aba3a	0.013350064
156	0x3e067da0	0.1313386
157	0xbd9149c4	-0.07094148
158	0x3dba63d3	0.09101071
159	0x3eceabb0	0.40365362
160	0xbe85d2ce	-0.26137394
161	0x3d49d8e8	0.049279124
162	0x3d88a9a7	0.066729836
163	0x3d1b284c	0.037880227
164	0x3df394b8	0.118936
165	0x3e2728f8	0.16324222
166	0x3f52ebac	0.82390857
167	0xbdec35ae	-0.11533676
168	0xbdf6ea82	-0.120564476
169	0x3c26f130	0.0101893395
170	0xbd105b11	-0.035243098
171	0x3df34f22	0.11880328
172	0x3ee1a61c	0.44072044
173	0x3da7743c	0.08176467
174	0x3ae10f80	0.0017170757
175	0x3d81d0c6	0.063386485
176	0x3d5e53d4	0.054279163
177	0x3dc22584	0.09479812
178	0x3ea1d37d	0.31606665
179	0xbcaeb668	-0.021327212
180	0xbe3ddfc0	-0.18542385
181	0xbc342310	-0.010994688
182	0xbd632ce0	-0.055462718
183	0x3b338140	0.0027390271
184	0xbd8939c6	-0.067004725
185	0xbc9c39c8	-0.019070521
186	0x3db5eca2	0.08883025
187	0x3d5c0379	0.05371425
188	0x3e084e9b	0.13311236
189	0x3f474932	0.7784606
190	0x3f3088ac	0.68958545
191	0xbdf3d9da	-0.11906786
192	0xbe8f5b7f	-0.27999493
193	0xbeb843b9	-0.35989168
194	0xbfa078e3	-1.2536892
195	0x3d0ddaa3	0.034632336
196	0x3dd460ec	0.10370049
197	0x3ead6435	0.33865514
198	0xbf41d850	-0.7572069
199	0x3e1ece95	0.15508492
200	0xbc8a69c8	-0.016896144
201	0x3d8e49e0	0.06947684
202	0x3dfabb92	0.122428074
203	0x3dc52a6c	0.09627232
204	0x3daeb9c6	0.08531527
205	0xbd585f5c	-0.052825317
206	0xbf6c5bfd	-0.9232786
207	0x3dcee8ac	0.101029724
208	0xbf2e5725	-0.6810172
209	0xbf0fcc0a	-0.56170714
210	0x3d0f509b	0.03498898
211	0x3def9f88	0.1170035
212	0x3d4e1d00	0.050320625
213	0xbbaf0c60	-0.0053420514
214	0xbd057178	-0.032578915
215	0xbd97b406	-0.074073836
216	0x3d2af838	0.041740626
217	0xbf225a52	-0.6341907
218	0xbeb60381	-0.35549548
219	0xbfc4a983	-1.5364231
220	0x3e5a3652	0.21309784
221	0xbd512bd4	-0.05106719
222	0x3d64cbe8	0.055858523
223	0x3edef9ef	0.4355006
224	0x3fbcf259	1.4761459
225	0x3d23f628	0.040029675
226	0xbf405a60	-0.751379
227	0xbbffbfe0	-0.0078048557
228	0xbd3d2e88	-0.046186954
229	0x3e9ecd2b	0.31015906
230	0x3e58554f	0.21126293
231	0x3d6cd2b0	0.057818115
232	0xbd3b0bf0	-0.04566568
233	0x3c108220	0.008820087
234	0xc0004c28	-2.0046482
235	0x3eb6790e	0.35639232
236	0xbd91fefd	-0.07128713
237	0xbf5a813c	-0.85353446
238	0xbc730dc0	-0.014834821
239	0x3bca68a0	0.006177023
240	0x3d1d6788	0.038428813
241	0xbf130eab	-0.57444257
242	0xbef2bdf4	-0.47410548
243	0x3be40e80	0.0069597363
244	0xbf8f5b05	-1.1199652
245	0xbc2af380	-0.0104340315
246	0xbde41ecc	-0.111386865
247	0x3c9cfb88	0.019162908
248	0xbfb4f6d9	-1.4137832
249	0x3d863382	0.06552793
250	0x3e916c90	0.2840314
251	0xbf398072	-0.72461617
252	0x3ec74b13	0.38924465
253	0x3eab246c	0.33426225
254	0xbcc9458c	-0.024569295
255	0x3dcd2e6e	0.100186214

net.3.bias f4 [64]
0	0x3e64cb3e	0.22343156
1	0x3e6fd87c	0.23422426
2	0x3dc32789	0.09529025
3	0x3e8427fd	0.2581176
4	0x3c73410e	0.014847053
5	0x3d77ef83	0.06053115
6	0x3d97f77f	0.07420253
7	0x3e71d0e5	0.23614843
8	0x3e42980a	0.19003311
9	0x3e7bf482	0.24604991
10	0x3e988f7f	0.2979698
11	0x3e85f113	0.26160488
12	0x3d5d362c	0.05400674
13	0x3cd76011	0.026290925
14	0x3e8a2b96	0.26986378
15	0x3e40c675	0.18825705
16	0x3c910fce	0.017707732
17	0x3e65f683	0.22457318
18	0xbca1ebf3	-0.01976583
19	0x3e951cd5	0.2912356
20	0x3e687155	0.22699483
21	0x3ec66f3b	0.38756737
22	0x3ca18fbb	0.019721856
23	0x3dc5583e	0.096359715
24	0x3dad7cb6	0.08471052
25	0x3e482b61	0.19547798
26	0x3df1eb72	0.11812486
27	0x3ed75769	0.42058876
28	0x3d972370	0.07379806
29	0x3db39609	0.08768851
30	0x3e2ade64	0.16686398
31	0xbc0f163d	-0.008733329
32	0x3df7ff3d	0.1210923
33	0x3e01a306	0.12659845
34	0x3dc50e5a	0.09621878
35	0x3e0a8203	0.13526158
36	0x3e1ca618	0.15297735
37	0x3e827538	0.25480056
38	0x3c30b335	0.010784914
39	0x3d796b1f	0.060893174
40	0xba6cf27f	-0.000903882
41	0x3e0d03d7	0.13770996
42	0x3daa1a9d	0.08305857
43	0x3e4da628	0.20082915
44	0x3ce7d525	0.028299877
45	0x3e092965	0.13394697
46	0x3e117f78	0.14208782
47	0x3e4c050f	0.19923805
48	0xbd33f1da	-0.04393182
49	0x3e03aaed	0.12858172
50	0x3dd082ee	0.10181223
51	0x3e3bc801	0.18338014
52	0x3c767634	0.01504283
53	0x3e0b161e	0.13582656
54	0x3e93909e	0.28821272
55	0x3e44aafe	0.19205853
56	0x3e6a0515	0.22853501
57	0x3e521161	0.20514442
58	0x3dbd305a	0.09237738
59	0x3df23147	0.11825805
60	0x3e18a5f7	0.1490706
61	0x3e83dede	0.25755972
62	0x3e0dd8a0	0.13852167
63	0x3dd72321	0.10504747
