2_Party/shadow_model_data/shadow_minus_F_client2_bottom.pt (torch, 21376 bytes, 4 tensors)

net.0.weight f4 [64, 8]
1.4584049 0.959903 1.0972236 0.836032 -0.255114 -0.66926754 0.01368978 0.13997601
2.7386963 -0.2283316 0.12397462 -0.38463327 1.0556533 0.7216078 0.40710202 -0.6502546
-1.6207598 0.29606533 -0.093885645 0.104952514 -0.12042462 -0.47736248 -0.63548553 0.8919486
2.068322 0.5110849 0.45530406 0.53564686 -0.53679496 -0.47265965 0.0988726 -0.88242817
2.0687525 -0.09159917 -0.03195126 -0.20781805 0.5147526 0.09328208 0.48671338 -0.87547183
1.7820008 -0.82226014 -1.0717567 -0.6169669 0.77685654 0.35697433 0.52137905 -0.0004541987
0.1427958 0.22545157 0.26805872 -0.05537333 -0.014828062 -0.019985067 0.20908183 -0.17715669
2.0012186 -0.72980565 -0.90658575 -0.4445335 0.21423626 0.33201697 0.6606659 -0.47646594
2.6225498 -1.9223326 -1.8905458 -1.586434 0.027020276 0.3799847 0.16322827 0.4915519
0.29534218 -0.10592135 0.1717924 -0.014113842 0.11821761 -0.261508 -0.31591186 -0.12014107
0.2565483 0.16314657 0.25804362 -0.08255038 0.24089755 -0.092953905 0.20901991 -0.3452338
-0.16218768 0.027819997 0.1922303 -0.29307252 -0.106978394 -0.08807473 -0.05554748 0.3237649
0.2097099 0.26161137 0.16936226 0.29011732 0.336398 0.08041509 0.33737865 -0.22250472
-0.037830632 0.14842393 -0.11363035 0.20364872 -0.3351445 -0.026182255 0.3096227 0.25343773
2.4752853 0.10829004 0.02548238 -0.5486597 0.718386 0.25228432 0.5430013 -0.5017509
-0.20609045 -0.3463667 -0.2122157 0.3021708 0.1995558 -0.1897731 -0.23766515 -0.20490469
-0.34273866 -0.061311904 0.011114335 -0.31681406 -0.24170509 0.20476355 -0.30549696 -0.10107463
2.491095 0.5895451 0.7454489 0.23653479 0.09667859 -0.14392282 -0.26453823 -1.1008772
2.2729633 0.59887683 0.43470448 0.5588882 0.078840405 -0.51695144 -0.27840757 -0.8850848
0.047291882 -0.008584428 -0.27439582 -0.2262412 0.34542072 -0.23344456 -0.0038416008 -0.029688703
-1.7015063 -0.1293196 0.09571416 0.3728893 -0.51117325 -0.46399835 -0.3202253 0.9899268
-2.2357774 0.060000207 0.14777006 0.080232754 -0.29523784 -0.14335537 0.044563923 -0.02717692
-0.087711975 -0.14912777 -0.33927807 0.23449925 -0.045732323 0.1309173 -0.28570914 0.10975418
-1.6333088 0.07802861 -0.0006245856 0.28005904 -0.3479057 -0.64920473 -0.31771088 1.0132564
0.18481527 -0.038075253 0.04823471 -0.2770744 0.17047165 0.27531123 0.054248516 -0.06616284
0.9038362 0.76945895 0.93095475 0.7287092 -0.33022165 -0.22527032 -0.6215965 0.20689829
1.7906629 0.1941828 0.037639234 0.17234543 -0.33667544 -0.4673765 -0.46681663 -0.9855683
3.2793615 -1.6431271 -1.0793343 -1.1049719 -0.095217235 -0.11348945 -0.36344743 -0.90487427
-1.4712299 0.40309095 -0.094764315 -0.023535421 -0.41224137 -0.28900677 -0.46571204 0.8308924
-1.3859899 0.07643252 -0.3870205 -0.4212231 -0.5907067 -0.7048616 -0.17553239 0.19420213
1.3340418 -0.9335001 -1.055579 -1.0213966 -0.16863137 0.1172833 0.43391952 0.24077284
-1.8068154 -0.310948 -0.5832585 -0.5827177 0.10452948 -0.06104414 0.42957905 -0.46257082
00000000: 03ad ba3f 34bc 753f d371 8c3f 3106 563f
00000010: 4d9e 82be 1e55 2bbf 194b 603c df55 0f3e
00000020: cd46 2f40 c2cf 69be 68e6 fd3d a7ee c4be
00000030: a61f 873f 4abb 383f ad6f d03e 1677 26bf
00000040: 0f75 cfbf e095 973e 1e47 c0bd 58f1 d63d
00000050: 2fa1 f6bd db68 f4be 2eaf 22bf be56 643f
00000060: 635f 0440 76d6 023f 9d1d e93e 2720 093f
00000070: 656b 09bf 7200 f2be b87d ca3d d0e6 61bf
00000080: 7166 0440 5898 bbbd 53df 02bd 41ce 54be
00000090: d4c6 033f ad0a bf3d 7f32 f93e ec1e 60bf
000000a0: 9a18 e43f a47f 52bf 532f 89bf 8bf1 1dbf
000000b0: 12e0 463f 57c5 b63e 1979 053f 8421 eeb9
000000c0: 1039 123e c7dc 663e fe3e 893e 25cf 62bd
000000d0: 66f1 72bc b9b7 a3bc 8c19 563e 9068 35be
000000e0: f713 0040 8bd4 3abf 0116 68bf e599 e3be
000000f0: c060 5b3e 21fe a93e 6721 293f 58f3 f3be
00000100: dbd7 2740 ff0e f6bf 68fd f1bf 4510 cbbf
00000110: a059 dd3c 5b8d c23e 5025 273e b1ac fb3e
00000120: 1737 973e 4bed d8bd 59ea 2f3e be3d 67bc
00000130: 131c f23d 60e4 85be 33bf a1be 850c f6bd
00000140: 4c5a 833e e50f 273e 4b1e 843e 2c10 a9bd
00000150: d9ad 763e 9e5e bebd 5109 563e 7cc2 b0be
00000160: 8714 26be c3e6 e33c 05d8 443e 9a0d 96be
00000170: 7d17 dbbd 8660 b4bd c185 63bd 83c4 a53e
00000180: 31be 563e edf1 853e 4d6d 2d3e 428a 943e
00000190: 5c3c ac3e abb0 a43d e5bc ac3e 47d8 63be
000001a0: 4bf4 1abd 71fc 173e 07b7 e8bd 4a89 503e
000001b0: 0f98 abbe 2b7c d6bc de86 9e3e 97c2 813e
000001c0: 136b 1e40 2bc7 dd3d 6dc0 d03c f674 0cbf
000001d0: 25e8 373f 692b 813e 2202 0b3f bf72 00bf
000001e0: 6009 53be fa56 b1be 134f 59be 22b6 9a3e
000001f0: 5b58 4c3e e153 42be 7e5e 73be 89d2 51be
00000200: 717b afbe 3122 7bbd e618 363c 7435 a2be
00000210: 8a81 77be 89ad 513e 196a 9cbe 3700 cfbd
00000220: 1a6e 1f40 6dec 163f bdd5 3e3f 2d36 723e
00000230: 6dff c53d 8160 13be 8e71 87be 8be9 8cbf
00000240: 3b78 1140 fe4f 193f 9691 de3e 4c13 0f3f
00000250: 1477 a13d ee56 04bf 708b 8ebe eb94 62bf
00000260: 22b5 413d b3a5 0cbc 9c7d 8cbe c6ab 67be
00000270: fcda b03e 170c 6fbe 5ec3 7bbb b935 f3bc
00000280: f5ca d9bf 5b6c 04be c905 c43d 59eb be3e
00000290: 40dc 02bf 3191 edbe 92f4 a3be d86b 7d3f
000002a0: fa16 0fc0 c7c2 753d 0951 173e 1251 a43d
000002b0: 6a29 97be c0cb 12be a988 363d 22a2 debc
000002c0: 56a2 b3bd f3b4 18be dbb5 adbe 9220 703e
000002d0: d151 3bbd 2f0f 063e 7848 92be cdc6 e03d
000002e0: 4310 d1bf 77cd 9f3d 3bbb 23ba e663 8f3e
000002f0: b220 b2be 4832 26bf 00ab a2be 63b2 813f
00000300: 3740 3d3e ccf4 1bbd c291 453d b2dc 8dbe
00000310: 1f90 2e3e 98f5 8c3e b133 5e3d 6280 87bd
00000320: cf61 673f 43fb 443f 0d53 6e3f b08c 3a3f
00000330: d012 a9be 43ad 66be f320 1fbf 25dd 533e
00000340: 7134 e53f dbd7 463e 992b 1a3d 527b 303e
00000350: b960 acbe f94b efbe 9702 efbe 344e 7cbf
00000360: 0fe1 5140 fd51 d2bf a027 8abf b86f 8dbf
00000370: 4101 c3bd 286d e8bd c815 babe d7a5 67bf
00000380: 4351 bcbf f061 ce3e cb13 c2bd 5bcd c0bc
00000390: 4d11 d3be b2f8 93be cf71 eebe 5db5 543f
000003a0: 1e68 b1bf a788 9c3d 8d27 c6be 8eaa d7be
000003b0: 8e38 17bf cf71 34bf c3be 33be ecdc 463e
000003c0: e2c1 aa3f ddf9 6ebf 361d 87bf 20bd 82bf
000003d0: b4ad 2cbe 3a32 f03d b32a de3e 288d 763e
000003e0: ba45 e7bf 9434 9fbe 6e50 15bf fd2c 15bf
000003f0: 8d13 d63d 6c09 7abd c9f1 db3e 15d6 ecbe

net.0.bias f4 [64]
-0.00020952756 -0.040376987 0.03326139 -0.031600438 -0.041439094 0.054170813 -0.332287 0.033143733
-0.032211002 -0.27014026 -0.17207706 -0.14098816 -0.27022383 -0.34351063 -0.051206138 -0.23269305
-0.2929969 -0.0474933 -0.034542616 -0.21284786 0.033774815 0.008080459 -0.07011352 0.033466525
-0.13846205 0.0122411195 -0.03607604 0.021628918 0.024959441 -0.015844528 0.0984002 -0.0354154
0.01525543 -0.33630165 0.06255605 -0.28647637 -0.23120841 -0.03708172 0.012712396 -0.080534995
-0.18252371 0.004637517 -0.021538945 -0.063973375 -0.14090104 -0.027078886 0.1118206 -0.18836847
-0.25704864 -0.07785956 -0.034457866 -0.023516674 -0.1845988 -0.09594648 0.00993769 0.10328652
-0.032177024 0.018134532 -0.33683512 0.0879917 -0.05173002 -0.018724078 -0.16441469 -0.037043385
00000000: a0b4 5bb9 5762 25bd 183d 083d 766f 01bd
00000010: 0abc 29bd 37e2 5d3d 8621 aabe b9c1 073d
00000020: afef 03bd d34f 8abe f834 30be 335f 10be
00000030: c75a 8abe a0e0 afbe 87bd 51bd 1647 6ebe
00000040: b103 96be 5688 42bd 8f7c 0dbd caf4 59be
00000050: 7657 0a3d e763 043c ad97 8fbd 3214 093d
00000060: ffc8 0dbe fa8e 483c 78c4 13bd 212f b13c
00000070: be77 cc3c 62cc 81bc 0b86 c93d bd0f 11bd
00000080: e9f1 793c bb2f acbe 631d 803d 08ad 92be
00000090: e6c1 6cbe 00e3 17bd a747 503c 88ef a4bd
000000a0: 7fe7 3abe 50f6 973b 7172 b0bc 7904 83bd
000000b0: 5d48 10be 8ad4 ddbc 3302 e53d aae3 40be
000000c0: e19b 83be d574 9fbd b123 0dbd 0aa6 c0bc
000000d0: 7807 3dbe 977f c4bd b1d1 223c e287 d33d
000000e0: 0ecc 03bd df8e 943c a775 acbe fe34 b43d
000000f0: dce2 53bd 3d63 99bc 535c 28be ceba 17bd

net.3.weight f4 [64, 64]
-0.07331448 -0.26781568 0.7536856 0.13244954 -0.66604745 0.23180106 -0.10558534 0.08331555
0.18952084 -0.034578964 0.08381763 0.021178126 0.023460478 -0.013670936 -0.6238191 -0.08235632
0.030317083 0.21537955 0.23265396 0.08468261 0.6768328 0.53690994 -0.053942457 0.71829814
0.027286276 -0.018323692 -0.2655925 0.22025824 0.618094 0.3360261 0.13000062 0.57455724
-0.16522668 0.1118276 0.24729717 0.01793331 -0.009968355 0.3603669 -0.059862718 -0.06106825
-0.10524985 -0.07324271 0.51682574 -0.5092939 0.0064204484 0.021215767 -0.0008243321 0.06431922
-0.06458674 0.066588044 0.8038183 0.04805332 0.123937026 0.7430358 0.021019116 -0.020998575
0.17080958 0.1881289 0.055926293 -0.05343539 -0.3879616 -0.12707779 0.03872302 -0.10007385
0.03174144 -0.32450634 0.668555 0.044247575 -0.94064164 0.10517852 0.014501348 0.07259277
-0.03459478 -0.014012158 0.11432055 -0.114452645 -0.0062348843 0.110782996 -0.84127384 0.080355436
0.08438973 0.076952145 0.028305518 -0.080335796 0.5348122 1.0117725 0.048580498 0.6423369
0.02518645 0.09828162 -0.43628374 -0.06766574 0.8144691 0.5181598 0.1676442 0.9955109
0.1679727 0.11512749 0.045543097 0.026769772 0.013727903 0.5656808 0.118168294 0.016430601
0.04621552 0.11868481 0.80108786 -0.42841318 -0.046581015 0.08448242 0.22966038 -0.081287086
0.067894205 0.03594978 1.2002592 0.07199903 0.11450438 -0.034031782 0.10287217 0.21634293
-0.15087324 -0.069391444 -0.1200296 0.055309508 -0.50343895 0.13353902 -0.10132328 0.021977505
-0.5015633 -0.029893244 0.35309806 -0.45198378 0.10450673 0.083420984 -0.035362005 0.065893576
0.15615429 0.0016605407 0.0729112 0.09414081 -0.07104464 0.018783972 -0.20033728 -0.102494046
0.12434672 -0.19294016 -0.3358171 -0.06549998 0.15757819 0.35677725 0.028695643 0.19339421
-0.10778855 -0.57900965 -0.19482878 0.09697333 0.2543032 0.09109829 -0.10327648 0.4846115
-0.7658744 -0.04657133 0.029720742 0.049593598 0.08947201 0.15625471 -0.6375826 -0.110491425
-0.11823933 -0.5921339 0.29596877 -0.20658147 0.09836635 -0.0022242367 -0.16503884 0.013037726
-0.1033106 -0.0040608644 0.397273 -0.53619576 -0.05345133 1.0580422 -0.4608884 -0.13741371
0.15631191 0.30135745 -0.052801177 -0.030832674 -0.034920126 -0.61553586 -0.018697634 -0.037027918
0.026134826 0.08270653 0.21536238 -0.16859612 0.2529043 0.21708775 -0.08910626 0.38015902
0.49482363 0.11719222 -0.099210575 -0.095309556 0.013968006 -0.08752978 0.10317541 0.09352285
-0.00738582 -0.17773743 -0.20935163 -0.08624309 0.23764397 -0.08969053 -0.11600667 0.06923288
-0.09484449 0.036600884 -0.47383916 0.4730008 0.070121124 0.20659493 -0.016174719 0.29495528
-0.008871168 -0.028443381 0.114804804 0.110489815 0.014683515 0.13005379 -0.021548446 -0.08147383
0.07082048 -0.04121408 0.01839562 0.0631219 0.043566674 -0.002153024 0.06172838 0.08846097
-0.048071012 -0.0049598366 0.3773321 -0.124031805 0.08291122 1.2990826 0.029273447 0.0054771155
0.5824374 0.4748294 -0.085381776 0.10695119 0.03074072 0.004272119 0.006942913 0.01792598
00000000: e725 96bd 231f 89be 8af1 403f daa0 073e
00000010: 1682 2abf 425d 6d3e 203d d8bd 58a1 aa3d
00000020: c011 423e aca2 0dbd 94a8 ab3d c07d ad3c
00000030: 3030 c03c 10fc 5fbc 9cb2 1fbf 6eaa a8bd
00000040: 885b f83c 758c 5c3e d73c 6e3e 146e ad3d
00000050: ea44 2d3f ee72 093f c4f2 5cbd 63e2 373f
00000060: 7887 df3c 911b 96bc bdfb 87be 608b 613e
00000070: 693b 1e3f 9d0b ac3e e21e 053e 2f16 133f
00000080: 2f31 29be de05 e53d 783b 7d3e e0e8 923c
00000090: 5052 23bc 0382 b83e 9c32 75bd b422 7abd
000000a0: 3c8d d7bd 4600 96bd b14e 043f 1661 02bf
000000b0: a062 d23b b0cc ad3c fe17 58ba ccb9 833d
000000c0: 0e46 84bd 505f 883d 09c7 4d3f 8fd3 443d
000000d0: b2d2 fd3d 9837 3e3f 4830 ac3c 3405 acbc
000000e0: b5e8 2e3e dda4 403e f812 653d 11df 5abd
000000f0: e7a2 c6be ae20 02be 089c 1e3d 85f3 ccbd
00000100: 5003 023d b225 a6be 6c26 2b3f f23c 353d
00000110: e4cd 70bf d667 d73d 1097 6d3c 85ab 943d
00000120: 42b3 0dbd 4093 65bc e420 ea3d 2666 eabd
00000130: 004e ccbb 32e2 e23d b95d 57bf 6491 a43d
00000140: 86d4 ac3d 1699 9d3d f9e0 e73c 1887 a4bd
00000150: 74e9 083f c381 813f 58fc 463d 3170 243f
00000160: d053 ce3c e047 c93d 9560 dfbe 5694 8abd
00000170: 0c81 503f 1fa6 043f ecaa 2b3e cdd9 7e3f
00000180: 0901 2c3e f6c7 eb3d 668b 3a3d 484c db3c
00000190: 00eb 603c 75d0 103f 3802 f23d 7899 863c
000001a0: 7c4c 3d3d 0611 f33d 1814 4d3f f958 dbbe
000001b0: bccb 3ebd 1e05 ad3d 172c 6b3e d879 a6bd
000001c0: 1e0c 8b3d 1440 133d 18a2 993f 3a74 933d
000001d0: 4681 ea3d e964 0bbd a5ae d23d 0089 5d3e
000001e0: 847e 1abe 1a1d 8ebd 14d2 f5bd 398c 623d
000001f0: 60e1 00bf 74be 083e 9482 cfbd 2b0a b43c
00000200: 7466 00bf ade2 f4bc 45c9 b43e 6b6a e7be
00000210: a007 d63d 9fd8 aa3d c0d7 10bd 36f3 863d
00000220: e9e6 1f3e 80a6 d93a 7852 953d e6cc c03d
00000230: da7f 91bd d8e0 993c 3725 4dbe 66e8 d1bd
00000240: 7ea9 fe3d 1b92 45be 38f0 abbe da24 86bd
00000250: 2d5c 213e 82ab b63e 2013 eb3c 2209 463e
00000260: 3ec0 dcbd fa39 14bf 3281 47be f499 c63d
00000270: 0734 823e be91 ba3d 9f82 d3bd 001f f83e
00000280: 5810 44bf 94c1 3ebd ea78 f33c a822 4b3d
00000290: 1a3d b73d 3c01 203e 9d38 23bf 5449 e2bd
000002a0: 7627 f2bd 1696 17bf 3889 973e 188a 53be
000002b0: 4c74 c93d 80c4 11bb f1ff 28be 309c 553c
000002c0: 8294 d3bd 0011 85bb 5e67 cb3e 2044 09bf
000002d0: c8ef 5abd ed6d 873f 90f9 ebbe 2eb6 0cbe
000002e0: 3b10 203e 864b 9a3e 0c46 58bd ce94 fcbc
000002f0: 6808 0fbd c293 1dbf c82b 99bc 96aa 17bd
00000300: b418 d63c 0b62 a93d f587 5c3e 76a4 2cbe
00000310: ac7c 813e 404c 5e3e 587d b6bd 34a4 c23e
00000320: 8659 fd3e 7a02 f03d ea2e cbbd a831 c3bd
00000330: 10da 643c d042 b3bd a14d d33d e888 bf3d
00000340: c004 f2bb cd00 36be 4660 56be 38a0 b0bd
00000350: f158 733e abaf b7bd e894 edbd f8c9 8d3d
00000360: d43d c2bd cfea 153d 0c9b f2be 292d f23e
00000370: aa9b 8f3d 9f8d 533e d880 84bc 6104 973e
00000380: 6058 11bc 1802 e9bc c81e eb3d 7c48 e23d
00000390: 2093 703c d22c 053e 5e86 b0bc c0db a6bd
000003a0: 540a 913d 18d0 28bd 69b2 963c 0e46 813d
000003b0: f872 323d c019 0dbb e6d6 7c3d 062b b53d
000003c0: 1ce6 44bd 2086 a2bb ac31 c13e 6304 febd
000003d0: 5ccd a93d 5748 a63f dece ef3c 6079 b33b
000003e0: 9e1a 153f d71c f33e a4dc aebd 3a09 db3d
000003f0: f6d3 fb3c 22fd 8b3b 6081 e33b 81d9 923c

net.3.bias f4 [64]
0.22953986 0.26243517 0.12947142 0.09589779 0.20024808 -0.16668251 0.10272667 0.12554818
0.13767205 0.23490755 0.21149366 0.13653173 0.09314637 0.17474939 0.025460964 0.19104244
0.15592635 0.15553503 0.24636708 0.0379992 0.2072453 0.17603448 0.18349726 0.038172986
0.28655037 0.2396275 0.13843578 0.19318439 -0.12247852 0.31751826 0.055912334 0.20646417
0.22988977 0.15628128 0.09993477 0.126368 0.026612354 0.26716936 0.18369205 0.33752
0.18195988 0.033155985 0.055158727 0.08135822 0.1586638 0.2684569 0.07886977 0.24944924
0.20368792 0.17114499 0.048009556 0.2048244 0.06678515 0.2491277 0.2413401 0.07943792
0.22168401 0.1021782 0.1319483 0.05712974 0.19692531 0.06898077 0.11708841 0.2897332
00000000: 7f0c 6b3e e75d 863e 2894 043e 0f66 c43d
00000010: d50d 4d3e d2ae 2abe 5c62 d23d b48f 003e
00000020: e7f9 0c3e 9b8b 703e cb91 583e f9ce 0b3e
00000030: 86c3 be3d 81f1 323e 8393 d03c a1a0 433e
00000040: 28ab 1f3e 9344 1f3e a747 7c3e 0da5 1b3d
00000050: 1d38 543e 6242 343e b5e6 3b3e 475b 1c3d
00000060: bbb6 923e e960 753e 1cc2 0d3e 21d2 453e
00000070: 05d6 fabd c191 a23e 5504 653d 586b 533e
00000080: 3968 6b3e 3308 203e 9aaa cc3d 9d66 013e
00000090: 2702 da3c 6cca 883e c519 3c3e 6ccf ac3e
000000a0: b153 3a3e 92ce 073d 1eee 613d 239f a63d
000000b0: c378 223e 2f73 893e 7986 a13d 9f6f 7f3e
000000c0: 9193 503e a240 2f3e aba5 443d 7dbd 513e
000000d0: a7c6 883d 551b 7f3e dc21 773e 59b0 a23d
000000e0: 2201 633e ce42 d13d 751d 073e e000 6a3d
000000f0: caa6 493e ca45 8d3d 0ccc ef3d e957 943e
