2_Party/shadow_model_data/shadow_plus_F_client2_bottom_inter.pt (torch, 21928 bytes, 4 tensors)

net.0.weight f4 [64, 10]
0	0xbf9602fc	-1.1719661
1	0xbfa98ab3	-1.3245453
2	0xbf9fa072	-1.2470839
3	0x3ddab1b2	0.10678424
4	0x3d36b79e	0.044608705
5	0xbdbe47f8	-0.09291071
6	0xbecd67eb	-0.40118346
7	0xbf3868c0	-0.72034836
8	0xbf12d90b	-0.5736243
9	0x3fa4e087	1.288102
10	0x3d728944	0.059212938
11	0x3e74b8b4	0.23898584
12	0x3e6b32b2	0.22968557
13	0x3d927bee	0.07152544
14	0xbc3e1ad2	-0.011603074
15	0xbdb19a9d	-0.08672068
16	0x3d37a5f0	0.044835985
17	0xbd885aa5	-0.06657914
18	0xbe1234cf	-0.14277957
19	0xbdb397be	-0.08769177
20	0x3e12ed21	0.1434827
21	0x3e8276cb	0.25481257
22	0xbe25d9f2	-0.16196421
23	0xbfa219ee	-1.2664163
24	0xbfa9590e	-1.3230302
25	0xbf6db21b	-0.9284989
26	0x3dbf0b5a	0.09328337
27	0x3e29a163	0.1656547
28	0x3e2be432	0.16786268
29	0x3f0026cf	0.5005922
30	0xbf642a2f	-0.8912687
31	0xbf4ee14b	-0.8081252
32	0xbf287bb1	-0.6581374
33	0x3e0882d1	0.13331152
34	0xbe011243	-0.12604623
35	0x3ec22a9c	0.37923133
36	0xbf426ea6	-0.75950086
37	0xbefa75fd	-0.48918143
38	0xbea5d6cd	-0.32390442
39	0x3fd20ae6	1.6409576
40	0x3fad19d8	1.3523512
41	0x3fa0fc28	1.2576952
42	0x3fd2c9ca	1.6467831
43	0xbfb167ba	-1.385978
44	0xbfd7dcdb	-1.6864275
45	0xbfce459a	-1.6114991
46	0xbe4f31de	-0.20233867
47	0xbe55fa04	-0.20896155
48	0x3d76e62d	0.060278106
49	0x3eee8fd7	0.46594116
50	0x3e6f5bcd	0.23374863
51	0x3d9c9f54	0.07647577
52	0x3d8ee0d7	0.069764785
53	0x3dea5176	0.11441319
54	0x3dc25744	0.09489301
55	0x3e8ccc25	0.274995
56	0xbdc96793	-0.09834208
57	0xbce1e85e	-0.027576622
58	0x3e9ec67b	0.31010804
59	0xbe415691	-0.18880679
60	0x3f5c941a	0.86163485
61	0x3f41fa88	0.75772905
62	0x3f371677	0.71518654
63	0x3f5007d9	0.81261975
64	0x3f6263e7	0.8843369
65	0x3f5733fd	0.840637
66	0xbf2f1fff	-0.684082
67	0xbf349f6a	-0.70555747
68	0xbedfab5c	-0.43685424
69	0x3ebfd182	0.3746453
70	0x3f816834	1.0109925
71	0x3f992b7b	1.1966394
72	0x3faa3491	1.3297292
73	0xbd172060	-0.03689611
74	0x3dd76cfd	0.10518835
75	0xbdb8b346	-0.09018569
76	0x3f8fe582	1.1241915
77	0x3f05c059	0.52246624
78	0x3f4ef82b	0.80847424
79	0xbf9b1fc4	-1.2119069
80	0xbe83fa2a	-0.25776798
81	0x3e2729bd	0.16324516
82	0xbdbb2810	-0.09138501
83	0x3e0a3865	0.13498075
84	0xbe4cb06a	-0.19989172
85	0x3d72b1f1	0.05925173
86	0x3e1809fc	0.14847559
87	0x3e9c031d	0.30471125
88	0xbcc4629a	-0.023972798
89	0x3e5c43ae	0.21510193
90	0xbe2fa23b	-0.1715173
91	0x3d8c39d7	0.068469696
92	0x3ea01baf	0.3127112
93	0x3e8e1d54	0.2775675
94	0xbe8cf913	-0.2753378
95	0xbd80b829	-0.06285126
96	0x3d85d74c	0.06535205
97	0xbb91da47	-0.0044510695
98	0x3e7fb230	0.24970317
99	0xbdaa5741	-0.083174236
100	0x3f799d03	0.97505206
101	0x3f5c9c41	0.86175925
102	0x3f80e27d	1.0069119
103	0x3f6b18cf	0.9183473
104	0x3f87e407	1.0616463
105	0x3f7a9d5f	0.9789638
106	0xbf31d867	-0.6947083
107	0xbf02a49a	-0.5103241
108	0xbf2c738a	-0.673638
109	0x3e28a967	0.16470872
110	0xbf5141a6	-0.81740797
111	0xbf745538	-0.95442533
112	0xbf098440	-0.5371742
113	0x3ec9d8a0	0.39423084
114	0xbdfc80cc	-0.123292536
115	0x3da40b04	0.080099136
116	0xbebc4ca5	-0.36777225
117	0xbf35cc36	-0.71014726
118	0xbecad2de	-0.39614004
119	0x3fc884fe	1.5665586
120	0x3dfc01a0	0.123049974
121	0x3d72c99e	0.05927431
122	0x3e908a6e	0.28230613
123	0x3c43116c	0.011906009
124	0xbc90d8ca	-0.017681498
125	0xbd2454c5	-0.040119905
126	0xbe0cf293	-0.1376441
127	0x3da3bcc8	0.079949915
128	0x3e5bf4cf	0.21480106
129	0x3c722765	0.0147799
130	0xbfc9c9a9	-1.5764667
131	0xbfabe02d	-1.3427788
132	0xbfc625b6	-1.5480258
133	0xbb4e75a8	-0.0031503234
134	0x3e891147	0.26770994
135	0x3e9ab105	0.3021318
136	0x3d84ef95	0.06491009
137	0x3dc9f21b	0.09860631
138	0xbd113178	-0.035447568
139	0x3fbd17dc	1.4772906
140	0xbadd245c	-0.0016871798
141	0x3d7a9a27	0.061182167
142	0x3d731a9d	0.059351552
143	0x3e6ac3e8	0.22926295
144	0xbe6ccda5	-0.23125322
145	0xbe5da967	-0.21646653
146	0x3e0930f2	0.13397577
147	0xbd567a31	-0.052362625
148	0x3c380982	0.011232736
149	0xbe00846d	-0.12550516
150	0x3f87eba8	1.0618792
151	0x3f540670	0.8282232
152	0x3f6b15b3	0.91829985
153	0x3f7a81f8	0.97854567
154	0x3fad9f42	1.3564227
155	0x3f8db7e8	1.1071749
156	0x3fbb6f78	1.4643393
157	0x3fa28b34	1.2698731
158	0x3fd96975	1.6985308
159	0xbf885acd	-1.065271
160	0xbe5bec5a	-0.2147688
161	0x3e96f727	0.29485437
162	0x3cea3a29	0.028592186
163	0xbe817be3	-0.2528983
164	0x3c3f4baa	0.011675755
165	0x3e0bfe1d	0.13671155
166	0xbe5e0c80	-0.21684456
167	0x3e5db8a9	0.21652474
168	0x3e044498	0.12916791
169	0xbe91e876	-0.28497666
170	0xbd001881	-0.03127337
171	0x3e34970c	0.17635745
172	0x3d423d50	0.047421753
173	0x3e83c815	0.25738588
174	0x3e967c88	0.29391885
175	0x3d903c97	0.070428066
176	0xbdb4657d	-0.0880842
177	0x3d1aaf44	0.037764803
178	0x3e970400	0.2949524
179	0xbdb7569b	-0.089520656
180	0x3faf6162	1.3701594
181	0x3fb526a1	1.4152414
182	0x3f97995d	1.1843678
183	0xbed4f70f	-0.4159474
184	0xbe2d1542	-0.1690264
185	0x3d0cfa01	0.03441811
186	0x3f2b43df	0.6690044
187	0x3f385c8a	0.72016203
188	0x3f5df36e	0.8669957
189	0xbf41b20c	-0.756623
190	0xbfa19631	-1.262396
191	0xbfaf63ff	-1.3702391
192	0xbfb1a592	-1.3878653
193	0xbe0e3bff	-0.13890074
194	0xbc005bba	-0.007834369
195	0x3e365950	0.17807508
196	0xbf8d0c1d	-1.1019322
197	0xbf6fa6d4	-0.93613935
198	0xbf91b0f0	-1.1382122
199	0xbe655cf8	-0.22398746
200	0x3f01ba23	0.5067465
201	0x3ecbb122	0.3978358
202	0x3f2e0ef4	0.67991567
203	0x3fe2ce00	1.7719116
204	0x3ff2db5b	1.8973192
205	0x3fb372ef	1.401945
206	0x3f32eb87	0.69890636
207	0x3f5859a5	0.84511787
208	0x3f0e711a	0.5564133
209	0xbff1c890	-1.8889332
210	0x3f8f2876	1.1184223
211	0x3f64d264	0.8938353
212	0x3f9021cb	1.1260313
213	0x3f03a42a	0.5142237
214	0x3f0d660a	0.55233824
215	0x3d6daffa	0.058029152
216	0x3fb3d3d2	1.4049017
217	0x3f729f55	0.9477437
218	0x3f9a5f27	1.2060288
219	0xbfbc8b5e	-1.4730031
220	0x3dea0214	0.114261776
221	0x3de2409d	0.1104748
222	0x3d953c85	0.07286934
223	0xbf4c1d39	-0.7973209
224	0xbfa36532	-1.2765257
225	0xbfa1717c	-1.2612758
226	0x3ead2fbe	0.33825487
227	0x3d9c3269	0.076268025
228	0xbd58ce34	-0.052931026
229	0x3ef1d810	0.47235155
230	0xbda51e44	-0.08062413
231	0x3e41844a	0.1889812
232	0x3c4cc1ea	0.012497405
233	0x3e521b8e	0.20518324
234	0x3e2d17aa	0.16903558
235	0x3e82e6f5	0.2556683
236	0x3dde3ca3	0.10851409
237	0xbe12697b	-0.1429805
238	0x3e832d1c	0.25620353
239	0xbe9a95ee	-0.30192512
240	0x3ec863c9	0.3913863
241	0x3ebcf6d5	0.36907068
242	0x3f11190c	0.56678843
243	0x3f230c56	0.636907
244	0x3f4e52e8	0.80595255
245	0x3f37d60d	0.7181099
246	0xbee52637	-0.44755718
247	0xbf0b176f	-0.5433263
248	0xbea74308	-0.32668328
249	0x3f1ca269	0.6118532
250	0xbd446383	-0.047946464
251	0xbdefc759	-0.117079444
252	0x3d91d505	0.071207084
253	0xbe985cc7	-0.29758283
254	0x3be61301	0.0070213084
255	0x3e22ab5f	0.15885685

net.0.bias f4 [64]
0	0x3d869ac0	0.06572485
1	0xbd170eb4	-0.036879256
2	0xbd8a7065	-0.06759719
3	0x3d7207d1	0.059089486
4	0x3d4f07ba	0.050544478
5	0xbea0f367	-0.314357
6	0xbc8b8472	-0.017030928
7	0xbd053839	-0.03252432
8	0xbea103b2	-0.31448132
9	0xbdfdf8fb	-0.12401005
10	0xbc409e85	-0.011756544
11	0x3d475a58	0.048670143
12	0xbe7c64a5	-0.24647768
13	0x3d77a1a1	0.060456876
14	0xbe9db673	-0.3080326
15	0x3df0d24d	0.11758862
16	0xbe062e48	-0.13103592
17	0xbe1bc436	-0.15211567
18	0xbda14212	-0.0787393
19	0xbced469a	-0.02896433
20	0x3e0c40c2	0.13696578
21	0x3d11cdd1	0.035596672
22	0xbd81f11e	-0.063448176
23	0xbe754797	-0.2395309
24	0x39a6e2be	0.00031830923
25	0xbe0bc46c	-0.13649148
26	0x3cf06830	0.029346555
27	0xbe288b9e	-0.1645951
28	0x3d839ad7	0.06426018
29	0xbd1cce21	-0.038282517
30	0xbd4aa979	-0.049478028
31	0xbd997443	-0.07492878
32	0xbd345988	-0.044030696
33	0xbc612d35	-0.013743688
34	0xbd4706a0	-0.048590302
35	0xbe8f7c2c	-0.28024423
36	0xbe8ca107	-0.27466604
37	0xbe16069f	-0.14650963
38	0xbdbcd1c8	-0.092197
39	0xbdbce0f0	-0.09222591
40	0xbe7c2a45	-0.246255
41	0x3d4ac1fe	0.04950141
42	0x3dd5a47e	0.10431765
43	0xbd5529c9	-0.052041803
44	0x3d390842	0.04517389
45	0x3d8d2f9d	0.06893847
46	0x3dd30223	0.10303142
47	0x3c27ec0a	0.010249147
48	0xbd8e1500	-0.06937599
49	0xbea0c230	-0.31398153
50	0x3d828f93	0.06375041
51	0x3dc9ec10	0.098594785
52	0xbe9dc487	-0.30814
53	0xbc5acd10	-0.013354555
54	0xbd910e64	-0.07082823
55	0x3d5c1f7c	0.053740963
56	0xbd42380f	-0.047416743
57	0xbd8f08b6	-0.06984083
58	0xbdb8444a	-0.089974
59	0xbe936e1a	-0.28794938
60	0x3d579a19	0.052637193
61	0x3d339c3d	0.043850172
62	0xbd45b4cf	-0.048268136
63	0xbdd5f297	-0.10446661

net.3.weight f4 [64, 64]
0	0xbdb0d7c7	-0.08634906
1	0xbdd8acf2	-0.10579862
2	0xbf23da7d	-0.6400526
3	0xbe3e501f	-0.18585251
4	0x3e0d9c6f	0.13829206
5	0x3c603c90	0.013686314
6	0x3f4105ab	0.75399274
7	0x3db1be0b	0.08678826
8	0x3dba71fc	0.09103772
9	0xbd30a5f0	-0.043127
10	0x3f4ce2a6	0.8003334
11	0xbde9560f	-0.113933675
12	0xbb3afe40	-0.0028532892
13	0x3dfe18ec	0.12407097
14	0x3d18b48c	0.037281558
15	0x3e3ea73f	0.18618487
16	0x3d904ccc	0.07045898
17	0xbd656084	-0.056000248
18	0x3e591988	0.21201146
19	0xbda297f0	-0.07939136
20	0x3e9c4758	0.3052318
21	0x3dc6e082	0.0971079
22	0xbf35e22e	-0.7104825
23	0xbc3d00c0	-0.011535823
24	0x3f522964	0.8209441
25	0x3dabb34c	0.083838075
26	0x3c41604e	0.011802746
27	0x3d19f7a0	0.03758967
28	0x3d893408	0.06699377
29	0x3f572e4c	0.8405502
30	0x3bf5cab2	0.00750097
31	0xbded115a	-0.11575575
32	0x3e0dd423	0.13850455
33	0x3f1cd041	0.6125527
34	0x3d272d88	0.040814906
35	0x3d99ae02	0.075038925
36	0x3d1c52f4	0.038165048
37	0x3d93e10a	0.07220657
38	0xbdc1b42d	-0.09458194
39	0xbd8eee81	-0.06979085
40	0x3d0d24fc	0.0344591
41	0x3dca7cea	0.09887107
42	0x3d47ec78	0.0488095
43	0x3c98812a	0.018616278
44	0x3e711c73	0.23546009
45	0x3e9fd4bc	0.3121699
46	0x3e223358	0.15839899
47	0x3e16f3c5	0.14741428
48	0xbee2ef84	-0.4432336
49	0x3c9e6338	0.01933442
50	0x3e385317	0.18000446
51	0x3e19088d	0.14944668
52	0x3dc97c1e	0.098381266
53	0xbe89738a	-0.26845962
54	0xbcca4270	-0.024689883
55	0xbe4e6003	-0.20153813
56	0x3f4c6431	0.7984038
57	0x3e50765f	0.20357655
58	0x3d753f18	0.059874624
59	0xbd851794	-0.06498638
60	0x3dc6a868	0.0970009
61	0x3f37f957	0.7186484
62	0xbed68af3	-0.41902885
63	0x3d0cbcc4	0.03435971
64	0x3dbbd39a	0.09171219
65	0x3ddf51c0	0.109042645
66	0xbecc3f26	-0.39891928
67	0x3b0323f8	0.0020010453
68	0x3c90c46e	0.01767179
69	0xbd495058	-0.049148887
70	0x3efce987	0.49396917
71	0x3eae8303	0.3408433
72	0x3c8ee548	0.017443314
73	0x3d1b9e18	0.037992567
74	0x3ef761b9	0.48316744
75	0x3cad9447	0.021188868
76	0xbb015480	-0.0019734204
77	0xbd53efa7	-0.051742222
78	0xbd2a5f64	-0.041594878
79	0x3e9a1f18	0.30101848
80	0xbd1a60b0	-0.037689865
81	0x3d4e7f6c	0.050414488
82	0x3deaa106	0.11456494
83	0xbe3ec6f1	-0.18630578
84	0x3ec9a066	0.39380187
85	0x3ec16ee8	0.37779927
86	0xbeba7987	-0.36420843
87	0x3d9374aa	0.07199986
88	0x3ef47901	0.4774857
89	0xbdca4902	-0.098772064
90	0x3e91c525	0.28470722
91	0xbda38d88	-0.07985979
92	0x3dab7ffe	0.08374022
93	0x3ee55e50	0.44798517
94	0xbe592cb6	-0.21208462
95	0x38e6c000	0.000110030174
96	0x3e0dc640	0.13845158
97	0x3f2e28de	0.6803111
98	0x3db06415	0.08612839
99	0x3dcb14b8	0.09916061
100	0xbd12e738	-0.03586504
101	0x3a97a980	0.0011570901
102	0x3e30783f	0.1723337
103	0x3d12b649	0.035818372
104	0x3dc26c88	0.09493357
105	0xbdb1affa	-0.08676143
106	0x3d7fedee	0.062482767
107	0xbe8919a4	-0.26777375
108	0x3db57cac	0.0886167
109	0x3eab65ab	0.33476004
110	0xbcdc1b60	-0.026868522
111	0x3ddbe113	0.10736289
112	0xbe4bcb6d	-0.1990182
113	0x3d7f70a0	0.062363267
114	0x3d8fd8c6	0.07023768
115	0x3bc88f48	0.006120596
116	0x3dfd8c42	0.12380268
117	0x3e0cb3f7	0.13740526
118	0xbcd4d7a8	-0.02598174
119	0xbc28a6b1	-0.010293649
120	0x3e92948c	0.28628957
121	0x3d856fb3	0.065154456
122	0x3d87fef4	0.06640425
123	0x3d9e4754	0.077284485
124	0x3de0a13d	0.10968254
125	0x3f148b69	0.58025223
126	0xbea189d8	-0.3155048
127	0xbd30f4d0	-0.04320222
128	0xbd9ccb6b	-0.076559864
129	0xbd96882a	-0.0735019
130	0xbf811471	-1.0084363
131	0x3d2abdd4	0.04168494
132	0x3e5e9a4e	0.2173855
133	0xbc57ea30	-0.013178393
134	0x3f8a1d3c	1.0790172
135	0x3cdcb6c7	0.026942624
136	0xbdf43e24	-0.11925915
137	0xbda471f0	-0.08029544
138	0x3f496a19	0.7867752
139	0x3cf218e5	0.029552886
140	0xbd377d30	-0.044797122
141	0xbc34769b	-0.011014606
142	0x3d80d752	0.06291069
143	0xbe02db09	-0.12778868
144	0x3d3ea2bc	0.046541914
145	0xbdefe8fc	-0.1171436
146	0xbe33ae76	-0.1754702
147	0xbd46a842	-0.048500307
148	0x3dec284a	0.11531122
149	0xbe2acb04	-0.16679007
150	0xbf87cd85	-1.0609595
151	0x3c9a7ef8	0.018859372
152	0x3f825ffa	1.018554
153	0xbd7a2e70	-0.061079443
154	0x3eb5a452	0.3547693
155	0xbdbff92e	-0.09373699
156	0x3e90713c	0.2821139
157	0x3f95353e	1.1656873
158	0x3e11662a	0.14199129
159	0x3d887760	0.06663394
160	0x3e627f68	0.22118914
161	0x3e6df34a	0.23237339
162	0xbc8ddf23	-0.017318314
163	0x3d2a6a5c	0.04160534
164	0x3d055b90	0.032558024
165	0xbd72ef4c	-0.059310243
166	0xbdf08674	-0.11744395
167	0xbe8564b1	-0.26053384
168	0x3dd5e21e	0.10443519
169	0x3c971b83	0.018445736
170	0x3c23c5c7	0.009995884
171	0x3df7ecad	0.12105689
172	0x3e82a9b9	0.25520113
173	0xbe1d7499	-0.1537651
174	0x3e1ecaee	0.15507099
175	0x3e09f731	0.13473202
176	0xbf6b2850	-0.91858387
177	0x3dc23978	0.094836175
178	0x3ea6625a	0.3249691
179	0x3e313166	0.17304
180	0xbd95ff40	-0.07324076
181	0xbe36d6b5	-0.17855342
182	0x3b91a1c0	0.004444331
183	0x3d952093	0.07281604
184	0x3fb3e7c3	1.4055103
185	0xbe4a4b38	-0.19755256
186	0xbda8d898	-0.08244437
187	0x3d0e29fc	0.03470801
188	0x3eba9673	0.3644291
189	0x3f10f38c	0.56621623
190	0xbf5b7d57	-0.8573813
191	0xbd7b8c2c	-0.061412975
192	0x3e020c72	0.1270006
193	0xbdbf3658	-0.09336537
194	0x3f0be947	0.5465283
195	0x3edc2039	0.42993334
196	0x3ecb29b8	0.39680266
197	0x3deccddc	0.11562702
198	0xbdc6152a	-0.096720055
199	0x3d9d77ce	0.076888666
200	0x3d30fb20	0.04320824
201	0x3bae94c0	0.005327791
202	0xbde99fd4	-0.11407438
203	0x3ea612f2	0.3243633
204	0xbd9dc25e	-0.07703088
205	0xbd6439ef	-0.055719312
206	0x3dd32358	0.10309476
207	0x3b04805b	0.0020218107
208	0xbda7046c	-0.0815514
209	0x3db51c74	0.08843318
210	0xbe6d7307	-0.2318841
211	0x3e2d9876	0.1695269
212	0x3c1774d5	0.0092441635
213	0xbd27f476	-0.04100462
214	0x3f2e473e	0.68077457
215	0x3d86fab6	0.06590788
216	0xbe085cd3	-0.1331666
217	0x3cad7588	0.021174207
218	0x3f22daec	0.636153
219	0x3d8bdd54	0.06829324
220	0x3e940807	0.28912374
221	0xbd89f581	-0.06736279
222	0x3e25ffc2	0.16210845
223	0x3c85f4b8	0.016352043
224	0x3c95c828	0.018283918
225	0xbeea6cc3	-0.45786104
226	0xbc020d22	-0.007937701
227	0xbcda78b8	-0.026668891
228	0xbd80f62a	-0.06296952
229	0x3c908770	0.017642707
230	0xbe95fd85	-0.29294983
231	0xbd700dd6	-0.058606945
232	0xbdd8ca80	-0.10585499
233	0x3d42a8f7	0.04752442
234	0x3db53dd8	0.088496864
235	0x3dd78ae4	0.10524538
236	0x3f0a3af4	0.53996205
237	0x3bd8fc06	0.0066218404
238	0xbc8772ed	-0.016534293
239	0x3e832109	0.2561114
240	0x3f264bfa	0.6495968
241	0xbda3ef34	-0.08004609
242	0x3e8a17b4	0.2697121
243	0xbca10c21	-0.019659104
244	0x3c981ba8	0.018567875
245	0x3f048535	0.5176576
246	0x3d8c6f4e	0.06857167
247	0x3ec5b618	0.3861549
248	0xbdb41c69	-0.08794481
249	0xbe4d474d	-0.2004673
250	0xbdad7756	-0.08470027
251	0x3dd5cabc	0.10439059
252	0x3f00512e	0.5012387
253	0x3d233950	0.03984958
254	0x3eeb9d80	0.460186
255	0x3c8d7ca0	0.01727134

net.3.bias f4 [64]
0	0x3d99e853	0.075150155
1	0x3df3e6cd	0.11909256
2	0x3d278376	0.040896855
3	0x3e6988ab	0.22806041
4	0x3d9d3555	0.07676188
5	0x3eb9db0d	0.36299935
6	0x3da154fa	0.07877536
7	0x3e2b5591	0.1673186
8	0x3e59a15b	0.21252958
9	0x3e91b997	0.28461906
10	0x3e22ad1e	0.15886351
11	0x3dd4a78a	0.10383518
12	0x3e9ca233	0.30592498
13	0x3e8ef080	0.27917862
14	0x3e139c42	0.14415076
15	0x3e8023a0	0.2502718
16	0x3e6122be	0.2198591
17	0x3e031491	0.12800814
18	0x3ef096c2	0.4699002
19	0x3e4ac98e	0.1980345
20	0x3e6b9c92	0.23008946
21	0x3e6d318c	0.23163432
22	0x3e845f9d	0.25854197
23	0x3e94b4db	0.29044232
24	0x3e05ad44	0.13054377
25	0x3e3b8ae7	0.18314706
26	0x3e0d9c87	0.13829242
27	0x3e4fb855	0.20285161
28	0x3e14ee54	0.1454404
29	0x3e87f509	0.26554134
30	0x3e916637	0.28398296
31	0x3e095bbb	0.13413899
32	0x3dc5123a	0.09622617
33	0x3e16c992	0.1472533
34	0x3db70ec4	0.08938363
35	0x3e6a0b41	0.22855856
36	0x3e6b19d1	0.22959067
37	0x3e796766	0.2435585
38	0x3e436257	0.19080482
39	0x3e02b13f	0.12762927
40	0x3e0e320d	0.1388628
41	0xbdc7a8ec	-0.09749016
42	0x3e2b3558	0.16719568
43	0x3e0c08b7	0.136752
44	0x3d71dc78	0.059048146
45	0x3dbe5be9	0.09294874
46	0x3e214ddf	0.15752362
47	0x3caf1f4c	0.021377228
48	0x3e4562e3	0.19276004
49	0x3e532685	0.20620163
50	0x3deb6922	0.11494662
51	0x3dc9dc2d	0.09856448
52	0x3e0342f3	0.12818508
53	0x3d837432	0.06418647
54	0x3e59cf91	0.21270587
55	0xbdee0d85	-0.116236724
56	0x3e13516d	0.1438653
57	0x3dca2686	0.09870629
58	0x3e600731	0.21877743
59	0x3ed6045f	0.4180021
60	0x3df3ca52	0.11903824
61	0x3dcd4a91	0.10023988
62	0x3e406d8e	0.18791792
63	0x3e11c1d9	0.14234103
