2_Party/shadow_model_data/shadow_plus_F_client1_bottom.pt (torch, 21880 bytes, 4 tensors)

net.0.weight f4 [64, 10]
00000000: 0df0 503e 629d 193e 5feb 01be bec0 da3d
00000010: e094 373e 68b8 5a3d a97a 103e 89c1 6f3e
00000020: 68da f73d bb5b 86bd b016 0d3f 205b d93e
00000030: 3f98 c13d a4c8 5ebc 7565 96be 3a8b 1e3e
00000040: ed9e 77bd dfb9 91be 6058 6f3d 0259 323d
00000050: d9e6 c0bd 8ba3 ecbd 365a 2c3f 450c 503e
00000060: 91a5 acbe f58d a7be 7190 933d 2848 53be
00000070: 377c a3be 0a6c 8dbe 4bb6 d9bd 6966 b03d
00000080: ac2a 82bf 0550 76bf 99d4 67bd 6b5f f7bd
00000090: 378b 2d3e 58cf 0c3e 69d8 9e3d c6d2 a63c
000000a0: 3790 103f 58c5 4d3e f6f0 a7bf 1758 8bbd
000000b0: b627 62be cbb1 10be 98d0 9a3e 5429 ee3d
000000c0: 60c1 a93c 9cd9 cdbd 125e e0bd 1927 3dbe
000000d0: 0307 0dbd 31ee 0bbe 23dc 753e 9d11 883e
000000e0: 177d c5bd af0a d6ba d049 6fbe 7186 92be
000000f0: 094f 9e3e 8fcf 4a3e 611e b13d ec49 48bd
00000100: 9d27 8a3e f676 783d 2ed5 963e e3c6 a0be
00000110: 46ba 9a3e 1552 913d a30e 823e e4ad 79bd
00000120: c2aa 80bc db62 a0bc a1a6 813e d8be 113d
00000130: d4a6 b1bd bc36 66ba e08f 5d3b dc3b 903c
00000140: 4331 413e 1d7b 06be 4a94 27be 62fd ef3d
00000150: 86e2 053e d2d8 42be 1ee2 183e 14b7 81bd
00000160: 830f 69be 80ad 9cbd f76b fe3e 4e47 e53e
00000170: 2bc4 0bbf 5770 0bbf c01e 45be ce8e b43e
00000180: bf6e b53d 0478 073e 6372 513e c804 903d
00000190: 4c7e 0bc0 93ef 0cc0 79bf 1e3e dc77 0bbe
000001a0: a6a4 85be fc4f 3d3c 65de f1b9 5fbc 79bd
000001b0: d7cc b0be c45c 8c3d b8a4 40be 31b6 6fbe
000001c0: 48ed 04be 9bc2 07be 3ef2 a33d 3502 5d3c
000001d0: 8ee3 11be f94f f9bd 59d6 20be cb61 6e3e
000001e0: 54a6 0dbf 2ef1 c1be 12ed 92bf 4dfa 70bf
000001f0: 748c d53d fbb0 d23e acbc 973d 91f4 adbc
00000200: b1a2 ca3e 2be5 643e 0de3 66be b065 983e
00000210: bd20 82bd 98f0 583e fd27 a13e 3d15 603e
00000220: b7e3 91be b372 82be bb4d 96be 7997 e83d
00000230: c60d ba3e d0a8 c63e b3d4 03be b8eb 803e
00000240: 6606 84be c98e 97be bd7e 963c bdf5 b7be
00000250: e9b9 ca3d e19a 41be 67e6 09bd 0ee0 57be
00000260: 9dcd 8a3e ef49 2a3e 610a ffbd 9edb 993e
00000270: 8676 6ebe 0c9d 8cbe 711c 24be f02a 8fbd
00000280: 0013 543e 24d1 f43d bb96 493e 3ac5 31be
00000290: 121d 973d 00b3 303e 1501 913e efcb 0d3e
000002a0: 9fe8 003e 434e 74bc b790 153f bb4b b03e
000002b0: 1e5a 563f 9dfd 4a3f 308a 50be 3ec5 a2be
000002c0: 5b8a f8bd d0cb 82be 71a9 d8be d46c afbe
000002d0: 9990 013e 3ee4 a23d 8972 85be 30df b63d
000002e0: 39ee c23d e6cb 09be b870 813c 3944 97be
000002f0: d73d c4bb 5fcb 49be 9bbc 903d 5122 67be
00000300: 5c76 91be 0ca7 113e 36b0 86bc 1683 76bd
00000310: e0c0 6c3e 2ab4 7abe 63f9 403e 4d02 9ebe
00000320: eee7 13bf 39dc 26bf df0e 6dbe 1925 c33d
00000330: 1b49 003e 328a 68be 3ac2 11bc 83de 2e3e
00000340: 2764 bf3c c280 37be d955 02bf fa19 cebe
00000350: 12ae b7be 266b 8fbe 121c 943e 0613 35be
00000360: 6345 81be b2de 183e e843 293b 5614 a7be
00000370: 7748 a93d d37b 6bbe 83e9 eebd d202 673d
00000380: ed1c 26bd b2db 00be b70b 0dbe 50f2 0bbe
00000390: d2c0 4ebd 3d29 91be fed8 69bf 8e5e 9fbf
000003a0: 91d8 24be 058e 59be 8d50 0ebe 7f56 52be
000003b0: 0589 49be 1bd1 48bd ff12 c1bb 503b e5be
000003c0: 2ec0 8bbf c697 85bf dba6 343f 008c 843e
000003d0: eb1d 95be 9350 96be 6ce9 b1bd bf99 cc3d
000003e0: 5237 83be 04e2 cebe a5a2 56be 039a a9be
000003f0: 3f33 2bbe abb1 9c3e 1e94 66bd 003a 17bd
0.20404072 0.15001443 -0.12687443 0.10681294 0.17927885 0.05339852 0.14109291 0.23413672
0.121022046 -0.06560465 0.55112743 0.42452335 0.09452867 -0.013597641 -0.2937428 0.15482798
-0.060454298 -0.2846212 0.05843389 0.043541916 -0.09419031 -0.11554631 0.6732515 0.2031718
-0.33720067 -0.32725492 0.072052844 -0.20632994 -0.31930706 -0.2762149 -0.10630473 0.08613283
-1.0169272 -0.9621585 -0.056599233 -0.120787464 0.16947637 0.1375097 0.07756121 0.020364176
0.56470054 0.20094812 -1.312041 -0.06803911 -0.22085461 -0.14130323 0.3023727 0.116289765
0.020722091 -0.10051271 -0.109554425 -0.18471946 -0.034430515 -0.13665082 0.24009757 0.26575938
-0.096429996 -0.0016330088 -0.23368001 -0.28618196 0.30919674 0.1980574 0.086483724 -0.048898622
0.26983348 0.060660325 0.29459518 -0.3140174 0.3022024 0.07095734 0.25401792 -0.06095685
-0.015706424 -0.019578388 0.2532244 0.035582393 -0.08674398 -0.000878196 0.003380768 0.017606668
0.18866448 -0.13132901 -0.16365162 0.11718251 0.13074693 -0.19028023 0.14930007 -0.063337475
-0.22759824 -0.0765028 0.49691746 0.44780964 -0.54596204 -0.5446829 -0.19250011 0.352652
0.08859014 0.13229376 0.20453791 0.07032162 -2.1795835 -2.2021224 0.15502729 -0.13619941
-0.2610218 0.011554714 -0.000461328 -0.06097066 -0.3453128 0.06853631 -0.18812835 -0.23409344
-0.1298114 -0.1325783 0.080051884 0.013489296 -0.14246961 -0.12173457 -0.15706767 0.23279493
-0.5533192 -0.37879318 -1.1478598 -0.9413193 0.1042718 0.4115065 0.07409033 -0.021234782
0.3957725 0.22353046 -0.2254755 0.2976508 -0.063539006 0.21185529 0.3147582 0.21883102
-0.28494045 -0.25478134 -0.2935618 0.11357016 0.36338633 0.3880067 -0.12874107 0.2517984
-0.25786132 -0.29601124 0.01837098 -0.3592967 0.09898741 -0.18906738 -0.033666994 -0.21081564
0.27109995 0.16629766 -0.124531515 0.30050367 -0.232874 -0.27463567 -0.16026475 -0.069906116
0.20710373 0.11953953 0.19686405 -0.17360392 0.073785916 0.17255783 0.28321138 0.13847326
0.12588738 -0.014911237 0.5842394 0.34432778 0.8373126 0.79293233 -0.20365214 -0.3179111
-0.12135764 -0.25546122 -0.42316774 -0.34262717 0.12652816 0.0795369 -0.26063946 0.089292884
0.095180936 -0.13456687 0.015800819 -0.29544237 -0.005988817 -0.19706486 0.07067224 -0.22571684
-0.28410614 0.1422388 -0.016441446 -0.060183607 0.23120451 -0.2448279 0.18845133 -0.3086113
-0.5777577 -0.65179783 -0.23150204 0.0952856 0.12527888 -0.22708967 -0.008896405 0.17077069
0.023363186 -0.17920211 -0.50912243 -0.40254194 -0.35874993 -0.28011435 0.28927666 -0.17683038
-0.2524825 0.14928702 0.0025827829 -0.32632703 0.08265775 -0.22996454 -0.116656326 0.056399174
-0.04055493 -0.12583807 -0.13774 -0.13666654 -0.050476857 -0.28351775 -0.9134673 -1.2450731
-0.16098239 -0.21245582 -0.13897915 -0.20540808 -0.19681175 -0.049027544 -0.005892157 -0.44771814
-1.0918024 -1.0436943 0.705671 0.25888062 -0.29124388 -0.29358348 -0.086871 0.09990262
-0.25628144 -0.4040681 -0.20960481 -0.33125314 -0.16718768 0.306043 -0.0562936 -0.036920547

net.0.bias f4 [64]
00000000: 8d80 53be deee 2d3e 0645 993e 3b7b 68be
00000010: 13b1 0e3e 38e5 72be e1c5 7bbe bacc 92be
00000020: e7c3 9c3e bd38 5ebd f3f7 a23e 97fd 67be
00000030: ff0f a83d 68bf 513e ba4b 5b3e 305c dcbc
00000040: da28 413c 71cd 013f 64eb 443e e141 7fbe
00000050: 8831 023d d915 483e 0bb4 0cbe 9f77 833e
00000060: 925d 413e cbf8 043d b6e3 e6bb 8633 2439
00000070: 429a bcbd 3c13 d53c d090 903e 3ddd 923e
00000080: 119b 71be 849a bf3e 825b 84be 42a0 49be
00000090: 3084 983e 0b88 633e 6ea5 0c3e cbed 90be
000000a0: d508 34be 3669 10be c430 87be 9e5c 96be
000000b0: 3778 47be 94cc 21be 36d9 bd3e 6a67 053e
000000c0: 302f 103e 02b1 4a3e 2ad4 103e 57d3 1e3d
000000d0: da84 6abd 5e8d cc3c 89a2 9dbd a23e 413d
000000e0: 4555 823c 58a3 963c 4c2d ec3e d591 953e
000000f0: b667 d9bd 2f46 58be 6e3a cd3e 9dce 9cbe
-0.20654507 0.16985652 0.29935473 -0.22703259 0.13934736 -0.23720253 -0.24587204 -0.2867182
0.30618212 -0.05425333 0.31829795 -0.2265533 0.08206176 0.20483172 0.21415606 -0.026899427
0.011789525 0.50704104 0.1923042 -0.24927475 0.031785518 0.19539584 -0.13740556 0.256772
0.1888335 0.03246383 -0.007046188 0.00015659453 -0.0920911 0.026010148 0.28235483 0.28684416
-0.2359431 0.37422574 -0.25851065 -0.1969004 0.2978835 0.22219865 0.13734981 -0.28306422
-0.17581494 -0.14102635 -0.26404393 -0.29367536 -0.19479452 -0.15800697 0.3707978 0.1302773
0.140805 0.19794086 0.14143434 0.038775768 -0.057255603 0.024969753 -0.07697017 0.047178872
0.0159098 0.018388435 0.4612831 0.29212824 -0.106154844 -0.21120523 0.4008364 -0.30626383

net.3.weight f4 [64, 64]
00000000: a967 e2bd 1971 8ebd fd0d 8e3c cedf 30bd
00000010: 9bfb 1d3e d0d9 553d f4e8 ac3d ec3b dabd
00000020: 84dc 79bd 1bbd d5bd 8618 02be 8ca8 dabd
00000030: ca16 a0bd 2a1a f0bd 2133 80bc 0ae0 e3bd
00000040: 6c9e 9c3d 2eb9 23be 3494 0fbd c493 2a3d
00000050: 2c40 4b3d e57d 4bbd d017 4c3c e79e 4ebe
00000060: 5df0 3fbe 5e86 2d3d 46ac bdbd 362b 89bd
00000070: 8497 363d 2063 5b3d 6847 cc3d c059 8d3c
00000080: 3dad aa3d 4779 833d 9c15 423d 9855 3e3e
00000090: 03e6 26be 3b1b 623d 9e11 42be 6854 d13d
000000a0: cce3 cdbd 8688 463d 47eb 81be de52 f53d
000000b0: 41d4 02be 0603 dfbd c39d e5bc b155 07be
000000c0: c1a0 f53c 86f2 80bd 181a a4bd 681e 923d
000000d0: bef9 753c 4c92 a4be 1af2 e5bd ee47 02be
000000e0: ca27 cdbd ac2d 08bd 2959 0fbe 6dd3 5e3c
000000f0: 94e3 b13d 1265 fe3d ef35 10bd 624c cebd
00000100: 28e0 373d 2103 d3bc e68c 863e 3c7a 1dbc
00000110: 5fe5 e93c f4db 16bd 9699 ba3d 784e 77bd
00000120: 5009 983c f967 d73a ca73 593e 904b 0fbc
00000130: c6a8 29be 3066 cbbc cc3a 393e b448 bfbd
00000140: 14b3 e23d c265 343f a451 24bd a028 41bd
00000150: bb36 93bd cfc6 563d a822 bb3d 1421 383d
00000160: f28d 713d 2ba7 75bd b0d3 00bd 4015 953d
00000170: 8e94 ccbd 3c4f 5e3d 209a 8f3c 7621 b8bd
00000180: 4d1b b93c 1131 e53e 08ec 1e3d 3e35 953b
00000190: e8d0 833e b408 ae3d 665a 95bd ea16 e23d
000001a0: 2063 2a3d ff57 6f3d c5c9 afbd e8a1 853c
000001b0: ceb2 c8bc 00fc 463c 10e0 3a3e e7df c83c
000001c0: 405e 443e 24a4 323e 806d 6abc 001f 50bb
000001d0: 7f0e f6bd a580 7b3e 9ef4 f13d 41ba ea3d
000001e0: f0a5 70bd 6202 f2bd b187 0b3f 7bb1 dc3e
000001f0: 7e69 843d 187b fd3c d50b 503e 1ff1 313e
00000200: 5eda 573d 5a5c 28bd c304 b9be 27d7 603e
00000210: 6bdc d53d 6e25 e23d 8877 8a3c 5ebd d33d
00000220: 0020 1fba 2705 3c3e 953c 72be b894 873d
00000230: 14ca a13e 3a7c b33d faa3 ffbe fac8 dbbd
00000240: 9035 05bd 0302 0dbf a05e 38bc 28bd 82bc
00000250: 9238 893c a5fa e33d 4082 a63b 8325 48be
00000260: 8fd8 c4be a5e1 e73d e4ec f13d 7eb2 d7bd
00000270: 09bc 283e 00df 673d 5e7c a3bd b89a e73d
00000280: d836 583e cbf0 14bf 70e5 70bc 55e7 813e
00000290: f705 02bf 65b9 393d a4bb 8e3e 8c2f 473d
000002a0: 98bf b1bc 86e1 54be 5880 293e efc1 6a3d
000002b0: f318 be3d 240c 4c3d bfcb efbe 0121 123e
000002c0: d9dc 2dbe 51ed 17bf 9008 403d b011 a03d
000002d0: 2145 a23e 1b1b d1be 80ff 003d 688f a63d
000002e0: fa43 abbd bceb 763d 5a7a a6be 3973 9bbe
000002f0: fc38 b93d 5c13 a4bd 8852 1ebf 21b1 5cbd
00000300: 0dac 843d e35f 42bd 6072 aebd bb01 883d
00000310: 2507 8cbd 78d7 513d feb3 bbbd 9c9d afbd
00000320: 1c69 bbbd 3750 d73d 354c 0cbe 8614 cb3d
00000330: a9f5 ed3d ecc4 1a3d d0e1 a7bc c459 6ebd
00000340: 6e8c b43d 138e fbbd 20f2 f93c f8d5 9ebd
00000350: 6f29 c13b 8de2 debd c458 2cbd 10d9 84bd
00000360: 1389 4d3d b9e9 0fbd 64b2 0dbd f056 06bc
00000370: 2aaa f83b a418 5c3d c061 953c 309a f03c
00000380: 9df2 35bd ab01 54bd 5e21 b43d e606 5cbd
00000390: eecb f13b 7ba1 273d 8aad b1bb 487a 713d
000003a0: 2480 61bd 4b01 63bd 7c4c 2ebd 7831 0abe
000003b0: 4478 b03c 702d 113c 9ef4 5bbc 2e48 cc3d
000003c0: 10cc 17be b43d 84bd a0d1 6abc a22d ae3d
000003d0: 796d 62be 5595 2dbe 6420 c8bd fea6 393d
000003e0: c8f9 f4bd 0066 703a a7dc e6bd cef4 4c3d
000003f0: a0d6 dd3d 0098 7939 2c97 8eba 838e 933d
-0.11054928 -0.069551654 0.017340655 -0.043182187 0.15428011 0.052209675 0.0844287 -0.106559604
-0.061001316 -0.1043646 -0.12704667 -0.10676679 -0.07816847 -0.117237404 -0.01564938 -0.111267164
0.07647404 -0.15988609 -0.035053447 0.041644827 0.049621746 -0.04968061 0.012456849 -0.20177804
-0.18744035 0.04236447 -0.09261374 -0.06697695 0.04457809 0.05356133 0.09974557 0.01725471
0.08333824 0.06419616 0.04738389 0.18587339 -0.1629868 0.05520175 -0.18952033 0.10221177
-0.100532144 0.048470043 -0.25374815 0.11978696 -0.12776281 -0.108892485 -0.028029328 -0.13216282
0.02998388 -0.06296258 -0.080127895 0.07134706 0.015013156 -0.32142866 -0.11227818 -0.12722751
-0.10017355 -0.03324668 -0.13998856 0.0136002125 0.08685985 0.124216214 -0.035207685 -0.100731626
0.044891506 -0.025758328 0.26279372 -0.0096116625 0.028551755 -0.036830857 0.091113254 -0.060377568
0.018559128 0.0016434185 0.21235576 -0.008746043 -0.16568288 -0.024829 0.18088835 -0.09340039
0.11069313 0.7046777 -0.04011692 -0.047157884 -0.071881734 0.052435692 0.091374695 0.04495342
0.05897326 -0.059973877 -0.03145188 0.07279444 -0.09989272 0.054274783 0.017529547 -0.08990757
0.022596026 0.44763997 0.038799316 0.004553466 0.2574532 0.08497754 -0.07292633 0.11039527
0.04159844 0.05843353 -0.08583406 0.016312554 -0.024499323 0.012145042 0.18249536 0.024520827
0.19176579 0.17445427 -0.014308333 -0.0031756759 -0.12014484 0.24560793 0.11814235 0.11461306
-0.058752 -0.11816861 0.54503924 0.43104157 0.064654335 0.030942485 0.20317014 0.17377137
0.052698486 -0.0411037 -0.36136445 0.21957074 0.10442432 0.110422954 0.0169027 0.10338853
-0.0006070137 0.1836134 -0.23655923 0.06620163 0.31599486 0.08763929 -0.49929792 -0.107316926
-0.032521784 -0.55081195 -0.011253029 -0.015959337 0.016750608 0.11131791 0.005081445 -0.1954556
-0.3844647 0.11322335 0.118127614 -0.105320916 0.1647798 0.056609154 -0.079827055 0.11308807
0.21114671 -0.5817992 -0.01470314 0.25371805 -0.5079035 0.04534282 0.27877533 0.04862933
-0.021697804 -0.20789155 0.16552866 0.057313856 0.092821024 0.049816266 -0.46835133 0.14270402
-0.16978778 -0.5934649 0.046883166 0.078158736 0.31693366 -0.40840992 0.031493664 0.08132821
-0.08362575 0.060283408 -0.32515222 -0.30361345 0.09044072 -0.08011505 -0.6184468 -0.05387986
0.064781286 -0.047454726 -0.08517909 0.06640955 -0.068373 0.051230878 -0.0916519 -0.085749835
-0.091509074 0.10513347 -0.13700946 0.09916024 0.116191216 0.037785456 -0.020493418 -0.058191076
0.08815847 -0.12282958 0.030510962 -0.07755655 0.005894832 -0.10883055 -0.04207684 -0.06486714
0.050179552 -0.035135005 -0.034593955 -0.008199438 0.0075886445 0.053734437 0.018235087 0.029370397
-0.044420827 -0.051759403 0.08795427 -0.053717516 0.0073790466 0.040925484 -0.005422299 0.058954507
-0.055053845 -0.055421155 -0.04255341 -0.13495433 0.021541722 0.008860931 -0.0134250205 0.09974705
-0.14823937 -0.064570814 -0.014332205 0.085047975 -0.22112073 -0.16951497 -0.09771803 0.04532527
-0.119617045 0.00091704726 -0.11272555 0.05003815 0.10831952 0.00023803115 -0.0010878793 0.07204916

net.3.bias f4 [64]
00000000: 88e4 963e 2943 b63e 6df3 3c3e c218 2dbc
00000010: a29f 103f 7a26 083f 5a08 5e3e ecb2 193f
00000020: 7778 143f 269e 1d3f f22a 863e da25 f83e
00000030: 80af a23e 58dc ae3e abfa fc3d 54db b73e
00000040: 4771 a83e aa92 b43e 3ca9 7c3e 0818 0f3f
00000050: f425 223f 7fcb fb3e 4e22 ce3e d193 7d3e
00000060: a291 a53e a43f 00bd 00b6 0d3f ca42 d53e
00000070: 3c58 123f 739c ad3e bd3f c23e a939 293c
00000080: a3e0 e93e a973 9e3e 5226 c33e 5738 b73e
00000090: 1ec1 e23e 202f bf3e fdf3 153f 61e3 5d3e
000000a0: d25a 8a3e 0b32 be3e aded e43e 23f1 983e
000000b0: 86a8 db3e c99c ad3e a558 4d3e 71c5 893e
000000c0: 814b 083f e112 d93e 4127 cb3e 9e27 683e
000000d0: 2c4a c93e cc50 d93e 023e 733e 58f2 aa3e
000000e0: 9502 de3e dbc2 183f 7433 e83e c6ce 983e
000000f0: 99f7 bd3e 53af c93e 1f1e 0b3f 7b25 6a3e
0.2947123 0.35598114 0.18452235 -0.010564985 0.5649358 0.5318371 0.21682873 0.6003864
0.57996315 0.6156944 0.2620464 0.48466378 0.3177452 0.34152484 0.123524986 0.35909522
0.32898924 0.35268146 0.24673933 0.55896044 0.6333916 0.49178693 0.40260547 0.24763419
0.32337672 -0.031310692 0.55355835 0.4165252 0.57165885 0.33908424 0.37939253 0.010328689
0.45679197 0.30947617 0.38115174 0.3578517 0.44287962 0.3734064 0.5857542 0.2166877
0.27022415 0.37147555 0.44712582 0.29871473 0.4290201 0.3390868 0.20053346 0.26908448
0.5324021 0.42397216 0.39678386 0.22671363 0.393144 0.42444456 0.23754123 0.3338802
0.43361345 0.59672326 0.45351756 0.29845256 0.37102965 0.39391574 0.54342836 0.2286586
