2_Party/shadow_model_data/shadow_minus_F_client2_bottom.pt (torch, 21312 bytes, 4 tensors)

net.0.weight f4 [64, 8]
0.09762775 0.15495372 -0.39661178 -0.13969517 0.06380044 -0.172577 -0.13306414 -0.11073265
1.2531209 1.2217141 -2.0623705 -0.39395064 0.15272318 0.25466126 -0.07455471 0.0066610444
2.5993001 2.4964063 -3.1467519 -1.0873833 0.23865105 0.24882483 0.12565129 -0.2848052
-2.2710884 -2.375583 0.7775325 -0.3953523 0.13468619 0.31090322 0.09915348 0.25981283
-0.2198467 -0.7336585 -0.66522366 -0.57860386 -0.109679826 0.12153381 -0.30268008 0.24422641
-0.863877 -0.7774467 0.56329834 -0.15843233 0.19123356 -0.22497505 0.31903562 -0.22132249
0.5865309 0.77964693 -1.5766643 -0.5063212 0.31752518 0.13821554 -0.30402806 0.1907096
-0.35963675 -0.34036443 -0.37420022 -0.26719484 0.1404396 0.15531704 0.22531912 0.12969658
-0.042847224 -0.53106827 1.4055936 1.0326343 -0.18720074 0.059040803 -0.19200572 -0.26858747
0.33044106 0.3005357 -0.09631656 0.029560074 0.25455087 0.11113958 -0.12565269 0.014572028
0.26122934 0.6775449 -0.7582084 0.33441857 -0.22861569 -0.17295042 0.14952555 -0.0027476847
2.004856 1.6706477 -1.8720831 -1.0353516 -0.112577684 -0.37424418 0.21650182 0.22926585
0.2960667 0.0483177 -0.78700745 -0.23762667 -0.3899276 0.02871878 0.11469831 0.19613631
1.8313581 1.9286183 -2.5939302 -0.799813 0.26347503 0.007753514 0.32052368 -0.28731912
-0.42612952 -0.5329805 1.481422 0.17310108 0.20407818 -0.25041786 -0.13161689 -0.09953436
-0.43588683 -0.42447847 -0.004590198 -0.73544246 0.14884192 0.29877666 0.07477664 0.040402766
0.057443347 -0.25836635 0.2909267 -0.5884355 0.2985634 -0.29098436 0.38470978 -0.13537502
0.017099064 -0.29298186 -0.34375829 -0.14214408 -0.082589656 0.13902415 0.10121723 -0.100508295
2.6217957 2.969256 -2.9228127 -1.2789822 0.2029026 0.0559828 0.24386212 -0.23262624
-1.0705032 -0.8763709 1.8456337 0.5195036 0.17562671 -0.13414013 -0.21867935 0.2767661
0.58695143 0.70912266 -0.51512617 0.11808573 -0.1843203 0.2425588 -0.03563724 -0.12932569
1.5140709 1.5037913 -0.9665924 0.4794075 -0.3270873 -0.32032293 -0.07860397 -0.12578043
1.3835897 1.2409377 -0.7313616 0.12202355 -0.31568697 -0.16557376 -0.053362202 0.054785345
0.46680298 0.21166612 -0.032641068 0.24917059 0.20949204 -0.18803266 -0.2001413 0.38242304
0.81418544 1.1750696 -1.0269824 -0.07289793 0.033259593 0.17396194 0.07395444 0.07204879
-0.8971609 -0.7258852 0.4794173 -0.3542565 -0.089777835 -0.037925802 0.2639452 -0.15260847
-1.4082136 -1.2707642 1.0331608 -0.2980725 0.17409259 -0.114440486 0.16635878 -0.056590844
-0.3617844 -0.88048023 0.49158883 -0.00844545 0.3275773 -0.19250952 0.4105461 -0.24192636
-0.39242014 -0.3489888 -0.4951019 -0.01401892 0.28864732 -0.294657 -0.1437441 0.15160194
-1.1095562 -1.2495636 1.0200236 0.26342368 0.3349328 0.07715181 -0.32281026 0.26749662
0.41092178 0.6233144 -0.05656655 0.26772645 -0.32671434 0.2581792 -0.04194545 -0.28717998
1.1432246 0.71487075 -0.014373769 0.38872948 -0.1982787 0.32279015 0.28103527 -0.3390876
00000000: 0ff1 c73d 30ac 1e3e b310 cbbe 400c 0fbe
00000010: cea9 823d 06b8 30be f741 08be cdc7 e2bd
00000020: 4466 a03f 2161 9c3f e1fd 03c0 e6b3 c9be
00000030: 7763 1c3e f662 823e 24b0 98bd e444 da3b
00000040: ef5a 2640 1fc5 1f40 6264 49c0 602f 8bbf
00000050: f160 743e f0cb 7e3e bbaa 003e fdd1 91be
00000060: 8359 11c0 8d09 18c0 5f0c 473f 9e6b cabe
00000070: 2deb 093e b52e 9f3e fb10 cb3d 3006 853e
00000080: 7e1f 61be 0bd1 3bbf 194c 2abf 621f 14bf
00000090: d19f e0bd b8e6 f83d e2f8 9abe 7d16 7a3e
000000a0: 0b27 5dbf bf06 47bf 5234 103f 163c 22be
000000b0: bbd2 433e dc5f 66be a358 a33e 5da2 62be
000000c0: e426 163f f196 473f 23d0 c9bf 449e 01bf
000000d0: a992 a23e 6088 0d3e 91a9 9bbe 6149 433e
000000e0: 4f22 b8be 3f44 aebe 2c97 bfbe c3cd 88be
000000f0: 66cf 0f3e 6e0b 1f3e 0eba 663e 2ecf 043e
00000100: 9280 2fbd 17f4 07bf 7eea b33f 5c2d 843f
00000110: 8db1 3fbe c5d4 713d 269d 44be 4c84 89be
00000120: 922f a93e d1df 993e 9e41 c5bd f827 f23c
00000130: 7e54 823e 269d e33d 19ab 00be 84bf 6e3c
00000140: dabf 853e 9573 2d3f f219 42bf e938 ab3e
00000150: 3b1a 6abe ea19 31be 3a1d 193e 8012 34bb
00000160: 904f 0040 c9d7 d53f 6ba0 efbf 6786 84bf
00000170: 218f e6bd ef9c bfbe a7b2 5d3e abc4 6a3e
00000180: 0e96 973e c8e8 453d 5279 49bf 6854 73be
00000190: 97a4 c7be a643 eb3c f3e6 ea3d f5d7 483e
000001a0: f169 ea3f f7dc f63f f402 26c0 8bc0 4cbf
000001b0: 33e6 863e 3111 fe3b ae1b a43e 7e1b 93be
000001c0: a62d dabe 6971 08bf 3c9f bd3f 6941 313e
000001d0: dff9 503e c536 80be 94c6 06be acd8 cbbd
000001e0: 8f2c dfbe 3e55 d9be 5f69 96bb f545 3cbf
000001f0: 046a 183e 41f9 983e 7f24 993d 5f7d 253d
00000200: b749 6b3d 9848 84be 58f4 943e b5a3 16bf
00000210: 4ddd 983e e7fb 94be aef8 c43e c09f 0abe
00000220: 5613 8c3c b801 96be 1601 b0be 388e 11be
00000230: c424 a9bd 595c 0e3e fb4a cf3d 4bd7 cdbd
00000240: 80cb 2740 4a08 3e40 5d0f 3bc0 b0b5 a3bf
00000250: b3c5 4f3e 384e 653d feb6 793e 9335 6ebe
00000260: 4006 89bf d859 60bf ba3d ec3f 30fe 043f
00000270: 7dd7 333e 085c 09be 7bed 5fbe 49b4 8d3e
00000280: 7342 163f 1089 353f 4fdf 03bf eed6 f13d
00000290: 76be 3cbe 5661 783e 5bf8 11bd f46d 04be
000002a0: 13cd c13f 3c7c c03f 9972 77bf e674 f53e
000002b0: fd77 a7be 5e01 a4be 1efb a0bd 96cc 00be
000002c0: 7819 b13f 0cd7 9e3f 843a 3bbf 7ce7 f93d
000002d0: b9a1 a1be 2b8c 29be 5392 5abd 9966 603d
000002e0: cd00 ef3e 01bf 583e a4b2 05bd 9326 7f3e
000002f0: 1585 563e a28b 40be d7f1 4cbe f4cc c33e
00000300: 756e 503f ae68 963f 2974 83bf 834b 95bd
00000310: 363b 083d 1423 323e 6d75 973d 518e 933d
00000320: 56ac 65bf 9dd3 39bf 2f76 f53e 1c61 b5be
00000330: 71dd b7bd 1658 1bbd d323 873e 6545 1cbe
00000340: 5840 b4bf 67a8 a2bf 9d3e 843f f59c 98be
00000350: 5445 323e c65f eabd f559 2a3e cdcb 67bd
00000360: ce3b b9be 2767 61bf 88b1 fb3e c95e 0abc
00000370: 36b8 a73e 3721 45be 1933 d23e 8bbb 77be
00000380: 4beb c8be a9ae b2be ff7d fdbe 9daf 65bc
00000390: 95c9 933e 48dd 96be a731 13be 8a3d 1b3e
000003a0: f005 8ebf b3f1 9fbf 2290 823f 78df 863e
000003b0: 507c ab3e c501 9e3d 6347 a5be 51f5 883e
000003c0: 5764 d23e 8891 1f3f 54b2 67bd 7113 893e
000003d0: 1a47 a7be 1030 843e fece 2bbd 4109 93be
000003e0: 2f55 923f c501 373f f57f 6bbc 8d07 c73e
000003f0: 9209 4bbe c044 a53e dbe3 8f3e e49c adbe

net.0.bias f4 [64]
-0.32269222 0.22119266 0.18270059 -0.15336037 -0.27250084 -0.25425634 0.03825891 0.1794205
0.35777432 -0.03303272 0.10501347 -0.20672345 0.06622924 0.22284284 -0.15618458 -0.38085163
0.13778372 -0.15246294 0.17180413 -0.07336168 -0.01148886 0.35499552 -0.14153597 0.23372605
0.012656321 -0.37865624 -0.09007083 0.36850822 -0.27659664 0.1839566 0.24555935 0.3555109
-0.017187286 0.03268309 0.15613836 -0.053592455 -0.21843833 0.30691126 -0.3006345 -0.050432995
0.18306822 0.3333424 0.2146181 -0.2675294 -0.03606891 0.30273053 -0.38230994 0.086346924
0.21785966 -0.056825444 0.18556054 0.11045324 0.23617892 0.13208139 -0.14617956 -0.23764963
0.3043217 -0.2195089 0.2295844 -0.25836366 -0.12825474 0.046317734 -0.28669277 0.15870085
00000000: ea37 a5be 5480 623e dd15 3b3e 800a 1dbe
00000010: 3b85 8bbe e32d 82be 60b5 1c3d 02ba 373e
00000020: 322e b73e 514d 07bd 4d11 d73d 50af 53be
00000030: 32a3 873d ea30 643e daee 1fbe fcfe c2be
00000040: 2d17 0d3e 3f1f 1cbe 6ced 2f3e a63e 96bd
00000050: c53b 3cbc f9c1 b53e ceee 10be e255 6f3e
00000060: 755c 4f3c 3bdf c1be 0e77 b8bd 1cad bc3e
00000070: 139e 8dbe 1e5f 3c3e e973 7b3e 8605 b63e
00000080: 5acc 8cbc b4de 053d bce2 1f3e c383 5bbd
00000090: 4cae 5fbe 7923 9d3e c4ec 99be d492 4ebd
000000a0: 3c76 3b3e dbab aa3e d9c4 5b3e 9df9 88be
000000b0: febc 13bd 7fff 9a3e 21be c3be a8d6 b03d
000000c0: 9a16 5f3e ccc1 68bd 9503 3e3e 4f35 e23d
000000d0: e3d8 713e 5840 073e 18b0 15be 6d5a 73be
000000e0: 0ed0 9b3e f1c6 60be 2c18 6b3e 3e48 84be
000000f0: 3655 03be aab7 3d3d 65c9 92be 7a82 223e

net.1.weight f4 [64, 64]
-0.012448664 -0.11491628 -0.65712094 0.06315418 -0.10589454 0.10217715 -0.06767189 -0.11508513
-0.033733353 -0.14299946 0.07296532 0.018335218 0.03199398 -0.047254577 0.08381513 0.04469738
0.023268735 -0.029195054 -0.6988723 -0.06716349 0.05494335 -0.1692088 0.007056649 -0.11518485
-0.107767485 -0.032544628 0.08175868 0.123495236 -0.0732859 -0.06900724 -0.12818538 -0.098626874
-0.20430005 -0.062958665 -0.09518927 -0.0027639568 0.0011473822 -0.07850646 0.0034980467 0.11275621
0.12128016 -0.09440969 -0.17270039 0.07563336 -0.015512138 -0.06903189 0.087709375 0.10549998
-0.025840826 -0.003924967 -0.17899218 0.13890775 0.02215315 -0.050116852 0.086979054 0.08650874
0.12502365 0.0056331567 -0.341516 -0.022026626 -0.058741968 0.025924098 0.00044849046 -0.012197426
-0.12548669 0.012850587 -1.1424377 0.13333368 -0.0146933235 -0.03347011 0.02068286 0.059084866
-0.14057326 -0.14518788 0.064039715 -0.12915602 0.010827759 -0.0848358 -0.1389087 -0.077763565
-0.078212485 0.04143175 -1.0892274 -0.024733879 0.03928602 -0.35366425 -0.16097754 -0.03819157
-0.078560255 0.09509923 0.10362291 0.10933365 0.011266148 0.13016528 -0.07946814 -0.057914894
-0.23101185 -0.04799217 0.10522972 0.06575307 0.10910965 -0.08967205 0.02799683 0.04420508
-0.038875915 0.08899727 -0.19190904 -0.02233525 -0.11881863 0.113177605 0.07155995 0.0013194202
0.0616991 0.016804527 -0.17282656 0.09847136 -0.08572035 -0.11324632 0.20483331 0.16255859
0.028135866 0.052632242 -0.5429537 0.09334936 -0.17963398 0.4219167 0.034655835 -0.035519823
-0.021214586 -0.12904766 -0.94761413 0.15152176 -0.07434395 -0.13525422 -0.1342875 -0.08055507
0.008114782 -0.03174138 0.036717176 -0.14334495 -0.07360884 -0.08307141 -0.007532399 -0.12551048
0.058462184 0.103455044 -0.82715076 0.010453413 -0.12093427 0.06953997 -0.09208552 -0.017343193
-0.016743276 0.0016099574 -0.01800056 -0.07135794 -0.005121702 -0.044619508 -0.080400445 0.008577067
-0.15657115 -0.0634816 -0.05127106 0.12500304 0.010065868 -0.01600147 0.075926565 -0.03661756
0.030160801 0.10404085 -0.021098051 0.063227706 -0.12166092 -0.040722206 -0.10316875 0.14723536
-0.035963397 -0.17705196 -0.18936291 0.13459198 -0.1086726 -0.13349752 -0.029815808 0.026193345
-0.065115824 -0.15431441 -0.5388553 0.07781393 0.071960285 0.15898557 -0.0038306417 -0.0016885707
-0.04526876 0.018346546 -0.70330966 0.09860507 0.038126826 -0.038905 -0.088051416 0.016707541
0.06478587 -0.13132411 0.10595449 0.08428315 0.12661307 -0.012418735 -0.06626723 -0.15490898
0.087300465 -0.08049737 -0.5685683 0.04332498 -0.08057262 0.22444631 -0.07495186 -0.063271895
-0.07724008 -0.11038819 0.07935257 -0.06544453 -0.025030784 -0.06720206 0.14980619 -0.013590046
-0.0472072 -0.102604866 -0.0049237353 -0.10597581 0.02643173 0.16837752 -0.055483207 0.012434175
-0.07449854 0.090516314 0.0011572656 0.02288878 -0.060515556 -0.042622454 0.00650242 -0.049097214
-0.03361483 -0.24573575 -0.07729073 0.11191801 -0.06284462 0.045643933 -0.14741328 -0.23118061
-0.030276025 0.027352469 -0.41172233 0.040544998 0.17294094 -0.045593634 0.06886177 0.001995537
00000000: 7bf5 4bbc 3a59 ebbd 1439 28bf fb56 813d
00000010: 3ddf d8bd 4142 d13d 8f97 8abd c1b1 ebbd
00000020: fc2b 0abd 736e 12be d76e 953d bd33 963c
00000030: 1f0c 033d 048e 41bd 44a7 ab3d 9a14 373d
00000040: 139e be3c 772a efbc 4ce9 32bf 038d 89bd
00000050: 470c 613d 1245 2dbe 763b e73b 09e6 ebbd
00000060: 33b5 dcbd 844d 05bd 1871 a73d 12eb fc3d
00000070: eb16 96bd ab53 8dbd 0743 03be e3fc c9bd
00000080: 0834 51be 79f0 80bd 98f2 c2bd 8023 35bb
00000090: c263 963a ffc7 a0bd 7c3f 653b baec e63d
000000a0: bc61 f83d de59 c1bd 5fd8 30be aae5 9a3d
000000b0: 9f26 7ebc 9760 8dbd f9a0 b33d 6010 d83d
000000c0: 24b0 d3bc 029d 80bb ba49 37be d53d 0e3e
000000d0: 867a b53c 5447 4dbd 1322 b23d 7f2b b13d
000000e0: 3306 003e 5896 b83b 2fdb aebe 2f71 b4bc
000000f0: 6b9b 70bd c65e d43c 5f23 eb39 b6d7 47bc
00000100: 957f 00be 458b 523c 663b 92bf a088 083e
00000110: 44bc 70bc f417 09bd 1a6f a93c f902 723d
00000120: 70f2 0fbe 22ac 14be 4127 833d 7a41 04be
00000130: ea66 313c 64be adbd 153e 0ebe 8142 9fbd
00000140: de2d a0bd 57b4 293d ce6b 8bbf b49e cabc
00000150: 61ea 203d 7b13 b5be 4cd7 24be c46e 1cbd
00000160: 33e4 a0bd 63c3 c23d 4038 d43d 52ea df3d
00000170: a695 383c 0c4a 053e 31c0 a2bd 2b38 6dbd
00000180: 5f8e 6cbe 7093 44bd ae82 d73d 8ca9 863d
00000190: e174 df3d fba5 b7bd 9c59 e53c 6310 353d
000001a0: 5a3c 1fbd 3344 b63d ce83 44be 6af8 b6bc
000001b0: 2f57 f3bd a9c9 e73d 068e 923d 65f0 ac3a
000001c0: 32b8 7c3d a6a9 893c 72f9 30be 5aab c93d
000001d0: 278e afbd b0ed e7bd d3bf 513e c275 263e
000001e0: 307d e63c e894 573d 04ff 0abf f32d bf3d
000001f0: f8f1 37be 7705 d83e 47f3 0d3d 3c7d 11bd
00000200: 36ca adbc 1225 04be d796 72bf 8528 1b3e
00000210: a441 98bd 1580 0abe aa82 09be 0efa a4bd
00000220: ddf3 043c 4003 02bd c064 163d 05c9 12be
00000230: 3bc0 96bd 5821 aabd 58d2 f6bb d285 00be
00000240: 0b76 6f3d 3de0 d33d 27c0 53bf cb44 2b3c
00000250: 63ac f7bd f96a 8e3d 5597 bcbd 5013 8ebc
00000260: 3229 89bc 3505 d33a e975 93bc 1d24 92bd
00000270: f3d3 a7bb f2c2 36bd fda8 a4bd d486 0c3c
00000280: 3054 20be a402 82bd 9a01 52bd cc00 003e
00000290: 4feb 243c 8415 83bc 637f 9b3d 4bfc 15bd
000002a0: c913 f73c 5f13 d53d d2d5 acbc 877d 813d
000002b0: 5c29 f9bd 54cc 26bd 234a d3bd dec4 163e
000002c0: 5b4e 13bd 1c4d 35be 5ae8 41be 7bd2 093e
000002d0: bd8f debd 93b3 08be 4840 f4bc 6d93 d63c
000002e0: 725b 85bd 9904 1ebe 6cf2 09bf e95c 9f3d
000002f0: ea5f 933d 1dcd 223e 810b 7bbb 0853 ddba
00000300: bc6b 39bd 7f4b 963c 1a0c 34bf 74f1 c93d
00000310: e02a 1c3d d95a 1fbd 4d54 b4bd 41de 883c
00000320: 74ae 843d d479 06be abfe d83d a59c ac3d
00000330: dba6 013e f377 4bbc 1db7 87bd 76a0 1ebe
00000340: 96ca b23d cedb a4bd b18d 11bf 8975 313d
00000350: 4203 a5bd 41d5 653e 5c80 99bd b294 81bd
00000360: 0c30 9ebd 3413 e2bd 9a83 a23d c807 86bd
00000370: 5c0d cdbc 3ca1 89bd cb66 193e c9a8 5ebc
00000380: 565c 41bd 8022 d2bd 4957 a1bb d809 d9bd
00000390: 5b87 d83c 286b 2c3e 5c42 63bd b6b8 4b3c
000003a0: b192 98bd 9e60 b93d 64af 973a 4081 bb3c
000003b0: 29df 77bd e294 2ebd 4112 d53b 291a 49bd
000003c0: b4af 09bd 27a2 7bbe 9a4a 9ebd 4535 e53d
000003d0: aeb4 80bd 22f5 3a3d 82f3 16be 9cba 6cbe
000003e0: 6d05 f8bc 4912 e03c 45cd d2be 8312 263d
000003f0: 6e17 313e 64c0 3abd 6607 8d3d 8ec7 023b

net.1.bias f4 [64]
-0.08189571 -0.07962019 0.1246335 -0.0402059 -0.06418057 0.052709077 -0.063774206 -0.06684927
0.054427423 0.082733214 -0.0027738255 -0.031711582 0.048190285 0.113756455 -0.075865395 -0.15082626
0.14247888 -0.038435847 -0.15396097 -0.10473068 0.014929656 -0.036370087 0.04181401 0.00092508487
0.062307045 0.070328996 0.08371898 -0.04849866 -0.07373664 0.13237827 0.04786151 -0.009181886
-0.0043176296 0.16948067 0.0217272 -0.03516277 0.104016915 0.11020135 0.01039148 0.0073727844
0.08418185 0.19887537 -0.15644813 0.026312519 0.021459645 -0.02027639 0.06063335 0.09206648
-0.050033987 -0.13333625 -0.0025632589 0.110190794 -0.12166149 -0.0060783923 0.023141043 0.051768333
-0.11369729 -0.024203481 0.17057279 -0.04111241 0.045071986 -0.13566008 0.15643728 -0.010191921
00000000: f0b8 a7bd e90f a3bd d93f ff3d f1ae 24bd
00000010: 1a71 83bd 79e5 573d 0d9c 82bd 45e8 88bd
00000020: 4aef 5e3d 0870 a93d 12c9 35bb 01e4 01bd
00000030: 2d63 453d 25f9 e83d 515f 9bbd 3372 1abe
00000040: fce5 113e e86e 1dbd f2a7 1dbe 0a7d d6bd
00000050: 849b 743c cdf8 14bd 2b45 2b3d 6581 723a
00000060: ac35 7f3d a608 903d db74 ab3d 88a6 46bd
00000070: 3c03 97bd 2b8e 073e 6e0a 443d 9f6f 16bc
00000080: e77a 8dbb 578c 2d3e 3efd b13c d606 10bd
00000090: d206 d53d 3fb1 e13d 0741 2a3c 6697 f13b
000000a0: 8967 ac3d fca5 4b3e f033 20be 5a8d d73c
000000b0: 23cc af3c ac1a a6bc ad5a 783d 5a8d bc3d
000000c0: 70f0 4cbd 4c89 08be 59fc 27bb b6ab e13d
000000d0: a929 f9bd 402d c7bb 4992 bd3c 080b 543d
000000e0: 20da e8bd 6146 c6bc a2aa 2e3e 7d65 28bd
000000f0: 679d 383d 7aea 0abe 1831 203e 04fc 26bc
