2_Party/shadow_model_data/shadow_minus_F_client1_bottom_inter.pt (torch, 21936 bytes, 4 tensors)

net.0.weight f4 [64, 10]
00000000: 48fc 193f fc3b 023f a593 03bf 1f46 d63d
00000010: 2c18 2bbe 3344 1ebe ff13 1dbe 0bd0 87be
00000020: 1d6d 093d 7899 853d 4108 57be 6fb0 cf3c
00000030: 0cf1 f1bf d5f4 aabf 7752 273e 3675 513e
00000040: d624 9d3e 529c 6d3e 3e00 a83e a0d1 873e
00000050: c074 d0be fea5 b4be de76 49bf 4bbd 38bf
00000060: 9d41 033e 265c 773e 65ac 31be f799 8b3e
00000070: fe9f 853e 4933 4bbd dfac c2bb 34d9 943e
00000080: bcbb c93d 1bb9 393f 2d5b 6bbe f159 2ebe
00000090: f94f cabd f960 40bd 4e02 0bbd 36ce 47be
000000a0: b795 deb9 c54b 03bd 6228 15bd e14e 99be
000000b0: a30c 8b3e 845d 48be b186 12be 6bbb 94be
000000c0: 8715 383b 3a47 dabd c02c 27bf db12 b5be
000000d0: f2b2 663e afdd 863f 26df 81be 23d3 0dbe
000000e0: a4a0 96be 983e 79be b6e4 cebe d4fd 093e
000000f0: 302a a53d adc5 16bd 1fc4 6cbf dcde 283e
00000100: d7e6 1a3d 914c 603d 4ccf 83be 3cfa 343e
00000110: 5b3c c4be f33d 853c e35c 903e 7c24 a43e
00000120: 540b 6cbe afc3 cc3e b977 85be 4b44 4ebe
00000130: b11c 04be 51f7 0bbd 1a7d c1be 8dc2 a2bd
00000140: 8f18 563d 989f c53e 3eb1 82bf f517 5abf
00000150: 4906 a2bd b4c7 8b3d 4508 033d cac8 78bd
00000160: 9c8e 4a3e 4f3e e9bd 7445 13be 8939 65be
00000170: 8ee4 a1bd fb17 2abe 5e05 463e 768f d03d
00000180: 46f1 2b3e e4ed 443e b6af 9ebe 6ea1 6c3e
00000190: 56fa 29be 1c4a 43bb 1196 65be b9b3 593e
000001a0: ab55 1fbd f0e4 52bd e94e 52be fb96 ebbd
000001b0: 8ac8 a23c 4f79 3dbe 4d27 38bf 5295 20bf
000001c0: 9a93 fdbd 5530 053e 5f2f acbe d21f 8bbe
000001d0: 73ba aebe 2c81 873d 8ed9 a5be d5a7 f6be
000001e0: ca1c 953e 055c 953e e3e1 fc3d 7722 03bd
000001f0: d694 363e 21cf 38be 09e3 01bd 3099 c03d
00000200: fb68 223d b083 84be 73a9 73be 4dff e9bd
00000210: d33b 9abd c72e 64be bfe8 6d3e c314 19bd
00000220: 9cc4 03be 5b03 6cbe b863 4c3d 69cf 7f3d
00000230: 6816 843e ae7c 5f3e ee60 b53d 23f1 7abe
00000240: 786f 693e f87f eabc c408 4e3e e84c bb3c
00000250: bae5 0fbe ec5c a6bd 2459 ef3d ae87 e13c
00000260: 860b 1e3d 3744 19be bd55 43be 5fe6 de3d
00000270: 4479 a33d 27f8 4bbe 695c c0bc f13e 333d
00000280: e1f7 8e3e 5d54 903d 0b21 19bf 7254 883e
00000290: 4845 b7be e71d aabe 1519 c6bd 170d 01be
000002a0: 97f2 3e3e 7237 1e3d bb50 a6be 7ee1 06bf
000002b0: 8578 b4bf 2df4 92bf 84fb a43e 00e6 a03e
000002c0: edb4 e23d f949 f83d 4284 463e 0dab c73e
000002d0: e436 10be b4fc b43d 9885 8b3e af22 93be
000002e0: a493 893e e46c 02be aa8f 54be dfa2 333e
000002f0: 85e8 43be b2d2 5ebe 2da6 adbe 9bd2 61be
00000300: 052b 24be 6986 c33d beb6 543e bf3f 92be
00000310: 6260 c1be 27fc 28be 6e7a 543e cf19 bebe
00000320: 8bf7 12bf 058c b1be 1aa5 f6be 1535 823e
00000330: 0bf0 a0be 15ce 23be 6915 603e c30f a23d
00000340: 9580 debc ae6f 89be fc16 5ebe 1c82 653e
00000350: 7f28 21bd babb 053d 86ca 683e 5503 53bd
00000360: 39ce 8ebd 3903 56be 79cf 5ebe 3ecf da3c
00000370: 78b1 823d 5787 0bbe ec8b 29be 6951 14be
00000380: 2009 ca3d 1458 983e 0ca0 373e 7093 3abd
00000390: 16eb 813e 4a60 eebc 2824 9ebe 210c 2bbf
000003a0: 1514 043f fd41 1c3f 012d e4bd 5184 b1be
000003b0: 2528 31be f723 bcbd 6900 3fbe 1ec9 93be
000003c0: bffd 9abe 18cf 413e 24d6 f6be 8cae a2be
000003d0: 85cb 813d c376 1bbe 1017 263d 5561 40be
000003e0: 96d6 283e 305a debb ddaf 50bc 8dd2 c73d
000003f0: 4cb8 8a3e 8c11 7b3d 1c77 99be 2578 9a3e
0.60150576 0.5087278 -0.5139716 0.10462593 -0.1670844 -0.15455703 -0.15339659 -0.26525912
0.033551324 0.065234125 -0.20999242 0.025352685 -1.8901687 -1.3355967 0.16340052 0.20454869
0.30692166 0.23204163 0.32812685 0.2652712 -0.40714073 -0.35282892 -0.78697 -0.7216384
0.12817998 0.24156246 -0.1735092 0.27265903 0.26098627 -0.049609456 -0.005941018 0.29071963
0.098502606 0.72548074 -0.22984 -0.17026497 -0.09878535 -0.04696748 -0.033937745 -0.19512257
-0.00042454686 -0.03205468 -0.036415465 -0.29942992 0.2715808 -0.19566923 -0.14309193 -0.2904924
0.0028089003 -0.10658117 -0.6530266 -0.35365948 0.225292 1.0536402 -0.2536556 -0.13850074
-0.29419434 -0.24340284 -0.40408868 0.13475734 0.08064687 -0.036809612 -0.9248676 0.16491264
0.037817802 0.05476052 -0.25744092 0.17673582 -0.38327298 0.016264891 0.28195867 0.32059085
-0.23051196 0.39993045 -0.26067904 -0.20143239 -0.1290157 -0.034171406 -0.37790757 -0.07947264
0.052269515 0.38598323 -1.021034 -0.85192806 -0.07911355 0.068252 0.03199031 -0.060738362
0.19780964 -0.113888375 -0.14381963 -0.22385229 -0.079049215 -0.1661071 0.19337985 0.10183613
0.16791257 0.19231373 -0.30993432 0.23108456 -0.16599402 -0.0029798811 -0.22420527 0.21259965
-0.03890006 -0.051487863 -0.20537914 -0.115034066 0.019871015 -0.18503307 -0.7193497 -0.62727845
-0.123816684 0.13006718 -0.3362989 -0.27172714 -0.34126624 0.066164345 -0.32392544 -0.4817492
0.29123527 0.29171768 0.12347772 -0.03201529 0.17830214 -0.18047763 -0.03171066 0.09404218
0.0396509 -0.2588172 -0.23795108 -0.11425648 -0.07530942 -0.22283469 0.23233317 -0.037373316
-0.1286797 -0.23048155 0.049899787 0.06245366 0.25798345 0.21824905 0.088563785 -0.24506049
0.22796428 -0.028625473 0.20120531 0.02286382 -0.14052477 -0.08123192 0.11686924 0.027530517
0.03858521 -0.14967428 -0.19075675 0.108837835 0.07982114 -0.19918881 -0.023481565 0.043761197
0.27923492 0.07047341 -0.59816045 0.26626927 -0.35795045 -0.3322594 -0.09672753 -0.1260265
0.18647228 0.038627096 -0.32483467 -0.52687824 -1.409928 -1.1480767 0.3222314 0.31425476
0.11069665 0.12123484 0.1938639 0.3899769 -0.14083439 0.08837262 0.2725036 -0.287374
0.26870453 -0.12736851 -0.20757928 0.17542599 -0.19131668 -0.21760061 -0.33915845 -0.22052996
-0.16032036 0.09547121 0.20772836 -0.2856426 -0.37768847 -0.16502438 0.20749828 -0.37129065
-0.5740897 -0.3467714 -0.48172837 0.25431123 -0.31433138 -0.15996583 0.21883167 0.079131626
-0.027160922 -0.26843017 -0.21688455 0.22412914 -0.03934526 0.032649733 0.22733507 -0.05151685
-0.069729276 -0.20899667 -0.21758832 0.026710149 0.06381506 -0.13625847 -0.16557282 -0.1448418
0.09865022 0.29754698 0.17932147 -0.045550764 0.2537467 -0.029098649 -0.3088696 -0.6681538
0.5159314 0.6103819 -0.11141396 -0.34671262 -0.1730047 -0.09186547 -0.186525 -0.28864378
-0.30271718 0.18926656 -0.4821025 -0.31773794 0.063376464 -0.15182023 0.040549338 -0.18787129
0.16488108 -0.0067856535 -0.012737242 0.09756956 0.27093732 0.06129603 -0.29973686 0.30169788

net.0.bias f4 [64]
00000000: 84f0 1c3d a97c b2bd 0076 1b3d edf2 dcbd
00000010: 1eba c13d 4628 0e3e 350b 593e 399b 5d3e
00000020: 2cc9 8c3e 5a9c 673e 0976 583e cae1 a53e
00000030: 510d 073c 50d4 55be bce1 0fbc 8eb1 93be
00000040: f769 7a3e 8a9f 393e d706 d5bd d8e9 ac3d
00000050: 36a3 f73c d05b 97be e1a2 8e3e cb5c a93e
00000060: fbea a63e 9a25 173e 64af 6dbe a053 9fbe
00000070: 7935 173e 250e 513e 99ce b73d c722 90be
00000080: fc13 3d3e c070 153e 635f 8a3e ae9f 6f3a
00000090: dc0d 38be f0b2 9b3e 95c8 ddbd fb71 243c
000000a0: 31a8 b73c 8d20 6bbe 4da7 673e ef49 da3d
000000b0: 9ba4 66be aded 233e 0373 4dbe 2717 14be
000000c0: f5f9 97bd 068b 383e 41e0 823e 4a66 7dbe
000000d0: d697 903d 2d1e 803e 1a84 4ebe 7943 b73c
000000e0: 2247 5c3e 6d31 90bc 3af8 df3d 2d9e 59be
000000f0: aadb 6c3e c756 f0bd bb0c 2ebd a3bb 613e
0.03831531 -0.08715183 0.03795433 -0.10788522 0.09459327 0.1388255 0.21195681 0.21641244
0.27497232 0.22618237 0.21138777 0.32398826 0.008242921 -0.20881772 -0.008781847 -0.288464
0.24454485 0.18127266 -0.10401695 0.0844304 0.030229192 -0.29562235 0.27858642 0.33078608
0.3260115 0.14760438 -0.23211437 -0.31118488 0.14766492 0.20415552 0.08974952 -0.28151533
0.18464655 0.14593792 0.270259 0.00091409206 -0.17974037 0.30409956 -0.108292736 0.010036941
0.022419067 -0.22961636 0.22622414 0.10658633 -0.2252373 0.16008635 -0.20063405 -0.14461957
-0.074207224 0.18021783 0.25561717 -0.24746051 0.070602104 0.25023022 -0.2016758 0.02237104
0.2151151 -0.017601693 0.10936017 -0.21251746 0.2313067 -0.117353015 -0.04249261 0.22044234

net.3.weight f4 [64, 64]
00000000: 846a 8abd b9c3 8cbb 2fcd e4bc 2294 0dbe
00000010: 3044 a4bc 525e 94bc 44d7 f9bc 8a55 e6bc
00000020: d9fc c8bd ee28 d3bd 4336 14be 8f12 893d
00000030: 6c28 84bd 60bf ce3c 9a04 a0bd bac4 ea3d
00000040: 2338 32bc 8bc9 8c3c 64a4 ae3d a813 a93d
00000050: 0df0 03be 0c40 e0bd 8423 70bd 80e7 07bd
00000060: 637e b5bd c173 5cbd 84f1 05bd 8c19 233d
00000070: 376b 01be a802 bfbd 0cc2 a7bd 56e0 133d
00000080: f0d0 9d3c a0e4 c13c 12b8 48bd ff2f ff3b
00000090: 4e0d ee3d 9a0c 02be da30 993d 6814 6dbd
000000a0: e257 cbbd 4068 49bd 95ed 3b3d 20e3 35bc
000000b0: 0811 933d b485 7ebd a86c c73d c4b4 0ebd
000000c0: 58e6 da3c dc21 55bd 7670 edbd 87b4 7fbc
000000d0: 55d6 5cbd 184c 8e3d f3a9 4b3d 24a9 cb3d
000000e0: ae3d 88bd e8bb ab3c 7d5b febd 5cbb 50bb
000000f0: 4025 b4bb e092 693c 60b7 703c 5880 76bc
00000100: 270c adbd a152 2ebc c68b 7dbd 624d 80bd
00000110: 640b 7f3d 5459 afbc 9530 e7bc b7d4 173d
00000120: b732 fabd 56af da3d 8f9d c33c 010c e1bd
00000130: a027 f8bb c0d5 16bc 3cf1 bdbd 705c 05bd
00000140: 3972 90bd 3007 af3c 14c4 983d 3f56 903d
00000150: ddb2 30bd 3cd4 0c3d b0a7 d43d 64c6 efb9
00000160: 4d69 d8bd 287d cbbd e06f ef3c 1015 ce3c
00000170: ba07 3fbd ba41 dabd 463d 93bd a103 7cbd
00000180: 841c d6bd ba43 813d ca43 b0bd a614 f6bc
00000190: 2cf7 2a3d efe1 0b3d 02cd abbd 907a 163d
000001a0: e078 383d 40a5 e8bb b477 f8bc a83a 9cbc
000001b0: 8458 0b3d 308d 023c f62a 8a3d b6d9 b2bd
000001c0: 28c8 bbbd de80 ed3d 40de 15bd ba2a b93c
000001d0: 60c1 3dbc 9efb 82bd e40e 35bd e863 123d
000001e0: 057e 23be d006 46bd d3cf 05be 450d 863d
000001f0: a4b6 0fbd 08ee 28bd 30f8 653c ea73 8dbd
00000200: aa01 113e 04b3 d33d 78e4 21be ae2f 583d
00000210: 88b2 ce3d fbed 9839 eea5 2fbe 5fa1 e23d
00000220: ab68 023d 8073 98bb 3b9b f7bb bfb6 063e
00000230: 0008 30bb 70ae 72bc 641e 093d a855 c5bd
00000240: 7a3c 70be 76b0 c13d da87 8fbd 233f 2d3d
00000250: e4e7 0a3b 32f3 b7bd de5f e53d 36b4 b73d
00000260: 741e c8bd 30e2 2cbd 0c3c f5bd 403e f73c
00000270: 4a73 203c 644a be3e 2809 dabd acf8 043d
00000280: f472 383d c035 67bd ccc1 a6bd d230 463d
00000290: d865 f2bc 79e8 a6bc 08ec ec3d 6e4a 883d
000002a0: a0db 983b 72c0 f7bd 2e70 d73d 7019 d33c
000002b0: 689d e3bd c4b4 e43d 8028 c1ba 801c 14bb
000002c0: 6024 2bbd 6400 ecbd 80c6 8abc 100d 80bd
000002d0: ffc5 f2bd d8c8 c33c 47d8 cd3d 8cc0 463d
000002e0: 8e71 e43d 664e 863d ef8d c73d acb5 41be
000002f0: acd4 15bd d026 efbc a6c9 a63d 4804 873c
00000300: efaf 9b3d 11a3 0bba e419 1a3e f43d 7dbd
00000310: 7680 ec3d 7681 ecbc f4e6 dd3c 611a b13d
00000320: 46f3 cb3d b820 f0bd ffe2 003e 8962 2f3e
00000330: ed49 72bd 74a8 aebd e8ad 0c3d 4060 213d
00000340: fdf5 2c3d c991 433e 1812 fd3c 08a5 03bd
00000350: dee3 d2bc d40d 1d3d 5096 e73d 1921 d73d
00000360: c695 d43d 5d23 d5bc 4c78 813d 1aa2 b6bd
00000370: a384 60bd fa16 fb3c 14c8 9bbb d16c 163e
00000380: b04c 5fbd 107d d13d 344c 383d 889a 86bc
00000390: ea84 893d bb36 dc3d 502f 06bc 4e08 e63d
000003a0: 4c73 1dbd 5836 24bd 63d7 173e 702f 00bc
000003b0: e01a c2bd 38ca bcbc 70e6 723d 106f 873c
000003c0: 48d1 a83d b0ef cfbc ce8f a63d 1e1f 593d
000003d0: 02b1 de3d 18c8 a0bd b6a9 1c3e d43a 193d
000003e0: eca7 f53d 1894 38bd 9338 2a3d b5e0 653c
000003f0: fa8f fb3d a851 95bd 165c 8ebd 9b7d 443d
-0.067585975 -0.004295793 -0.02792987 -0.1382604 -0.020052046 -0.018111382 -0.030498154 -0.02811696
-0.09813852 -0.10310541 -0.14473824 0.06692993 -0.06453022 0.02523774 -0.07813378 0.11463304
-0.010877642 0.017185947 0.08527449 0.08255702 -0.12884541 -0.10949716 -0.05862762 -0.03317976
-0.08861997 -0.05382133 -0.03270103 0.039819285 -0.12638555 -0.093266785 -0.081913084 0.036102615
0.019264668 0.023668587 -0.049003668 0.007787704 0.116236314 -0.1270012 0.07480021 -0.05788079
-0.09928872 -0.049171686 0.045880873 -0.011101514 0.07180983 -0.062139228 0.097375214 -0.03484036
0.026721165 -0.052034244 -0.11593716 -0.015607006 -0.05391534 0.069481075 0.049722623 0.099443704
-0.066523895 0.020963624 -0.12419794 -0.0031849956 -0.0054976046 0.014256209 0.0146921575 -0.015045248
-0.084495835 -0.010639817 -0.061900876 -0.062647596 0.062266722 -0.0214049 -0.028221408 0.037068095
-0.12216704 0.10677974 0.02387884 -0.10988618 -0.007573083 -0.009206235 -0.092745274 -0.03255886
-0.07053036 0.021365732 0.07459274 0.070477 -0.043139327 0.03438209 0.10383546 -0.00045733445
-0.105669595 -0.09935981 0.02922815 0.025156528 -0.046638228 -0.106570676 -0.07189421 -0.0615269
-0.10454658 0.06311746 -0.0860668 -0.030039143 0.041739628 0.034151014 -0.083887115 0.03673798
0.04503715 -0.0070997775 -0.030330516 -0.019070938 0.034019962 0.007968232 0.067464754 -0.08732931
-0.09169036 0.11596845 -0.036588907 0.022603381 -0.011581749 -0.063956484 -0.044203654 0.03573981
-0.15966041 -0.04834634 -0.1306756 0.065455 -0.03508629 -0.04124263 0.014036223 -0.069068745
0.14160791 0.10336879 -0.1580981 0.052779846 0.10092646 0.00029169008 -0.17153141 0.11065935
0.0318381 -0.0046524405 -0.0075563467 0.1315565 -0.0026860237 -0.014812097 0.03347625 -0.09635478
-0.2346057 0.094574854 -0.070083335 0.04229654 0.0021195346 -0.08981933 0.11199926 0.089699194
-0.097714335 -0.042207897 -0.11974344 0.03018105 0.009793112 0.3716613 -0.10646278 0.032463714
0.045031503 -0.056447744 -0.081424326 0.048386402 -0.029589579 -0.020374523 0.11568457 0.06654821
0.004664853 -0.12097253 0.105194435 0.025768965 -0.11114007 0.11167291 -0.0014736801 -0.0022599995
-0.041782737 -0.11523512 -0.016940355 -0.062524915 -0.11854171 0.02389948 0.10051017 0.04852347
0.11154471 0.06557922 0.097438686 -0.18916959 -0.036579773 -0.029193312 0.0814393 0.016481534
0.07601916 -0.0005326728 0.15048939 -0.06182666 0.115479395 -0.028870326 0.027087666 0.086476095
0.0995851 -0.117249906 0.12586592 0.17127432 -0.059152532 -0.08528224 0.034345537 0.03939843
0.04222678 0.19098581 0.030892417 -0.032139808 -0.025743421 0.038343266 0.11307967 0.1050436
0.103801295 -0.02601784 0.06321773 -0.08917637 -0.054813992 0.030650605 -0.004754076 0.14689948
-0.054516494 0.10228932 0.044994548 -0.016431108 0.067148045 0.107526265 -0.008189991 0.11232053
-0.038440034 -0.04009089 0.14828257 -0.00782381 -0.09477782 -0.023045644 0.059301794 0.01653245
0.08243042 -0.025382847 0.08132897 0.05300819 0.10873605 -0.07850665 0.15299115 0.03740962
0.11994919 -0.04506311 0.04155786 0.014030625 0.12283321 -0.07290965 -0.06951158 0.04797135

net.3.bias f4 [64]
00000000: 511f 86bd 7f86 cb3c f395 9c3e e755 c23e
00000010: e7b7 033f 9f70 e63d 4b25 083f a66e b53e
00000020: 3d14 d03e 06ae 9f3d 79a0 fe3e 6960 f53e
00000030: 81af de3e 5763 c43d b23b 1e3d 2960 b7bd
00000040: 6fb6 acbd cebd 663e c372 efbd f8c0 da3e
00000050: d55d 823e 2b86 dd3e 84ca 8a3e c0fa 0e3f
00000060: 8ee3 e43e cbd6 40bd 5933 e83e 7c2f 783e
00000070: 6c58 713e 22d2 013f 1fa0 c93e 656e 0e3f
00000080: eecf ad3e bffc a43e f512 1c3e 38de 953e
00000090: b24f d33e 28ba 953e a37f d23e 2369 8c3e
000000a0: 13c4 823e 1ca8 5abd f911 0f3e a69a a23e
000000b0: 4492 553e ca67 f43e 1932 1b3f 4fa4 763e
000000c0: 30ac 153f a994 563e b8db d03e a074 bebc
000000d0: ce2f bb3e 04e3 f73d 2bcb c43e 68d7 283f
000000e0: 9a34 1e3f 7665 97bd 63fe 8d3e 1eb9 053f
000000f0: 15a6 e03e 2503 823e 0096 a13e 43c4 bf3e
-0.06548942 0.024844406 0.30583152 0.37956163 0.5145249 0.112519495 0.53181905 0.3543598
0.4064044 0.07796864 0.49731806 0.47925118 0.43493274 0.0958926 0.03863115 -0.08953888
-0.08433234 0.22533342 -0.11691811 0.42725348 0.25462213 0.43266425 0.27107632 0.55851364
0.4470486 -0.047079843 0.45351675 0.24236864 0.23568887 0.5071126 0.39379975 0.556372
0.339477 0.3222408 0.15241607 0.29271102 0.4127174 0.29243588 0.41113004 0.27423963
0.25540218 -0.053382978 0.139717 0.31758612 0.20856577 0.47735435 0.6062332 0.24086116
0.5846586 0.20955147 0.40792632 -0.02324897 0.3655991 0.12103847 0.38436255 0.65953684
0.61799014 -0.07392399 0.27733144 0.5223559 0.4387671 0.25393024 0.31559753 0.37454423
