2_Party/shadow_model_data/shadow_plus_F_client2_bottom.pt (torch, 21880 bytes, 4 tensors)

net.0.weight f4 [64, 10]
000000 eb 23 86 3e 93 58 09 bd d0 91 65 3e 44 5a 72 3e
       0.26199278 -0.033531737 0.22418904 0.23667246
000010 9a 70 85 be 10 79 08 3e eb 76 9a 3d 9b 7e d4 bd
       -0.2606247 0.13327432 0.07542213 -0.103757106
000020 1b 74 89 3e a5 65 3c be 8b 73 80 3e 51 87 99 3e
       0.26846394 -0.1839815 0.25088152 0.2998605
000030 db 42 81 be f3 24 63 be 52 ea 89 be 95 fa 04 3e
       -0.2524632 -0.22182064 -0.26936585 0.12986214
000040 c2 1d 96 3e b2 43 2e 3e a5 a3 d1 39 35 0b 6b be
       0.29319578 0.17018011 0.0003998551 -0.22953494
000050 04 94 d4 be 8a 38 df be 44 eb 89 be 96 f7 67 3f
       -0.41519177 -0.43597823 -0.26937306 0.9061216
000060 66 2a 93 3f 99 0c 8c 3f 30 1a a7 be a2 65 00 be
       1.1497314 1.0941344 -0.32637167 -0.1253877
000070 4f 33 48 3d b7 ae 49 be 13 67 8b bd a8 a2 e1 3d
       0.048877057 -0.19695555 -0.06806769 0.11017352
000080 fb be 79 be 4f 7d 8a 3e 23 80 42 3e fc 87 3c bd
       -0.2438926 0.27048728 0.18994193 -0.046028122
000090 41 c5 05 be 7e 3c e7 3c 84 b0 43 be 27 24 65 3e
       -0.13063528 0.028227087 -0.19110304 0.22377072
0000a0 00 56 a0 3f b9 07 63 3f 22 98 9d 3f 5e 56 a9 bf
       1.2526245 0.8868366 1.2312052 -1.3229482
0000b0 af f1 92 bf c3 8d a6 bf 7c 3b e3 3e f1 fe 06 3f
       -1.1480006 -1.3012012 0.4438132 0.5273276
0000c0 df 4c 5e 3f 7b 75 ea bd 60 13 52 be a9 b4 d4 3d
       0.86836046 -0.11448189 -0.20515203 0.10386021
0000d0 80 b6 80 be a8 61 58 be 69 40 d4 3d af a0 09 3e
       -0.25139236 -0.21131003 0.10363848 0.13440202
0000e0 d5 5f 9a 3e ac 93 3d 3e 68 d0 6d bd b9 9d 8b 3c
       0.3015124 0.18513364 -0.05806008 0.017042981
0000f0 dd b3 21 be 1d 62 8b 3d 4c f7 6e 3e 75 00 95 be
       -0.15791269 0.06805823 0.23336524 -0.2910191
000100 19 16 ab bd d9 1c d3 3d 45 25 10 be 35 0c 5d 3e
       -0.08353824 0.10308237 -0.14076717 0.21586688
000110 7e 3e 7b be 27 c9 26 3e 22 1b 8a be 00 02 75 bd
       -0.24535558 0.16287671 -0.26973826 -0.05981636
000120 e9 18 85 3d db 77 28 3d e4 53 a6 3d e6 23 88 bd
       0.06498892 0.041129928 0.081214696 -0.06647472
000130 cf fc 08 3e 77 e4 f3 bd 62 ea f1 bd b1 22 52 bd
       0.13377689 -0.119088106 -0.11812283 -0.051302616
000140 84 ca 70 be 26 d4 97 bd 7c 3f 2e 3d 60 04 8a 3e
       -0.23514754 -0.07413511 0.042541012 0.26956463
000150 0a 1b 8c be dc cf 71 3e 88 7e 6b be 2e 59 1d 3e
       -0.2736438 0.23614448 -0.22997487 0.1536605
000160 ae e2 67 3e c1 71 63 bd d8 07 b0 3f 93 38 82 3f
       0.22645065 -0.055528406 1.3752394 1.0173515
000170 c2 66 ce 3f 31 02 4f 3f e0 2b 3e 3f e5 1f b6 3e
       1.6125109 0.8086272 0.742857 0.3557121
000180 83 f8 d6 bc cb 0d af be 72 58 0d be 5a 1f ec be
       -0.026241546 -0.3419021 -0.1380327 -0.4611767
000190 76 02 24 3e c3 9f 94 3e 3d 57 a7 3d fb c6 40 3c
       0.16016564 0.2902814 0.08170936 0.011766191
0001a0 7a af 7d 3e f5 7d a0 be 7b 05 35 be d1 b5 bf 3d
       0.2477397 -0.31346098 -0.17677872 0.093608506
0001b0 d1 17 5e bd bf a2 61 3e 4b db 8c 3e 5e 65 4c 3e
       -0.05422193 0.22034739 0.27511057 0.19960544
0001c0 5a e6 ee 3d 24 7e 95 be 10 62 a3 3d e9 a1 11 bd
       0.1166503 -0.291978 0.07977688 -0.0355548
0001d0 b5 4b 6b be eb 1f 5b be d5 c8 47 be 73 19 9f 3e
       -0.22978099 -0.21398894 -0.19510205 0.31074104
0001e0 9d 91 89 bf 27 6b 86 bf 79 1f 6c bf 5e 5a 6c 3d
       -1.0747563 -1.050145 -0.92235523 0.05770337
0001f0 bc ec 23 3d 42 9d 07 3e fe 7f 45 bf 89 f9 fe be
       0.04002069 0.13243583 -0.77148426 -0.49799755
000200 47 3c a5 be fd cf b8 3f 4b 8a 18 bd 18 e6 39 be
       -0.3227255 1.4438473 -0.03724126 -0.1815418
000210 77 c3 d4 bd 1d 53 a0 3e fa 2a 51 be 3a de 8a bd
       -0.103888445 0.3131341 -0.2042655 -0.067806676
000220 20 68 05 bc f4 c0 03 be 09 66 30 be 27 27 11 be
       -0.008142501 -0.12866575 -0.17226423 -0.14175092
000230 13 d3 74 bf 67 c7 86 bf 17 43 a7 bf aa b5 85 3e
       -0.95634574 -1.0529603 -1.3067349 0.2611516
000240 3b 0d 5f 3d f6 63 94 3d 12 37 59 bf 92 5f e2 be
       0.054455977 0.072456285 -0.84849656 -0.4421354
000250 89 11 0e bf d1 95 f1 3f 94 4b 15 3f 15 30 1f 3f
       -0.55495507 1.8873845 0.5831845 0.6218274
000260 86 73 f7 3e d2 b9 41 3f d6 b6 46 3f 2c 04 e8 3e
       0.48330325 0.75674164 0.77622736 0.45315683
000270 a3 f9 d3 be 5e 6b 00 bf f1 40 07 bf 21 a4 a2 3e
       -0.41401395 -0.5016383 -0.5283347 0.31765845
000280 9d 9c f2 bd c8 50 00 3e 8e da 43 3e 16 46 13 3e
       -0.11846278 0.12530816 0.19126341 0.14382204
000290 5d 2e 94 be ef 37 5b 3e b9 d0 93 3e d5 b6 2b 3e
       -0.28941622 0.21408056 0.2887018 0.16768964
0002a0 30 a9 cc bd f4 f0 92 bc 77 bd 3c bf 85 9d 86 bf
       -0.099932075 -0.017937161 -0.737266 -1.0516821
0002b0 49 3e 37 bf 36 51 c9 bd 96 e4 f4 3d 63 5f bd 3e
       -0.71579415 -0.09829943 0.11957662 0.36986837
0002c0 c0 99 99 be d7 e1 4e bf b0 e0 93 be c8 2a c5 3f
       -0.30000114 -0.80813354 -0.2888236 1.5403681
0002d0 d1 54 a9 bb 15 c5 cd 3d 13 bd 19 bd fa 65 2d be
       -0.0051675816 0.10047356 -0.03753383 -0.16933432
0002e0 f2 72 aa bd 0a aa bc 3d 86 c0 04 be 57 c3 14 be
       -0.08322705 0.0921212 -0.12964067 -0.14527641
0002f0 81 8b ec bd a1 d3 fa bc 50 ce 83 3e 3a eb 1b 3e
       -0.11550046 -0.03061849 0.2574334 0.1522645
000300 9d 39 24 bd cd 61 cc 3d 0f b7 3d be dd ce 90 be
       -0.040094007 0.099795915 -0.18526863 -0.28282824
000310 9f 37 2d be 7a 1e c1 3d 04 c0 08 3e 7f 9c 48 bc
       -0.16915749 0.09429641 0.13354498 -0.012244343
000320 fc 56 23 3e 4f 3f 96 3e 3f c8 5a bd 95 12 52 be
       0.1595115 0.29345176 -0.053413626 -0.20514901
000330 a4 8a 6a bc 71 3e 69 bd 01 ff 95 3d 91 aa 31 3e
       -0.014315281 -0.056944314 0.07324029 0.17350222
000340 25 0d b8 bc ad 87 6d be 3e a3 61 be dc b8 98 3d
       -0.022467205 -0.23196287 -0.22034928 0.07457134
000350 97 3a cc 3d c9 72 03 3e c8 94 a1 3e 39 1c cb bc
       0.099721126 0.12836756 0.31558824 -0.024793731
000360 7d 96 f5 bd 2f 25 cc bd 18 61 04 be 7d fa 32 be
       -0.11991594 -0.0996803 -0.12927663 -0.17478366
000370 bc 3b 82 3c 10 23 41 be 0b 2d 78 bd 4c 84 32 be
       0.015897624 -0.18861032 -0.06058983 -0.1743328
000380 b0 9e 7b 3e b3 d8 20 be b7 db f1 3d ad ce e5 bd
       0.24572253 -0.15707664 0.118094854 -0.11221061
000390 cd fa 93 be 05 8c 89 bd d1 e5 61 be 09 fd d9 3d
       -0.28902283 -0.0671616 -0.22060324 0.10643966
0003a0 a2 ec 03 3e e3 ad 69 3f 8c 7b 34 3f 70 3f 57 3f
       0.12883237 0.91280955 0.7050102 0.8408117
0003b0 78 1d 05 bf 31 bb 55 be 69 40 e9 be 1c 50 53 3c
       -0.5199809 -0.20872189 -0.45556954 0.0128975175
0003c0 c9 d4 a8 3f 29 4a 83 3f f3 89 a9 3f cf 65 ad bf
       1.3189937 1.0257007 1.3245224 -1.3546695
0003d0 36 60 89 bf 75 e7 95 bf 7a 68 5d 3f 63 70 d8 3e
       -1.0732486 -1.171126 0.86487544 0.42273244
0003e0 43 8c f5 3e 0f f5 27 3e 38 96 d6 3c 31 e7 c6 3d
       0.47958574 0.16402076 0.026194677 0.09712065
0003f0 f1 02 8a 3e a7 55 ed 3d ad fb eb bd 32 e5 56 be
       0.2695537 0.115886025 -0.11522613 -0.20985869

net.0.bias f4 [64]
000000 7e 7d 86 be 13 80 91 bd 0f 44 2f 3d 17 12 a1 be
       -0.26267618 -0.07104506 0.042789515 -0.31459114
000010 b9 fb 87 3d bc 7a b1 bd b6 bf 81 be 95 41 9b bd
       0.06639809 -0.08665988 -0.25341576 -0.07580868
000020 81 f6 38 be c1 41 9f bd db e2 91 bd 85 6e 94 bd
       -0.18062784 -0.077762134 -0.07123347 -0.072476424
000030 67 84 33 3d a7 e2 3a be 68 81 51 3d 02 f9 ce bc
       0.04382744 -0.18250524 0.051148802 -0.02526522
000040 4b dc 4b be f4 9d 5a 3d 78 03 56 be 13 c6 ba bd
       -0.19908254 0.053373292 -0.2089976 -0.09119811
000050 47 33 31 be 79 96 90 be 72 27 2d be 06 9b a8 bd
       -0.17304717 -0.28239802 -0.16909578 -0.082326934
000060 b2 16 54 3d ae a6 8a be 85 0c 56 be 01 e6 f8 3c
       0.051779456 -0.27080292 -0.20903213 0.030383112
000070 9e 71 09 be ad 6f a1 bd 61 05 4a bc e6 d6 6d be
       -0.13422248 -0.078826286 -0.012330384 -0.23226508
000080 b5 1c 22 bd 9d 35 a0 3c 5a 9e 65 3d 21 25 6f 3d
       -0.03957816 0.019556815 0.05605922 0.05838502
000090 1c e4 30 3c 94 dd 75 bd c0 b1 11 be d9 4c e6 bd
       0.010796573 -0.060025766 -0.14227962 -0.11245126
0000a0 ea bd 3f 3e 63 c7 18 be 63 52 7e bd 85 22 d0 bd
       0.1872479 -0.1491981 -0.06209029 -0.10162834
0000b0 ae 43 5c be d0 9c 62 be 77 3c fb 3c 61 67 91 be
       -0.21510193 -0.22130132 0.03066848 -0.28399184
0000c0 81 38 94 3d 51 41 75 3c 7a 06 a3 bd 8e cd 69 be
       0.0723734 0.014969186 -0.0796022 -0.22832319
0000d0 32 d9 c7 bd 27 4e d6 bc 11 a0 c8 bd 6a 99 6a be
       -0.097582236 -0.026160313 -0.09796155 -0.22910085
0000e0 8b bf 21 3d 03 d7 8d bd 39 56 b1 3b bd c3 e0 bd
       0.03948931 -0.06925776 0.00541189 -0.10974834
0000f0 45 44 8a be 8c b5 7c bd 6d a4 a0 be cf a2 8a be
       -0.2700521 -0.061696574 -0.31375447 -0.27077338

net.3.weight f4 [64, 64]
000000 5c 1d eb 3d 0a 8f cb 3d d0 13 32 3e da 51 bd bd
       0.11480209 0.09939392 0.1739037 -0.092441276
000010 27 3f 94 3e e0 2e ab bb d0 fa f9 3c 48 b8 8b 3c
       0.2895443 -0.005224094 0.030515105 0.017055646
000020 f0 cb 18 3d bd 23 45 be a0 dc 5c bc 48 43 e4 bd
       0.037303865 -0.19251914 -0.0134803355 -0.111456454
000030 b1 15 52 3f 70 12 a4 bc 58 15 44 3f 72 cc 05 bd
       0.8206435 -0.020028323 0.7659507 -0.032665677
000040 58 c9 8e 3d ae b3 d4 3e c8 77 86 3d 6c 95 28 3d
       0.06971997 0.41543335 0.06565815 0.041158125
000050 70 57 f1 3d 00 ef 22 3b 3c 32 d4 bd 3b 99 3e bf
       0.117842555 0.0024861693 -0.10361144 -0.7445256
000060 3d 60 85 3e 86 02 8f 3d 56 98 d7 bd c5 b3 19 3e
       0.26049986 0.06982903 -0.10527103 0.15009983
000070 04 74 50 bd 84 b1 00 bd bf 79 5b 3f b8 67 b9 bc
       -0.05089189 -0.031419292 0.85732645 -0.022632465
000080 3b f0 94 bc 1d d6 7c 3d 27 22 8a 3e 6c 01 c9 3e
       -0.018180957 0.06172763 0.2697918 0.39258897
000090 30 d5 94 3d 68 13 3f bd 12 21 83 bd b5 6c 57 be
       0.07267225 -0.046649367 -0.06402792 -0.21037562
0000a0 77 32 67 3e 44 0f af 3d 65 f4 32 3f b4 8e 4a 3d
       0.22577845 0.085478336 0.69904166 0.0494525
0000b0 b0 39 fb 3d b0 cd 24 3c c1 0e 5d 3e f8 29 47 3d
       0.122668624 0.010058805 0.2158766 0.04862401
0000c0 aa ac 9a 3e 23 a5 26 3e a6 6b 73 be 48 ca 43 3d
       0.30209857 0.16273932 -0.23771533 0.047800332
0000d0 b6 56 05 be 80 fd 33 bd c9 b1 cd 3e 78 7c fb 3d
       -0.13021359 -0.04394293 0.40174702 0.122796
0000e0 4d 47 1f 3f ee ef d6 bc 38 f3 c6 3d 09 0e 31 be
       0.6221817 -0.026237454 0.09714359 -0.1729051
0000f0 ec c8 76 3d a0 db 4b 3f bc 85 b2 3d 3a 58 91 3d
       0.060250208 0.79631996 0.08716914 0.07096906
000100 62 64 a2 3d 3a 3d 9a bd 94 54 ba bd 34 f1 60 3d
       0.07929303 -0.07531209 -0.09098163 0.05491753
000110 0e 3c 01 3e 34 ab dc bd 10 c6 22 bd 46 a4 c4 3d
       0.12620565 -0.10774842 -0.03973967 0.09601645
000120 62 7b 87 bd 79 28 37 3f cc 02 f3 3d 80 b4 83 3d
       -0.0661533 0.7154613 0.11865768 0.06430912
000130 4c cc f8 bd 00 fa 4a 3b 95 14 39 be 19 b5 c6 3e
       -0.121483415 0.0030971766 -0.18074258 0.38810042
000140 3c d1 9c bd d4 1e 53 3b 80 74 74 3d 06 65 89 bd
       -0.07657096 0.003221442 0.059681416 -0.06708722
000150 e0 46 fa bd cc 20 cc 3d ba bd aa 3d 0e 54 27 3d
       -0.122205496 0.09967193 0.08336969 0.040851645
000160 6c 0f 1e 3e 68 43 b0 bc 94 e5 3d bd a8 b4 4a 3e
       0.1543557 -0.021516517 -0.04636152 0.19795477
000170 c0 61 29 3b b6 ee 18 3f 38 b3 97 bf 00 77 60 bb
       0.0025845617 0.59739244 -1.1851568 -0.0034250617
000180 26 ef d4 3e 00 ba 40 3e a3 f1 30 bc a9 22 9e 3d
       0.41588706 0.18820953 -0.010799798 0.07721455
000190 1a ca 5f 3e 60 41 98 3c 2e d1 db 3d d6 80 a8 3e
       0.2185444 0.01858586 0.10733257 0.32910794
0001a0 3f 88 97 3d cc 96 1e 3d 83 10 a1 bf da f2 8d 3d
       0.07399034 0.03871803 -1.2583164 0.06931086
0001b0 c0 fb 5d bb 18 be 77 bd 1f f9 04 3e da a3 db bd
       -0.0033871979 -0.060484022 0.12985657 -0.107246116
0001c0 75 ac 07 3e 8b f4 69 3d 37 a2 d3 3e 18 0d a7 3d
       0.13249381 0.05711798 0.41334698 0.08156794
0001d0 9d c7 84 3e 25 9c de 3e 84 9e 44 bf c0 29 42 3b
       0.25933543 0.43478504 -0.76804376 0.0029626936
0001e0 73 7a 8e be d4 94 a0 3d b5 8f 3c 3e 19 31 da 3e
       -0.27827796 0.07840887 0.18414195 0.42615584
0001f0 c0 97 dd 3b f8 d9 b4 bf 88 c6 89 3d 80 59 e6 bc
       0.006762475 -1.4129019 0.0672732 -0.028118849
000200 ac af 3e bd 32 d9 f3 3d 1f fa ac 3c c0 c3 ba bd
       -0.046554253 0.11906661 0.02111536 -0.091193676
000210 fa dd 0a 3e 28 64 19 bd 00 b0 00 3a 18 fc a6 3c
       0.1356124 -0.037449032 0.00049090385 0.02038388
000220 3c 1e 45 bd 78 49 0d 3f 94 af 2d 3d 06 e6 ec bd
       -0.048124537 0.5519023 0.042403772 -0.11567311
000230 b9 1d 9a be 68 fd 27 3d 9b 49 2c be 31 18 94 3e
       -0.30100802 0.04101315 -0.16824953 0.28924707
000240 1c 9f c0 3d a6 41 5c be b0 af 87 3d 98 c5 f7 bd
       0.09405348 -0.21509418 0.066253066 -0.12098235
000250 e0 af b4 bb b2 39 f7 3d fa 97 cd 3d 53 41 0c be
       -0.00551413 0.120715514 0.10038753 -0.13696794
000260 e9 94 3e 3e c0 23 22 bd f0 ae e9 3d 82 3c 46 3e
       0.18611492 -0.039584875 0.1141032 0.1935902
000270 26 27 bf bd a8 65 14 3f b0 a2 3c bf e0 cf ce 3b
       -0.09333639 0.57967615 -0.7368574 0.0063114017
000280 86 d2 60 3e 12 9e 48 3e b5 5b 77 be f0 60 49 be
       0.21955308 0.19591549 -0.24156077 -0.19665885
000290 6d 42 4c 3d c0 4d 69 3b 18 d1 c3 3d e5 07 96 3e
       0.049868036 0.003559932 0.09561366 0.29302898
0002a0 c0 e4 bf 3d d4 83 82 bd eb 86 f7 be 40 34 b3 3b
       0.093698025 -0.063728005 -0.48345122 0.005468875
0002b0 e0 d5 d8 bc b0 68 ab bc 2a 0c 76 3e b8 60 ec bc
       -0.026469171 -0.020923942 0.24028078 -0.028854713
0002c0 8e a7 1b 3e ec 86 80 3e a9 67 79 3e 4c 18 77 bd
       0.15200636 0.25102937 0.2435595 -0.060325906
0002d0 e3 0b 65 3e 77 ad db 3e 00 be 93 be cc 43 f6 bd
       0.22367816 0.4290578 -0.28855896 -0.1202465
0002e0 99 5c 9a be 51 dd d2 bd 5d a9 b6 3d 73 23 4d 3e
       -0.3014877 -0.10296119 0.08919022 0.20033054
0002f0 20 ae 0e 3d 57 06 46 bf 82 64 ca 3d 24 a3 82 bd
       0.034834027 -0.77353424 0.098824516 -0.06378773
000300 b0 bc 59 bc 70 c7 df bc b1 98 6b bd a8 e5 ca 3d
       -0.0132896155 -0.027316779 -0.057518665 0.09907085
000310 55 2e 59 3e 60 c1 a1 bb c0 72 8c bd f8 db b4 bd
       0.2120908 -0.004936382 -0.06857824 -0.08831018
000320 00 91 77 3d 9b 3a ba bc 46 62 af 3d 68 7c c1 bc
       0.060441017 -0.022733023 0.08563666 -0.023618892
000330 1b 50 b0 3d 08 16 db bc a9 7d 0b 3e c8 c5 3e be
       0.08609029 -0.026743904 0.13622154 -0.18630135
000340 e8 2a 3a 3d 7c 75 70 be e0 1b b9 3d ae 32 f3 bd
       0.045451075 -0.23482317 0.0903852 -0.11874901
000350 3c b5 2c bd 00 fa b9 bb e4 40 86 3d b5 7d 20 bf
       -0.042165026 -0.0056755543 0.06555346 -0.62691814
000360 a8 5e 7b 3e ce b1 eb bd c8 54 a9 3c d5 03 49 3e
       0.24547827 -0.11508523 0.02067031 0.19630368
000370 2e d2 bc bd 3c dd 5c 3d 55 c7 d2 3d 6c 89 33 bd
       -0.09219776 0.053921923 0.10291926 -0.043832228
000380 7b ba b6 bd a4 69 cb bd 95 43 a1 bd ae f9 85 be
       -0.08922287 -0.09932259 -0.078742184 -0.26167053
000390 d4 80 88 3a 48 36 89 3c f2 6d c0 3d de d0 8f be
       0.001041437 0.016749516 0.093959704 -0.2808904
0003a0 ae 93 7d 3e 00 e5 dc bc cb 7d 50 3f 74 3f 1a bd
       0.24763367 -0.026964664 0.81441945 -0.03765817
0003b0 90 ba 79 bc 08 e4 9e bd e5 f0 a6 3e 34 1e 95 3d
       -0.015242234 -0.07758337 0.32605663 0.072811514
0003c0 84 db 96 3e 8a 75 43 3d 9d fa 87 be 6c bc a4 3d
       0.29464352 0.047719516 -0.2655839 0.08043751
0003d0 3b f7 5f be 28 04 eb bd 82 ac 35 3f 7a 8e bd bd
       -0.21871655 -0.11475402 0.7096635 -0.09255691
0003e0 2b c3 c1 bb d5 48 c2 3d fc 96 62 bc a7 a5 83 be
       -0.0059131584 0.09486548 -0.013829943 -0.2571232
0003f0 a2 ab a4 3d 29 89 39 3f 3a e0 e3 bd fc 74 40 3d
       0.08040549 0.72474915 -0.11126752 0.046986565

net.3.bias f4 [64]
000000 4c 15 da 3d 2e a1 6f 3d 9d f4 d6 3d 6f 73 a7 3e
       0.10648593 0.058503322 0.10495875 0.32705256
000010 ca d7 28 3d 2d 0d bb 3c 7d f7 6d 3e 84 d1 9e 3e
       0.041221417 0.022833431 0.2323894 0.31019223
000020 b8 73 86 3e ad fd 80 3e 13 7a b2 bc c0 d8 0d 3e
       0.2626016 0.2519354 -0.021786725 0.13852215
000030 25 45 10 3e cd 3f 3f 3d 14 75 d0 3d 5d 42 6d 3d
       0.14088877 0.046691705 0.10178581 0.057924617
000040 b7 a0 22 3e 36 09 53 3e b4 62 8a 3e f8 e3 ce 3d
       0.1588162 0.20608982 0.2702843 0.10102075
000050 29 5c cc 3d b4 b5 93 3e 02 84 2c 3e 4a d6 03 3e
       0.09978516 0.28849566 0.16847232 0.12874714
000060 35 28 68 3d 6e 41 7c 3d 0b b0 84 3e f1 9e b1 3e
       0.05667897 0.061585836 0.2591556 0.34691575
000070 de 50 91 3e a0 4c 0a 3e bd 1f 5f 3e 15 45 88 3e
       0.2838201 0.13505793 0.21789451 0.26615205
000080 28 12 fa 3d 48 2e 08 3d 77 2c 81 3d 1b f9 40 3e
       0.12210494 0.033247262 0.06307309 0.18845026
000090 4f a7 77 3e eb 1c 08 3e fe ee 55 3e 92 62 89 3d
       0.24184917 0.13292281 0.2089195 0.06708254
0000a0 34 b8 6d 3e 30 27 2a 3e f7 a6 14 3e fa 50 ba 3d
       0.23214799 0.16616511 0.14516817 0.09097476
0000b0 4e be 7a 3e 39 b4 f1 3d 6d f2 5d 3e 47 b9 52 3e
       0.24486658 0.11801953 0.2167451 0.2057849
0000c0 3c 9a ad 3e 83 9a af 3d 1c 91 84 3e 1a df 59 3c
       0.33906734 0.08574393 0.2589196 0.01329782
0000d0 e4 66 a2 3e 48 17 76 3e 95 d7 3c 3d 72 84 bb 3e
       0.31719124 0.24032319 0.046104033 0.36624485
0000e0 70 a7 91 3e d0 8e 32 3c 74 25 b3 3d 87 26 b0 3d
       0.28448057 0.010898307 0.08747378 0.086010985
0000f0 25 4b 12 3e d3 1e b9 3d 5a 9f 00 3e a1 40 89 3e
       0.14286478 0.090390824 0.12560788 0.2680712
