2_Party/shadow_model_data/shadow_minus_F_client2_bottom.pt (torch, 22592 bytes, 4 tensors)

net.0.weight f4 [64, 13]
0	0x3e614296	0.21998057
1	0x3e4cda49	0.20005144
2	0x3e8a398c	0.2699703
3	0x3ecbdd5e	0.39817327
4	0x3e188454	0.14894229
5	0xbdf54957	-0.11976879
6	0xbe67a2e0	-0.22620726
7	0xbe995447	-0.2994711
8	0xbef39bc2	-0.4757977
9	0x3f7744a7	0.9658913
10	0x3f5b2a07	0.85611004
11	0x3dea16e2	0.11430146
12	0xbdc75302	-0.09732629
13	0x3ca352c7	0.019936932
14	0xbe5d73db	-0.21626227
15	0xbe653a1b	-0.22385447
16	0xbba66563	-0.005078004
17	0xbc0559dc	-0.0081391
18	0x3e7f4fc5	0.24932773
19	0x3f48da7a	0.7845837
20	0x3fa7cdd1	1.3109685
21	0x3dc60360	0.096686125
22	0x3e8fffa3	0.28124723
23	0x3ed81778	0.42205405
24	0xbd88d35e	-0.0668094
25	0x3c35494e	0.0110648405
26	0xbe89d92f	-0.2692351
27	0xb80949c4	-3.2732045e-05
28	0xbdbdf7fb	-0.09275814
29	0x3e2de7ab	0.16982906
30	0xbd18236f	-0.037143167
31	0xbd1c1d6c	-0.038113996
32	0xbf91c728	-1.1388903
33	0xbf9030b0	-1.1264858
34	0x3e1571e6	0.1459423
35	0xbf637d15	-0.88862735
36	0xbf208987	-0.6270985
37	0x3e89e7b9	0.26934603
38	0x3e2b6b0a	0.16740051
39	0xbe26d578	-0.1629237
40	0x3dfc53ca	0.12320669
41	0xbe92b327	-0.28652307
42	0xbe8bc310	-0.27297258
43	0x3d13e98e	0.036111407
44	0xbc0ed390	-0.008717433
45	0x3eb8e1e3	0.36109838
46	0x3ef817fb	0.48455796
47	0x3e7875f0	0.2426374
48	0xbf0366ae	-0.5132855
49	0xbf909eeb	-1.1298498
50	0xbdffc83e	-0.12489365
51	0xbb4c23a7	-0.003114918
52	0xbe9333c7	-0.2875044
53	0x3e263e39	0.16234674
54	0xbb33bd10	-0.0027425922
55	0xbdfa47ef	-0.122207515
56	0x3e90ef0e	0.28307384
57	0x3dc9bf4b	0.09850939
58	0x3e14a78d	0.1451704
59	0xbc767ab5	-0.015043904
60	0x3ddc487b	0.10756012
61	0xbf1b64b4	-0.60700536
62	0xbf3f49df	-0.74722093
63	0x3c2fb131	0.010723398
64	0xbd0f2988	-0.034951717
65	0x3bb202f2	0.00543248
66	0xbe1b9612	-0.15193966
67	0xbd4ce53d	-0.050023306
68	0xbeabc328	-0.3354733
69	0x3d2ab219	0.041673753
70	0x3e2b8fdf	0.16754101
71	0x3f4cbbd5	0.7997411
72	0x3f22a23c	0.635288
73	0xbc4fbed4	-0.012679774
74	0xbee54e43	-0.4478627
75	0xbec650ae	-0.3873343
76	0x3addef5c	0.0016932297
77	0x3d263310	0.04057604
78	0xbe44b04b	-0.19207875
79	0x3e14961a	0.14510384
80	0x3e38ffff	0.18066405
81	0xbe848f16	-0.25890416
82	0xbe48a744	-0.19595057
83	0x3e824491	0.25442937
84	0x3fcea871	1.6145154
85	0x3fd9fb00	1.7029724
86	0xbf3e6c3f	-0.7438392
87	0x3f10c9f8	0.5655818
88	0x3f6005c0	0.87508774
89	0xbf015a56	-0.50528467
90	0xbe040c6b	-0.12895362
91	0xbebe1a0d	-0.3712925
92	0x3ac3f70a	0.0014950943
93	0xbdd3e529	-0.10346443
94	0x3e260760	0.16213751
95	0x3e3c65a0	0.18398142
96	0xbe3aa8a7	-0.18228398
97	0x3f4b6e15	0.79464847
98	0x3f8dc85f	1.1076773
99	0xbeee7ccb	-0.46579584
100	0xbef584c0	-0.47952843
101	0xbf0d5e3d	-0.5522192
102	0x3e8cfdf4	0.275375
103	0xbe322b71	-0.17399384
104	0xbd8b62c9	-0.06805951
105	0x3ea28ac0	0.31746483
106	0xbd906d91	-0.07052148
107	0xbd93f0f9	-0.07223696
108	0xbe90fda9	-0.28318527
109	0xbd632aa1	-0.055460576
110	0xbf19fc25	-0.6015037
111	0xbed178bb	-0.40912423
112	0x3df39364	0.11893347
113	0x3f13e82b	0.57776135
114	0x3f01140f	0.5042123
115	0x3e2e64d9	0.17030658
116	0xbde93030	-0.11386144
117	0xbdf08056	-0.11743228
118	0xbebf4c73	-0.37363014
119	0xbe353c72	-0.1769884
120	0xbe20eb78	-0.15714824
121	0x3e4c4306	0.19947442
122	0xbd87bf23	-0.06628253
123	0x3ea4c3d6	0.3218066
124	0x3e8e3cee	0.2778086
125	0x3d84c583	0.06482985
126	0xbdc7b85e	-0.09751962
127	0xbeb2af8b	-0.34899554
128	0x3e8d0848	0.2754538
129	0x3deee4cb	0.116647325
130	0x3eb83ea4	0.3598529
131	0x3e29f672	0.16597918
132	0x3d8c8344	0.068609744
133	0xbe6bc029	-0.23022522
134	0xbd946ea2	-0.07247664
135	0xbe75eb54	-0.24015552
136	0xbe5b928b	-0.2144262
137	0xbeb3228b	-0.34987292
138	0xbea5008d	-0.32226983
139	0x3f15872d	0.58409387
140	0x3f00ba8c	0.5028465
141	0xbe93d659	-0.28874472
142	0x3e0d2fce	0.13787767
143	0xbd4cc2f2	-0.0499906
144	0xbdf42732	-0.119215384
145	0x3deb3606	0.114849135
146	0xbd86324a	-0.065525606
147	0x3d8f79df	0.07005667
148	0xbda33dcd	-0.07970772
149	0xbf632bd9	-0.8873878
150	0xbf511224	-0.81668305
151	0x3ea120bd	0.3147029
152	0x3e5cb5c0	0.21553707
153	0x3d515d14	0.051114157
154	0xbe1b303d	-0.1515512
155	0xbc2e4252	-0.010635929
156	0xbe2e882a	-0.1704413
157	0xbe31991f	-0.17343567
158	0x3e76362d	0.24044104
159	0xbe171647	-0.14754592
160	0x3e3ce833	0.18447952
161	0xbe3da694	-0.18520576
162	0xbde2301c	-0.110443324
163	0xbe11aae4	-0.14225346
164	0xbdb92b2e	-0.09041439
165	0xbe8b2b30	-0.27181387
166	0xbf07753a	-0.5291325
167	0x3dc6489a	0.096818164
168	0x3dde0477	0.10840695
169	0xbe3fa44f	-0.18715023
170	0xbe78d845	-0.2430125
171	0xbe993c7c	-0.29928958
172	0x3e63ec32	0.2225807
173	0x3e91c307	0.28469107
174	0xbcc3d12b	-0.02390345
175	0x3fa4c1dc	1.2871661
176	0x3fb197b0	1.3874416
177	0xbe3fa7ff	-0.18716429
178	0x3e7e2205	0.24817665
179	0x3dac2b95	0.0840675
180	0xbda188cd	-0.07887421
181	0xba569cd8	-0.00081868237
182	0xbe9b4f61	-0.30334
183	0x3c4d8081	0.012542845
184	0x3e79a724	0.24380165
185	0xbd20f5c3	-0.039296877
186	0xbe44bcea	-0.1921269
187	0x3de76552	0.11298622
188	0xbf5eb51b	-0.86995095
189	0xbf0ade06	-0.5424503
190	0x3e971018	0.29504466
191	0xbf670342	-0.90239346
192	0xbf12b4c6	-0.5730709
193	0xbe0fe707	-0.14052974
194	0xbdc67c91	-0.09691728
195	0x3e5b7bb9	0.21433915
196	0x3b86a360	0.0041088313
197	0x3eae80c1	0.34082606
198	0x3d9c2631	0.07624472
199	0x3e15c1f4	0.14624768
200	0x3e94cb9b	0.2906159
201	0x3f4c89de	0.7989787
202	0x3f45062f	0.7696256
203	0xbe8c59b5	-0.2741219
204	0x3f1893b7	0.59600395
205	0x3f1680bd	0.5879019
206	0xbd94cc80	-0.07265568
207	0xbd2a4fa3	-0.041579854
208	0x3e95a5a0	0.29227924
209	0x3e629738	0.22127998
210	0x3e6bf187	0.23041354
211	0xbd512af5	-0.051066358
212	0x3e5405e8	0.20705378
213	0x3e037660	0.12838125
214	0xbefb881d	-0.49127284
215	0xbdebc0eb	-0.115114056
216	0xbca5c824	-0.020237036
217	0x3f04fc74	0.5194771
218	0x3f6f791c	0.93544173
219	0x3d3f3a84	0.046686664
220	0x3db63034	0.08895913
221	0xbec2b9f6	-0.38032502
222	0xbdbe934d	-0.09305439
223	0x3e22c2a0	0.15894556
224	0xbe169852	-0.14706543
225	0xbe560c58	-0.20903146
226	0xbd8fd4a0	-0.07022977
227	0xbecb4293	-0.3969923
228	0xbef072e3	-0.46962652
229	0x3e8d43f1	0.27590898
230	0xbf6a2f20	-0.9147816
231	0xbf7e8bbd	-0.99431974
232	0xbb883dc8	-0.0041577555
233	0x3dca9b9b	0.09892961
234	0x3e518824	0.2046209
235	0x3d90eba1	0.07076193
236	0x3dd978bc	0.106187314
237	0x3ead99fa	0.33906537
238	0xbd73579b	-0.05940972
239	0xbe0f22b6	-0.13978085
240	0xbf9bf3bc	-1.2183757
241	0xbfb35ea0	-1.4013252
242	0x3f1b9145	0.6076854
243	0x3d1da417	0.038486566
244	0x3e08c1aa	0.13355127
245	0x3e6ffdfd	0.23436733
246	0xbd3ee11a	-0.046601392
247	0xbdd81e2b	-0.10552629
248	0x3d57b8a3	0.052666318
249	0x3d3c1d46	0.045926355
250	0x3e090350	0.1338017
251	0x3da8be93	0.08239474
252	0xbe365efa	-0.17809668
253	0xbfa8a4f9	-1.3175346
254	0xbf9759d3	-1.1824287
255	0x3f4ce4a3	0.8003637

net.0.bias f4 [64]
0	0xbe66f487	-0.22554217
1	0xbc76fce6	-0.015074944
2	0xbd2d99af	-0.042382892
3	0x3ed66c5e	0.41879553
4	0x3eb5269c	0.3538102
5	0x3e3fa40e	0.18714926
6	0xbe72a70a	-0.23696533
7	0xbe0ad319	-0.1355709
8	0xbe202d89	-0.1564237
9	0xbe505b95	-0.20347436
10	0xbebdd17c	-0.37073886
11	0xbe58fa09	-0.21189131
12	0xbe2703ed	-0.16310091
13	0xbe360776	-0.17776284
14	0x3e6396be	0.22225472
15	0xbcad019e	-0.021118935
16	0xbea46529	-0.3210843
17	0x3e89ef77	0.2694051
18	0xbdcc1005	-0.09963993
19	0x3dffe83c	0.12495467
20	0xbe8e2202	-0.2776032
21	0x3cda3b77	0.026639683
22	0x3dd8d57f	0.10587596
23	0xbca5f598	-0.02025871
24	0xbe61639f	-0.22010659
25	0xbdd2f251	-0.103001244
26	0xbee45ce7	-0.4460213
27	0x3ed7e82a	0.42169315
28	0x3e3db4c8	0.18525994
29	0x3e677f45	0.22607143
30	0xbcdda7e9	-0.027057605
31	0xbe023af4	-0.12717801
32	0x3e479a4e	0.19492456
33	0xbea903f6	-0.33010834
34	0xbdef06d5	-0.11671225
35	0xbe909cc6	-0.2824461
36	0xbeb179d4	-0.3466326
37	0x3e50f8b2	0.2040737
38	0x3d7f9186	0.06239464
39	0xbd8f108b	-0.06985577
40	0xbe07aff9	-0.13250722
41	0xbda35440	-0.07975054
42	0x3e19fafd	0.1503715
43	0xbeb91e12	-0.36155754
44	0xbe4078fc	-0.18796152
45	0xbe5d8077	-0.21631037
46	0xbea8ee38	-0.32994246
47	0x3e817cb7	0.25290462
48	0x3e9fccdc	0.31210983
49	0xbdae5e1c	-0.08514044
50	0xbde3a040	-0.1111455
51	0x3e91e30c	0.28493536
52	0x3e1b36c9	0.15157618
53	0xbebbc157	-0.36670944
54	0x3d181c26	0.03713622
55	0x3eb6e767	0.3572342
56	0x3e2a00c8	0.1660186
57	0xbcbbcbde	-0.02292436
58	0xbe0cde12	-0.13756588
59	0xbeae740d	-0.34072915
60	0x3d2af851	0.04174072
61	0x3d98cc37	0.07460826
62	0x3e23de4a	0.16002765
63	0x3df57810	0.11985791

net.1.weight f4 [64, 64]
0	0xbd83fc71	-0.06444634
1	0x3ca464f7	0.020067675
2	0xbdc016bd	-0.09379337
3	0x3e88c4b9	0.26712587
4	0x3c9ae9e3	0.018910354
5	0x3b47a123	0.0030461035
6	0xbe15b69c	-0.14620441
7	0x3dd5b927	0.10435706
8	0x3d2fec80	0.042950153
9	0x3e0cb483	0.13740735
10	0x3d1d05f2	0.038335748
11	0x3d4597ef	0.0482406
12	0x3c7bb247	0.015362329
13	0xbdd4fa4f	-0.10399305
14	0xbc074ad8	-0.00825759
15	0xbd58dddd	-0.05294596
16	0xbe24db51	-0.16099288
17	0x3de955cf	0.1139332
18	0xbc3094fb	-0.010777707
19	0x3df32bf1	0.118736155
20	0x3db45be1	0.08806587
21	0xb9def44b	-0.00042525152
22	0xbdef4e72	-0.11684884
23	0x3d7bc5d4	0.06146796
24	0x3d61e4cf	0.05514985
25	0x3da0a221	0.07843424
26	0xbdb4e8ff	-0.08833503
27	0x3ddbb4cf	0.10727846
28	0x3e2b15e7	0.16707574
29	0xbdcc8510	-0.09986317
30	0x3c257a4a	0.010099957
31	0xbb04123c	-0.002015247
32	0x3b94f459	0.00454573
33	0x3d07e32b	0.03317563
34	0xbe0dd823	-0.13851981
35	0x3c6152fb	0.013752694
36	0xbdf9fb5c	-0.12206146
37	0xbd90957d	-0.070597626
38	0xbc69e700	-0.014276266
39	0x3c5e5bef	0.013571723
40	0x3c1072f1	0.008816467
41	0x3dcad362	0.09903599
42	0xbc740775	-0.014894356
43	0xbe1da54b	-0.15395086
44	0xbe1fdf19	-0.15612449
45	0xbdbf6f5a	-0.093474105
46	0xbd2f7174	-0.042832807
47	0x3c9c0f01	0.019050123
48	0x3dc28614	0.094982296
49	0xbc3cb1b6	-0.011516979
50	0xbdeeb2a7	-0.11655169
51	0x3d1da460	0.03848684
52	0x3c28afc5	0.010295813
53	0xbc873fc2	-0.016509894
54	0xbc0ddf02	-0.008659126
55	0x3d9c0f2c	0.07620081
56	0x3e2a6aa4	0.16642243
57	0xbd6bbd6e	-0.0575537
58	0xbd540872	-0.051765867
59	0xbe0c8f77	-0.13726602
60	0x3d1ffb56	0.039058052
61	0x3ca2a799	0.019855307
62	0xbd226e2a	-0.039655842
63	0xbc7e6330	-0.015526578
64	0xbd9e89c8	-0.077411234
65	0x3cf7b1dd	0.030236179
66	0xbd9a4139	-0.075319715
67	0x3e963e15	0.2934424
68	0x3dfd202b	0.12359651
69	0x3df6a470	0.12043083
70	0xbd419d3d	-0.047269095
71	0xbdebfc05	-0.11522678
72	0xbdcefae5	-0.10106448
73	0xbd0a7f69	-0.033812914
74	0xbd6983fc	-0.057010636
75	0xbca2399d	-0.019802863
76	0xbdcaef0a	-0.09908874
77	0xbd19f43a	-0.03758643
78	0x3bf0cdea	0.0073487656
79	0xbd8a3a92	-0.06749453
80	0xbd6d6811	-0.057960574
81	0xbcbee171	-0.023300858
82	0xbb8cb4d6	-0.0042940183
83	0x3db73fae	0.08947693
84	0x3d90e161	0.070742376
85	0xbd827a80	-0.06371021
86	0xbde05283	-0.10953238
87	0xbce9b585	-0.028528938
88	0xbd339df0	-0.043851793
89	0x3d78ea87	0.060770538
90	0xbe247412	-0.16059902
91	0xbbd4c437	-0.006493117
92	0x3dd66146	0.10467772
93	0x3d89b1c3	0.067233585
94	0xbdd16429	-0.10224182
95	0x3c422549	0.01184971
96	0xbe011f3e	-0.12609574
97	0x3c1584ff	0.009125947
98	0x3ca859c1	0.02055061
99	0xbdf49a2d	-0.11943469
100	0xbdd23e9a	-0.102658466
101	0xbd82f341	-0.06394053
102	0xbb8d9739	-0.0043210057
103	0x3de3d9ef	0.11125552
104	0xbdab84e8	-0.08374959
105	0x3d506fd9	0.050887916
106	0x3da08b66	0.07839088
107	0xbdc317e2	-0.0952604
108	0x3ca442ea	0.020051438
109	0x3d3fc155	0.046815235
110	0x3d4d4a28	0.05011955
111	0x3d418faf	0.047256168
112	0x3da93a9a	0.082631305
113	0x3c330eed	0.010928852
114	0xbcaa253b	-0.020769706
115	0xbd88387f	-0.06651401
116	0x3cf4e9c2	0.02989662
117	0xbdf8a209	-0.12140281
118	0xbdd751b8	-0.105136335
119	0x3c56624e	0.013084961
120	0xbd36fe30	-0.044676006
121	0x3dd8380f	0.10557567
122	0xbda67e66	-0.08129577
123	0x3d9e5ab7	0.07732146
124	0xbd9ef1a0	-0.0776093
125	0xbde7fe9c	-0.1132786
126	0xbd9a2dca	-0.07528265
127	0x3d4b056c	0.049565718
128	0xbcca28b1	-0.024677606
129	0xbd67adb3	-0.056562137
130	0x3daf57f5	0.08561698
131	0x3d18feee	0.037352495
132	0xbdb486ca	-0.088147715
133	0xbd375ff1	-0.04476923
134	0x3d3bba4d	0.045831967
135	0xbd2b93aa	-0.04188887
136	0xbd76ec4d	-0.060283948
137	0xbdef9c44	-0.11699727
138	0xbdb17c9d	-0.08666346
139	0xbd46cb79	-0.04853389
140	0x3d81b684	0.0633364
141	0xbcfe653a	-0.031054128
142	0x3d32bd30	0.043637455
143	0xbd859300	-0.06522179
144	0x3d8c1fef	0.06842028
145	0xbcaa9a5c	-0.020825557
146	0x3e1fdb6f	0.15611051
147	0xbc9d324e	-0.019189026
148	0x3de1cf4d	0.110258676
149	0x3b99cf7b	0.004693923
150	0xbe077007	-0.13226329
151	0x3de28c76	0.11061947
152	0xbd9996e7	-0.074994855
153	0xbd983bb3	-0.07433262
154	0x3d43ff04	0.047850624
155	0xbd9f626b	-0.077824436
156	0xbcbae549	-0.02281441
157	0xbcfea7a2	-0.031085793
158	0xbda27b16	-0.07933633
159	0xbca77f05	-0.02044631
160	0xbe6b62d3	-0.22986917
161	0xbd05b33b	-0.03264163
162	0xbdf3f61c	-0.11912176
163	0xbd19aff5	-0.03752132
164	0xbda5faf3	-0.081045054
165	0x3e013b02	0.12620166
166	0x3d856586	0.06513505
167	0x3d55956c	0.052144453
168	0xbdc9c1a3	-0.098513864
169	0x3d2c673c	0.04209064
170	0xbd08d88d	-0.033409644
171	0xbd257fc0	-0.040405035
172	0x3d901833	0.07035866
173	0xbd6e123e	-0.058122866
174	0xbd9c5c23	-0.07634761
175	0xbd9716aa	-0.0737737
176	0x3c0ca50e	0.008584274
177	0x3d35f256	0.044420563
178	0xbd5fd7ce	-0.054649167
179	0xbe0d98dd	-0.13827844
180	0xbdad8c78	-0.08474058
181	0x3d07e8e8	0.0331811
182	0x3db80004	0.08984378
183	0xbd56ba6d	-0.052423883
184	0xbde31366	-0.11087684
185	0xbc0ba600	-0.008523464
186	0x3afa65a0	0.0019103773
187	0xbd29ef69	-0.041488085
188	0x3dde6f31	0.10861052
189	0x3e024ffd	0.12725826
190	0xbdc2a41e	-0.09503959
191	0x3d445e43	0.047941457
192	0xbd11dce0	-0.035611033
193	0xbb3114c2	-0.002702043
194	0xbd41203f	-0.047149893
195	0xbcb7e2de	-0.022447046
196	0x3da06d7b	0.07833382
197	0xbd8ff05c	-0.07028267
198	0xbca2c081	-0.019867184
199	0xbdac3cb0	-0.08410013
200	0x3d3695b7	0.044576373
201	0xbdbe7723	-0.09300067
202	0xbd41df4c	-0.047332093
203	0xbd5943ac	-0.053043053
204	0x3cf50b1d	0.029912526
205	0xbafbeceb	-0.0019220387
206	0x3c86e9f3	0.016468978
207	0xbe187300	-0.14887619
208	0x3da1d7d1	0.07902492
209	0xbd9a0287	-0.07520013
210	0x3d39588f	0.04525047
211	0xbe244410	-0.16041589
212	0xbbdd9848	-0.006762538
213	0xbe0e1974	-0.13876897
214	0x3db15ff7	0.08660882
215	0xbb647c6e	-0.0034864205
216	0x3d760384	0.060061947
217	0x3b27ff5c	0.0025634384
218	0x3dc22242	0.094791904
219	0xbd39a68e	-0.045324855
220	0xbe029831	-0.12753369
221	0xbcaf9699	-0.021434115
222	0x3c58a7cb	0.013223599
223	0xbd4fce73	-0.050733995
224	0x3e29d092	0.1658347
225	0x3c884b2b	0.016637405
226	0xbdc35ab2	-0.09538783
227	0xbd447c79	-0.04797027
228	0x3cde7cd1	0.027159126
229	0xbd143bb3	-0.036189746
230	0xbcd7eb6b	-0.026357373
231	0x3d7c1016	0.06153878
232	0x3bdae6b5	0.0066803345
233	0xbdc8fe7e	-0.098141655
234	0xbd779ba8	-0.06045118
235	0xbd9e01c7	-0.07715183
236	0x3cd17c59	0.025571989
237	0xbc83522e	-0.016030397
238	0xbc6d1791	-0.014470951
239	0xbd2fc20d	-0.04290967
240	0x3c8be85d	0.017078573
241	0xbd876449	-0.06610925
242	0x3d0afd1b	0.033932786
243	0xbd96bea9	-0.07360584
244	0xbddb2207	-0.106998496
245	0x3e0dd5ed	0.13851137
246	0xbd1728fe	-0.036904328
247	0x3dad8185	0.084719695
248	0x3d84b16e	0.064791545
249	0xbc0b2b06	-0.008494144
250	0x3d663b3e	0.05620884
251	0x3d89a923	0.067217134
252	0x3db3e6a1	0.08784223
253	0x3d87dcb6	0.06633894
254	0x3d2b4ee3	0.04182328
255	0xbda5c60c	-0.08094415

net.1.bias f4 [64]
0	0x3e7d1460	0.24714804
1	0x3e43412c	0.1906783
2	0xbd63b9d9	-0.05559716
3	0xbc7ccc45	-0.015429561
4	0xbe1e0ff4	-0.15435773
5	0x3e5eb766	0.21749648
6	0xbe305b7c	-0.17222399
7	0x3e6982f2	0.22803858
8	0xbcf6887c	-0.030094378
9	0x3e47f1d7	0.19525848
10	0x3e29b091	0.16571261
11	0x3cc3c47b	0.0238974
12	0xbc55744c	-0.013028216
13	0x3e04d426	0.12971553
14	0xbe26260e	-0.16225454
15	0x3d587a25	0.05285086
16	0x3d8b28bb	0.06794878
17	0xbdcf3f8d	-0.10119543
18	0x3db08e82	0.08620931
19	0xbd1cf796	-0.038322054
20	0x3e47ce1e	0.19512221
21	0x3b09f971	0.002105322
22	0x3c61c14b	0.013778995
23	0xbe53650f	-0.2064402
24	0x3dddd592	0.10831751
25	0xbe168490	-0.14699006
26	0xbe4362b1	-0.19080617
27	0xbc7964cd	-0.015221787
28	0x3e57c82e	0.21072456
29	0xbd4ce8e2	-0.05002678
30	0xbd9cff8f	-0.076659314
31	0x3d8c187a	0.06840606
32	0xbc77e208	-0.015129574
33	0xbc9d8b68	-0.019231513
34	0x3e123b35	0.14280398
35	0x3e6907fe	0.22756955
36	0xbdc0bf88	-0.09411532
37	0x3e5823a6	0.21107349
38	0xbe5c2b7e	-0.21500966
39	0xbddd4add	-0.10805295
40	0xbe25c89d	-0.16189809
41	0xbc8a529f	-0.0168851
42	0xbd3b9d79	-0.045804475
43	0xbc16b9bf	-0.009199559
44	0x3e61115f	0.21979283
45	0xbcc144df	-0.02359241
46	0xbca1a045	-0.019729743
47	0x3db565d6	0.08857314
48	0xbd8fb8e7	-0.07017689
49	0xbe7183da	-0.23585454
50	0xbd8c7d3b	-0.06859823
51	0xbc79ccf7	-0.015246621
52	0xbd25b46e	-0.040455274
53	0x3df91552	0.1216227
54	0x3da3323f	0.07968568
55	0x3cdd9ac0	0.02705133
56	0xbdaabf4e	-0.0833727
57	0xbe39946a	-0.18123022
58	0x3de2099c	0.11036989
59	0x3dc373cd	0.095435716
60	0xbd8e5d98	-0.06951445
61	0x3d856300	0.065130234
62	0xbdb4de41	-0.08831454
63	0x3d8a0fd5	0.06741301
