2_Party/shadow_model_data/shadow_minus_F_client1_bottom_inter.pt (torch, 21936 bytes, 4 tensors)

net.0.weight f4 [64, 10]
00000000: 352e 073f 0026 243e de28 96bc 2d8a c43e
00000010: a2d0 043e fb0d a4bc abab 5dbd c933 20be
00000020: df9f 1d3e 8d6d 7a3e f37e 883e b651 92bd
00000030: d6bb d7bc 3fa3 333e 24cc 10bd b302 1e3e
00000040: 29a8 22bd 500d 9ebe 0855 42be 9297 a1bc
00000050: 032f 37bf b01c 13bf 9ed2 0c3f b1fd d0bc
00000060: 7b49 1b3e aa91 38bb e7b8 af3d 7329 923e
00000070: a292 75bd 0de2 bd3e a200 5fc0 1683 71c0
00000080: 7837 923f 1568 523e a0f4 58be bc19 8a3d
00000090: 0187 c7bc 689d db3d 787e 4e3b 3d32 36be
000000a0: 167c 22bd bde8 933e 2d05 643e f640 023e
000000b0: cb85 803e 5268 623e 2df3 7c3e 7f40 3f3e
000000c0: cf3f 9c3d ebdb dbbd e93c 1dbd 52ff 54be
000000d0: 714b 963e 0fed 5c3d cd9d 903e 09c0 913e
000000e0: d1be 50bd 1c3c 173e af42 69be 7176 2d3c
000000f0: 1b99 6bc0 6581 5dc0 9f6d e1bb 0f74 1bbf
00000100: 4c89 2abe 2e7a 013e 3221 b33e 48d0 7b3e
00000110: 1ae8 9e3e fd27 35be 08ea 93bf f35d a8bf
00000120: 189f 81c0 8628 22c0 e36f cf3e c5e1 b2bd
00000130: 857f 153e ccaf 0f3e b495 3a3e 9ec9 c93e
00000140: 8cd8 91bf a6e4 36bf d234 a0c0 8c1e 20c0
00000150: e904 943e 705d 913e 843a da3d 88c6 d53e
00000160: ad2b 31bd 0c73 b83e 0ac4 123e b1d2 4f3e
00000170: 643d 4dbe ca52 963e a085 933e 4a31 7c3e
00000180: 9f47 8bbe d7d1 98be 6a11 bebd 6fb9 c2bc
00000190: 3aa5 243e 255f 983e 5d42 743d dd88 35be
000001a0: 0c7d 29be 8514 3abe 756e 423e 6ded 9abe
000001b0: ea8b 06be 4b02 96be 46d8 523e b7d9 ed3d
000001c0: b40a 363e 717a d83c 6076 41be fd7a 47bc
000001d0: 23b9 0b3e 6ff0 bebc 6f43 273e 30d6 8dbe
000001e0: ca3f 633d d492 6ebe 5afd e73d 495d 173b
000001f0: b95e b03d 7cd5 14be 8217 633d face 6cbe
00000200: 1899 3bbe bda3 e33d 62d4 373c f21d 773e
00000210: 77d3 923d a6e9 9d3d 9525 213e 5fc6 3cbe
00000220: e015 993e 6219 623e dfbe 543e 5508 29be
00000230: bd48 bf3c 0ac3 9d3e 4ad4 3b3e 36cd 97be
00000240: 4b06 9ebe eb8d d63b 431c 713e 0d33 113e
00000250: f3a3 183c 1110 8bbe 9dc7 573e eb42 03bd
00000260: c87e 84be b453 733e 74d8 55be 4691 913e
00000270: 79ef 023e b688 983d f189 f33d 5335 48be
00000280: 171f 58bf 5b62 92bf 1af6 89c0 d7e1 23c0
00000290: f39a 92bd e140 df3e 3d91 9a3e ab91 cb3e
000002a0: f350 2bbe f955 d53e 66f8 8dbf 5d1e a1bf
000002b0: 29ad 97c0 02c1 22c0 70a5 b13d 892f 903e
000002c0: 0c47 753e cbff bd3e 64b9 d73e 1c37 0d3e
000002d0: 9309 843e f0df e3bd ee99 1fbe a774 a5bd
000002e0: 1cab 8e3e b546 433d e7bc 9a3c 2f1f 863e
000002f0: 1745 9dbc 2232 b63d 2eab 55bc 22c5 5f3c
00000300: 3f16 96be 55a1 373e 125f 953d 8d7d 243e
00000310: 72c7 efbd 3c41 453e 6698 5cbe b3b8 6dbe
00000320: bf8a 95c0 811e 95c0 901e a83f ceef 063f
00000330: 1e7a 66be 8682 fabd e814 043e 5b38 2cbb
00000340: 9e4d 84bd 1701 90bc 73a0 d43d 5c50 d93e
00000350: 2dd6 473f fe5a a3bb ab9b ae3e 81eb ffbc
00000360: c05a 02bd e8fc 823e cf9d 7a3e 584d 0bbe
00000370: 0f8d 1640 880c 1740 d2b8 1dbf 4c45 e0bd
00000380: 0f81 243e 5b14 9bbc a4cd 193d 2b41 21bd
00000390: 375e e63d c3a0 0b3e a470 1bbe 13b3 c3bd
000003a0: 54d7 aabc 02a2 debd 8fc0 c7bb e54a d93d
000003b0: 6269 8c3e 72b6 f23d f646 02bc ddc1 cabd
000003c0: ba77 54c0 121f 64c0 ef57 f03f c140 e83d
000003d0: 9f03 8ebe 64b1 7bbe ba16 87be 95a3 7abe
000003e0: 0bd3 dcbd 96d2 87be f4a2 9fbf 6eba b8bf
000003f0: bf88 fd3e f4c2 723e 8218 223d 6fc5 9ebe
0.5280488 0.16030121 -0.018330034 0.3838667 0.12970212 -0.020026198 -0.054118793 -0.15644754
0.15393017 0.24455853 0.26659355 -0.071444914 -0.026334684 0.17542742 -0.035350934 0.15430717
-0.03971115 -0.30869532 -0.1897775 -0.019725595 -0.7155611 -0.5746565 0.55008876 -0.025511594
0.1516475 -0.0028162994 0.08580189 0.28547248 -0.059954293 0.37086526 -3.4844136 -3.7736259
1.1423178 0.20547517 -0.21187067 0.0674319 -0.024356367 0.10723382 0.0031508487 -0.17792602
-0.03966912 0.28888503 0.222676 0.12720093 0.25102076 0.22110108 0.24702139 0.18676947
0.07629358 -0.107353054 -0.038388167 -0.20800522 0.29354432 0.053937014 0.28245392 0.28466824
-0.050963227 0.14769024 -0.22779344 0.010587321 -3.6812198 -3.4610226 -0.006879523 -0.60723966
-0.16653937 0.12644264 0.34986264 0.24591172 0.31036454 -0.17691036 -1.1555796 -1.3153671
-4.0506706 -2.5337234 0.4051505 -0.08734468 0.14599426 0.14031905 0.1822117 0.39411634
-1.139421 -0.7144264 -5.006448 -2.5018644 0.28909996 0.283916 0.10655692 0.4175303
-0.043254543 0.36025274 0.14332595 0.20295216 -0.2004295 0.29360038 0.28812885 0.24628177
-0.2720308 -0.29847595 -0.09280665 -0.023770062 0.16078654 0.2976009 0.0596336 -0.1772799
-0.16551608 -0.1817189 0.18987449 -0.30259266 -0.1313931 -0.29298624 0.20590314 0.116137914
0.1777752 0.026425572 -0.18892813 -0.012175319 0.13644843 -0.023308007 0.16334318 -0.27702475
0.055480756 -0.23298198 0.1132762 0.0023096374 0.08611817 -0.14534563 0.05544234 -0.2312583
-0.1832012 0.11115215 0.01122007 0.24132517 0.0716924 0.077105805 0.15736993 -0.18435048
0.29899502 0.22079995 0.20775937 -0.16507085 0.023350114 0.30812865 0.183427 -0.2964875
-0.30864176 0.0065476797 0.23545937 0.1417963 0.009316432 -0.27160695 0.2107224 -0.03204624
-0.25877976 0.23762399 -0.20883352 0.28431147 0.12786664 0.074479505 0.118915446 -0.19551592
-0.8442244 -1.1436266 -4.3112917 -2.5606592 -0.071584605 0.43604186 0.30188933 0.39759573
-0.16730098 0.41667154 -1.109143 -1.2587391 -4.7398877 -2.5430303 0.08674133 0.28161266
0.23952883 0.37109217 0.4213363 0.13790554 0.25788555 -0.11126697 -0.15586063 -0.0807889
0.2786492 0.047674853 0.018888904 0.26195666 -0.019197984 0.08896281 -0.013041301 0.01365784
-0.29313847 0.17932637 0.07293524 0.16063519 -0.11707963 0.19263166 -0.2154251 -0.23214988
-4.673187 -4.6599736 1.3134327 0.5270966 -0.22507522 -0.122319266 0.128986 -0.0026278708
-0.06460117 -0.017578645 0.10382166 0.42444122 0.7806118 -0.0049852123 0.3410314 -0.031240227
-0.031824827 0.25583577 0.24474262 -0.13603723 2.3523595 2.3601398 -0.6161014 -0.10950717
0.16064857 -0.018930605 0.03754963 -0.03936879 0.11248439 0.13635544 -0.15179688 -0.0955564
-0.02085463 -0.10870744 -0.006095953 0.10609988 0.2742415 0.11851205 -0.007951489 -0.09900258
-3.3198075 -3.5643964 1.8776835 0.11340476 -0.27737138 -0.24579388 -0.26384526 -0.24476464
-0.10782441 -0.26527852 -1.2471604 -1.4431894 0.4951839 0.23707181 0.039574154 -0.31010005

net.0.bias f4 [64]
00000000: 868d 2cbe a392 1fbe a56c 84be 71c8 92bd
00000010: fe7a 87bd a98c 39be 5d2e 73be 7c57 a9be
00000020: a356 e33b cd87 94bd 1e37 0dbe eb84 b5bd
00000030: 84b6 583e 7502 88be 0e37 e0bd 0789 753e
00000040: a7bf f83d e7c0 cfbe d8df 9bbe ec92 3a3e
00000050: 3459 e5bd 46b5 393d cb65 fa3d 6ca4 203e
00000060: 64c5 4d3e b9a2 243e b9d5 783e 3b0a f3bb
00000070: 5601 99be eec4 89be 470e 17be 0109 97be
00000080: 703b 973d 2fe7 92be e432 223e b97c 4bbd
00000090: dbd8 74be 1360 11be 4f6d 6dbe f46c 883d
000000a0: b88e 39be 69e1 fcbd ba10 213e 61e9 9e3e
000000b0: 630b 2e3e 6cbb 823e 2295 293d 41b5 54be
000000c0: c25b bdbd 62ac 7a3e 42d7 cf3d 8abd 2c3e
000000d0: e966 97be 0d52 273e fd85 d8be 5cdd 68bc
000000e0: 3af3 563d ac34 153d a815 3e3e ce95 a23e
000000f0: 0c7d 0abd 1779 a6be bb9c 42be 741e e7bd
-0.16850862 -0.15583281 -0.2586414 -0.071671374 -0.06615256 -0.18120064 -0.23748155 -0.33074558
0.006937818 -0.072524644 -0.13790557 -0.08863243 0.21163374 -0.26564375 -0.10948001 0.23978053
0.1214593 -0.4057686 -0.30444217 0.18220109 -0.11198655 0.04533889 0.12226447 0.15687722
0.2009483 0.16077699 0.24300279 -0.007416991 -0.29883832 -0.26908058 -0.1475154 -0.29499057
0.07384384 -0.28692004 0.15839726 -0.04967949 -0.23910849 -0.14196806 -0.23186229 0.06661406
-0.18120849 -0.12347681 0.15729037 0.3103743 0.16996531 0.25533617 0.04140199 -0.20772268
-0.09246017 0.24479821 0.10148479 0.16869178 -0.29570702 0.16339894 -0.42289725 -0.014212932
0.052478053 0.036427185 0.18562949 0.31754917 -0.03381066 -0.3251426 -0.190051 -0.11285105

net.3.weight f4 [64, 64]
00000000: f48b bdbd ce12 ec3d dbdf 93bd dc91 973c
00000010: 74a1 69bd 9e2e ff3d 9cbf 1cbb 35ed 133c
00000020: 9d8e 09bd f0d3 153c 3e04 983d f08a 7dbd
00000030: c816 923d fcde a23d 60dc 953d 365e 7b3d
00000040: e8c8 c7bc 11ab a5bd f8b8 2cbd 6061 c83c
00000050: 11a3 e13d 02f8 efbd 5385 523d 4cae a3bd
00000060: 58e2 b8bb 0a53 303d 9c9b 8bbd b470 f3bb
00000070: ff9b 93bc 4428 c33a a080 d33b ac86 fa3d
00000080: 6b84 adbd 4617 db3d 846e f2bd 528a a23b
00000090: e3c1 263d def4 ffbd 6126 573d 3655 573c
000000a0: f42a 3bbd af2d 50bd 457f 92bd c1ff 4e3a
000000b0: a368 10bd a833 0fbd 6815 0a3d 64cc 663d
000000c0: c4fd c53d 137a 52bc 00b8 cc3c f232 81bd
000000d0: f05b e43d ea1d 4f3d 22c9 90bd 6674 d03d
000000e0: 7eeb 603d 36a9 293d aac4 fd3d 1e84 8e3d
000000f0: d0a0 a13d 4364 103d d9f0 a33d 14ee 2f3d
00000100: 620b 1dba 5e8a f23d f0a6 213e ce8a ec3d
00000110: d4c1 233d c0c7 633b e095 f53d d8d9 613e
00000120: b472 203e 6a12 d33d a28e e63d 6e27 fe3d
00000130: 4a0b c43d 5caa 4c3d 7c11 923d b205 8cbd
00000140: 6a1b ec3d 6bd3 8a3e 7821 9cbc 0096 e4b9
00000150: 32db 073e 8195 2a3e f0e7 f53d 6851 9bbd
00000160: e632 0a3e 2a0c b43b 3cce 38bd 56aa 323e
00000170: cfb8 fb3d de92 b83c a0c0 a03c d8a5 8dbc
00000180: 2e6f ac3d a8a9 a5bc baf8 ca3d 5e36 5f3d
00000190: bd85 923e 68b6 ce3d 6a62 f53d 2f0a 203c
000001a0: 4c50 e33d 9cd4 823d 45ab 853e a4a2 ca3c
000001b0: a8e5 a43d b3f3 7db9 d4d1 3cbd 9865 d9bd
000001c0: f82d ddbc c375 be3d ccf7 143d 57c0 aabd
000001d0: b4a0 8abd 5b32 ec3d 95bb c33d 1cc7 16bd
000001e0: c7a0 593e 8f73 3b3e da1b 583e 1505 18bd
000001f0: b390 e13d 3fa2 bcbc e08e 3c3d e6a7 863d
00000200: 4233 513d d8d2 8dbd 6c3e 953d 72c3 1e3e
00000210: 9a8f b0bd 906a 623c b3b2 b53e b2e8 ea3e
00000220: 7b4a 103f 3823 86bd f85b fa3c 8061 883c
00000230: e02b 9d3b 70ac 6a3c 08ed cbbc c2ad e5bd
00000240: 1ec8 ca3e 2b00 033f 9cff aebd 3008 a43c
00000250: 9535 c03d 77cc fc3d 842c f53d ba0c f0bd
00000260: c27c 54be e808 2ebf ac21 0c3d 3e1c 8bbd
00000270: d84a 8dbc 18eb a63d d4a6 54bd b236 d63d
00000280: 95f9 1d3f e00f aabb 3405 6f3d 01ec 36bf
00000290: 0137 803e c0fa 2a3c 7c3c d93e 81c9 463c
000002a0: 6437 b53d c4c6 25bd 4cf9 f13e 28f4 3dbf
000002b0: 34d6 4dbd 6ff8 38bd c6dc 9a3d 44bd c0bd
000002c0: 14d7 f03d 019d 8d3d dc85 7e3d 10d5 5d3d
000002d0: 2c23 29bd ed5f a6be 903d ef3e ea06 f43d
000002e0: 9c2e a53d cecb 203d 8030 2f3e 5ba6 1dbf
000002f0: 0d0b 8e3d 523f 2d3d fdfd 26bf b488 5ebd
00000300: 3790 9e3d ac77 f63d 5a15 203e 13f0 ae3d
00000310: 94cc e93d 7c91 773d fe22 d03c f01b 5dbe
00000320: 43c7 b23d c82d e1bc 6cc7 663d 123b d3bd
00000330: 70de dd3d c0b0 64bd a2c8 823d 7ab6 efbd
00000340: b0ed 26be fe1f 413d 54be 3bbd 0002 7bbb
00000350: 2ff7 a13d 919c d9bd 1900 2f3d 5090 5cbd
00000360: 97d5 76bd c736 02be d04b bb3c f9c8 c23d
00000370: 523d d4bd 3ca5 c73d 7071 af3c 80cf 973c
00000380: e2d7 f1bd d63b d83d 783e 8dbc 7dbf 4abc
00000390: 0ef9 46bb 523a 823d 8952 963b c7ed e7bd
000003a0: 002d 6d3a fc4e 55be e1dd 393d e5f7 23be
000003b0: 12bb b23d a81a f93d 00a3 1f3b 5ccc f23d
000003c0: e024 403d 08a9 d7bd 68fb af3d 6482 73bd
000003d0: 1ef0 d8bd 53a2 14be 98cd 66bc 2cd7 3cbd
000003e0: f8db bbbd f97c 043e bd53 f6bc c033 28be
000003f0: b659 98bd 571c 43bd c0e4 3bbe e001 153d
-0.092552096 0.11527024 -0.072204314 0.018502168 -0.05703874 0.124600634 -0.002391792 0.0090287225
-0.033583272 0.009144768 0.07422684 -0.06190008 0.071332514 0.07952687 0.07317424 0.061369143
-0.024387792 -0.08089269 -0.042168587 0.024460495 0.110174306 -0.117172256 0.05139668 -0.07992229
-0.0056422167 0.043047942 -0.068167895 -0.0074292067 -0.01801872 0.001488932 0.0064545423 0.12232718
-0.08472522 0.106977984 -0.118374854 0.0049603367 0.04071225 -0.124978766 0.052526835 0.013142874
-0.04569526 -0.050824817 -0.07153181 0.00078963867 -0.03525604 -0.034961373 0.03371182 0.056347266
0.096675426 -0.012846488 0.024990082 -0.06308545 0.11150348 0.050565638 -0.07069613 0.10178451
0.054912083 0.041421138 0.12391026 0.06958793 0.07892001 0.035251867 0.080049224 0.04295166
-0.0005990771 0.11842798 0.15786338 0.115499124 0.03997977 0.0034756511 0.11991477 0.22055757
0.15668756 0.103062466 0.11257674 0.12409864 0.09572466 0.049967155 0.07132241 -0.06837024
0.11528666 0.27114424 -0.019058928 -0.00043599308 0.1326721 0.16658594 0.12007129 -0.075838864
0.13495979 0.005494614 -0.045118555 0.1744779 0.12291109 0.02253097 0.0196231 -0.017290995
0.08419643 -0.0202225 0.09910722 0.054495208 0.2861766 0.10093385 0.119816616 0.009768053
0.110993 0.06388208 0.2610723 0.024735756 0.08051616 -0.00024218745 -0.046098545 -0.106150806
-0.026999459 0.09299805 0.03636913 -0.08337467 -0.06768933 0.11533042 0.09557263 -0.03681098
0.21252738 0.18305801 0.21104375 -0.03711422 0.11013927 -0.023026584 0.046034694 0.06574993
0.051074274 -0.06924981 0.07287297 0.15504244 -0.0862114 0.013819352 0.354879 0.45880657
0.5636365 -0.06549686 0.030561432 0.016648054 0.00479649 0.014323339 -0.024893299 -0.11214782
0.39605802 0.5117213 -0.08544847 0.020023435 0.0938522 0.12343686 0.11971381 -0.117211774
-0.20750716 -0.6798234 0.0342118 -0.06792496 -0.017247602 0.08150309 -0.051916912 0.10459651
0.61708957 -0.0051898807 0.05835457 -0.71453863 0.25041965 0.01043576 0.42428958 0.012133003
0.088484555 -0.04047276 0.4726051 -0.7420068 -0.05025311 -0.0451588 0.075616404 -0.094110996
0.11759773 0.06914712 0.062139377 0.05415827 -0.04129331 -0.3249506 0.46726656 0.11915381
0.08065531 0.039256863 0.17108345 -0.61581963 0.069357015 0.042296715 -0.65231305 -0.05432959
0.077423505 0.12034544 0.15633145 0.08541884 0.11415973 0.06044148 0.02540731 -0.21592689
0.087294124 -0.02748765 0.056342527 -0.10314001 0.10833442 -0.055832624 0.06385924 -0.117047265
-0.16301608 0.04714965 -0.045835808 -0.0038300753 0.07908475 -0.10625566 0.042724703 -0.053848565
-0.06026229 -0.12716208 0.022863299 0.09510989 -0.103632584 0.09748313 0.021416396 0.01853156
-0.118087545 0.10558288 -0.017241701 -0.012374756 -0.003036085 0.0635878 0.0045874757 -0.11324649
0.0009047538 -0.20830911 0.045377616 -0.16012533 0.08727087 0.121632874 0.002435863 0.11855385
0.046910167 -0.10530287 0.08592874 -0.059450522 -0.10592674 -0.14515047 -0.014087103 -0.04610364
-0.09172815 0.12938298 -0.030069226 -0.16425991 -0.07438986 -0.04763445 -0.1834898 0.03637874

net.3.bias f4 [64]
00000000: 04a0 2d3e 9093 cf3e 19ac 2e3b f8ee debd
00000010: a4a9 9c3d 4775 dfbc eff2 a53e 06ad 563e
00000020: 6bd4 773e 5cb5 8f3e ae4e d33e 6283 123f
00000030: 9b20 023f 7656 583e 2eb1 973e bf77 b13e
00000040: d589 493e 4cef 073f 13ef 06be 4a45 933e
00000050: c597 963e d85f c53e 8114 fa3e a390 e93e
00000060: e08f 143f 788b 14be 86b3 86bd 69b8 233e
00000070: 0101 09be 6785 ab3e efa5 e5bd aa83 c23e
00000080: 87bb 253e eb5a 093f 3f32 a63e ebaf 033e
00000090: 3af0 c63e 9869 ec3e 1dcf fd3d e1ff 8e3e
000000a0: ab44 113f acf7 3b3e 00e2 9d3e 941f fe3e
000000b0: 5d3f d43e ebaf 9fbd 5515 4abe 7504 e8bd
000000c0: 2e32 c13c f0d1 cc3e b16f 5d3e 1ead bf3e
000000d0: 5212 c03e b23a 533e 2bb7 cb3e 0e2e a43e
000000e0: d3ee ae3e 87d9 283d eeb5 81bd 0c72 443e
000000f0: f455 0e3f 8910 073f 1e22 c83e 0da8 993e
0.16955572 0.4054227 0.0026652871 -0.108854234 0.07649544 -0.027277602 0.32411906 0.2096444
0.24202125 0.28068054 0.41270965 0.57231724 0.50831 0.21126732 0.29627365 0.34661672
0.19681485 0.53099513 -0.13177137 0.287638 0.29412666 0.38549685 0.48843768 0.45618162
0.58032036 -0.14506328 -0.0657721 0.15988316 -0.13379289 0.33500215 -0.1121329 0.37991077
0.16184817 0.53654355 0.3246021 0.12860076 0.38855153 0.46174312 0.12393019 0.27929595
0.56745404 0.18356198 0.30836487 0.49633467 0.41454592 -0.077972256 -0.197347 -0.11328975
0.023583498 0.4000392 0.21624638 0.37436765 0.37513977 0.20627859 0.39788184 0.32066387
0.34166583 0.041223075 -0.063335285 0.1918413 0.55599904 0.52759606 0.3908853 0.30011025
