2_Party/shadow_model_data/shadow_minus_F_client2_bottom_inter.pt (torch, 21936 bytes, 4 tensors)

net.0.weight f4 [64, 10]
1.3227909 0.80063635 0.96512413 0.43888563 1.0110027 0.76860756 -0.4144313 0.011816187
-0.21102664 -0.3143973 0.037769996 -0.3070665 -0.08118945 0.18278225 -0.3122232 0.22808914
-0.24329473 -0.2761757 0.013896447 -0.036875065 0.2390708 0.2733865 -0.30473536 -0.11534145
-0.31347618 0.17519875 0.123619884 -0.10210518 -0.24732187 0.18553123 0.77284986 0.43965396
0.9401785 -1.4943303 -1.5032536 -1.660117 0.4387309 0.6244751 0.04649007 0.14477809
-0.14491282 0.18616723 -0.11098304 -0.06272991 -0.029858174 -0.10865421 0.059982605 0.08619549
0.2680421 -0.29785064 -0.056670107 0.023373825 0.056270286 -0.21640459 -0.22562595 -0.23270501
0.04247063 0.30413696 -0.20264074 -0.046009727 -0.19446425 -0.4118928 -0.29018804 0.35810262
0.4059782 0.15114512 -0.39915168 -0.43896613 -0.4195725 0.25304163 -1.3013332 -1.2965112
-1.4895431 0.06225981 0.118253365 0.0022623744 -0.40093353 -0.81585234 -0.6658478 2.3421204
0.4205297 0.39296597 0.58149 0.845345 0.7286936 0.5753899 -0.21393993 -0.48077193
-0.10005373 0.18620619 0.8863041 0.66086763 1.145356 -1.0184289 -1.1122682 -0.6397171
0.53846115 0.4774723 0.5266619 -0.3936304 0.76602334 1.0288436 0.8430497 0.60896957
0.8273248 0.76578325 -0.060129233 -0.13280305 -0.12298295 -0.2353681 -0.9000657 -0.6488902
-1.0091798 -0.81691056 -0.49877232 -0.52077746 0.036851082 0.2201191 0.22094086 -0.41713107
0.26386204 -0.1613232 0.00040954334 0.27899855 0.20482507 0.17047316 0.19363834 0.23536862
0.12398898 0.26002732 1.1456572 1.4358302 1.4560256 -0.19654872 -0.045728896 -0.031609543
0.6435806 0.9534624 0.7552682 -0.52469116 0.18144518 -0.3056234 0.22279194 -0.068055324
-0.051849943 0.19096206 0.21779864 -0.111841254 0.056773774 -0.14538452 -1.8573961 -1.6098557
-1.676385 -0.69424504 -0.34622064 -0.20559023 0.73086023 0.48787805 0.86289984 1.9359397
-0.034383167 0.14250453 -0.12418334 -0.29760656 0.077948794 0.25700712 0.16477084 0.21068618
0.19300155 0.23893867 0.17371625 0.22453786 0.16288479 -1.4415201 -1.2875612 -1.0067977
0.8663345 0.71812654 0.41908076 1.4125178 0.598894 1.0791283 1.0015346 -1.1376711
-0.97181386 -0.8565086 -0.068279356 0.059945837 -0.13330653 -0.49332124 1.556357 1.5168885
1.1964308 -0.03502782 -0.3884732 -0.12629692 0.5168668 0.8427593 1.0442237 -1.7201884
0.74341357 0.83979577 0.6258393 0.3351082 0.86661416 0.87043625 -0.61750066 -0.035338864
-0.07923866 0.12278691 -0.54070973 -0.33789572 -0.29716063 0.14578572 0.3990526 0.49977294
-0.4974646 -0.26363096 -0.52558106 0.48536158 0.059097245 0.034606222 0.079595335 0.14312032
0.22063227 -0.04688257 -0.23503305 -0.28174305 0.25551614 0.1385854 0.905072 1.0732054
0.5681729 0.71663576 0.3595675 0.5784355 -0.19345462 -0.48865634 -0.175893 -0.5573475
0.6963515 0.46855566 0.47770584 0.8944809 0.7680765 0.5616701 -0.18808112 -0.26164785
-0.3196433 0.048820123 -0.8268117 -1.0867544 -1.2425877 0.26724786 -0.059648175 0.037094854
00000000: 3651 a93f 81f6 4c3f 6012 773f 9eb5 e03e
00000010: 8968 813f 77c3 443f 5730 d4be ae98 413c
00000020: 5e17 58be aff8 a0be b6b4 1a3d d237 9dbe
00000030: a846 a6bd 452b 3b3e b8db 9fbe 3390 693e
00000040: 4122 79be e766 8dbe ecad 633c 4f0a 17bd
00000050: face 743e 51f9 8b3e 4606 9cbe 2338 ecbd
00000060: f37f a0be 4d67 333e 6c2c fd3d 851c d1bd
00000070: f241 7dbe e6fb 3d3e 7dd9 453f 531a e13e
00000080: 8aaf 703f 3746 bfbf 9d6a c0bf b77e d4bf
00000090: 56a1 e03e 9add 1f3f 5f6c 3e3d b540 143e
000000a0: 0764 14be 9fa2 3e3e 134b e3bd 8a78 80bd
000000b0: 2199 f4bc 1986 debd 52b0 753d 4387 b03d
000000c0: d03c 893e e17f 98be ea1e 68bd 777a bf3c
000000d0: ac7b 663d 2a99 5dbe 7d0a 67be 394a 6ebe
000000e0: aff5 2d3d d7b7 9b3e 0e81 4fbe b274 3cbd
000000f0: a321 47be 9de3 d2be 8793 94be 3a59 b73e
00000100: 60dc cf3e c9c5 1a3e 9c5d ccbe 2bc0 e0be
00000110: 35d2 d6be ac8e 813e 1692 a6bf 14f4 a5bf
00000120: 59a9 bebf 2404 7f3d d22e f23d 5844 143b
00000130: 2947 cdbe b3db 50bf 0075 2abf 4de5 1540
00000140: ab4f d73e d632 c93e 87dc 143f 8868 583f
00000150: aa8b 3a3f c14c 133f 1213 5bbe bd27 f6be
00000160: f8e8 ccbd d6ac 3e3e d3e4 623f 9f2e 293f
00000170: 079b 923f e15b 82bf ce5e 8ebf 80c4 23bf
00000180: 97d8 093f 4077 f43e 50d3 063f ec89 c9be
00000190: 1b1a 443f 26b1 833f 1bd2 573f 6ee5 1b3f
000001a0: 8fcb 533f 5f0a 443f 124a 76bd 86fd 07be
000001b0: 7cde fbbd 5604 71be b56a 66bf ab1d 26bf
000001c0: ce2c 81bf 0d21 51bf 165f ffbe ac51 05bf
000001d0: 29f1 163d e766 613e 523e 623e 3492 d5be
000001e0: ed18 873e e931 25be fab7 d639 e6d8 8e3e
000001f0: aabd 513e 8490 2e3e 2149 463e 7904 713e
00000200: efed fd3d 4d22 853e e5a4 923f 49c9 b73f
00000210: 0c5f ba3f 1144 49be 394e 3bbd 0279 01bd
00000220: b3c1 243f 1d16 743f 4259 413f 2952 06bf
00000230: c4cc 393e ac7a 9cbe 9223 643e 9760 8bbd
00000240: 9b60 54bd 8f8b 433e 9b06 5f3e 070d e5bd
00000250: 9e8b 683d aedf 14be 28bf edbf c00f cebf
00000260: c993 d6bf 0bba 31bf d543 b1be 3f86 52be
00000270: a819 3b3f 27cb f93e 01e7 5c3f dfcc f73f
00000280: 5dd5 0cbd b5ec 113e d653 febd e35f 98be
00000290: 9ea3 9f3d 7096 833e b0b9 283e 1ebe 573e
000002a0: 33a2 453e 57ac 743e ace2 313e 41ed 653e
000002b0: 45cb 263e bb83 b8bf cece a4bf bfde 80bf
000002c0: 19c8 5d3f 24d7 373f c191 d63e 62cd b43f
000002d0: 1e51 193f e020 8a3f 4932 803f 359f 91bf
000002e0: cbc8 78bf 2644 5bbf 0cd6 8bbd c489 753d
000002f0: 8281 08be 9a94 fcbe b536 c73f 6729 c23f
00000300: a524 993f 5579 0fbd f6e5 c6be fb53 01be
00000310: 6251 043f 13bf 573f 1fa9 853f 222f dcbf
00000320: 5a50 3e3f dbfc 563f 0137 203f 4d93 ab3e
00000330: 6dda 5d3f e9d4 5e3f 8614 1ebf 7cbf 10bd
00000340: e147 a2bd b477 fb3d f46b 0abf ab00 adbe
00000350: 7025 98be da48 153e 9f50 cc3e 3de2 ff3e
00000360: aeb3 febe a3fa 86be 7b8c 06bf 5081 f83e
00000370: f40f 723d 41bf 0d3d e102 a33d 228e 123e
00000380: 6ded 613e f007 40bd 81ac 70be a040 90be
00000390: 03d3 823e 55e9 0d3e ccb2 673f cb5e 893f
000003a0: c773 113f 7175 373f 3b19 b83e 5914 143f
000003b0: f818 46be 2a31 fabe 4b1d 34be 53ae 0ebf
000003c0: 1844 323f 87e6 ef3e dc95 f43e b3fc 643f
000003d0: a9a0 443f 9dc9 0f3f 5698 40be b5f6 85be
000003e0: 49a8 a3be 9cf7 473d eea9 53bf c51a 8bbf
000003f0: 1d0d 9fbf b6d4 883e a551 74bd c6f0 173d

net.0.bias f4 [64]
-0.057422098 -0.25040725 -0.22768298 -0.023828996 -0.20778312 -0.24714601 -0.08789811 0.058854684
0.0017287455 0.04224216 -0.03445229 -0.0465288 -0.20341897 -0.058360647 -0.18076591 0.222872
-0.07415102 0.12953149 0.01689999 -0.08159835 -0.019830072 -0.08258606 -0.25504127 -0.03500312
-0.0072154324 0.040410943 0.046187215 -0.25761646 -0.09401811 -0.12804389 -0.23843515 -0.25612855
-0.31590244 -0.1963229 0.010722922 -0.15176699 -0.08546867 -0.04204704 -0.025268715 -0.10757568
-0.13616373 0.026602486 -0.074836895 -0.053971294 -0.2885555 -0.23734619 0.0224728 -0.084875666
-0.050844528 -0.03544838 -0.045790713 -0.30609816 -0.24339205 0.17485093 -0.031836107 0.031993646
-0.085816786 -0.13399029 -0.19996254 -0.08897343 -0.037884995 -0.108637474 -0.055432554 -0.29146418
00000000: 6f33 6bbd 6135 80be ba25 69be 0735 c3bc
00000010: 19c5 54be d813 7dbe ed03 b4bd 9c11 713d
00000020: 1397 e23a 1d06 2d3d d81d 0dbd fc94 3ebd
00000030: 104d 50be 930b 6fbd b31a 39be 8f38 643e
00000040: 7ddc 97bd e7a3 043e d971 8a3c 091d a7bd
00000050: ad72 a2bc e122 a9bd c594 82be 6e5f 0fbd
00000060: 6f6f ecbb f285 253d ce2e 3d3d 4ee6 83be
00000070: 918c c0bd f01d 03be 5828 74be 4823 83be
00000080: f7bd a1be df08 49be 32af 2f3c ce68 1bbe
00000090: 330a afbd 8439 2cbd 5600 cfbc a350 dcbd
000000a0: 816e 0bbe 75ed d93c 1644 99bd 0111 5dbd
000000b0: 8cbd 93be e10a 73be e118 b83c 4bd3 adbd
000000c0: 5a42 50bd 5232 11bd 0b8f 3bbd e6b8 9cbe
000000d0: c43b 79be 1f0c 333e 9466 02bd c50b 033d
000000e0: b6c0 afbd c034 09be fbc2 4cbe b437 b6bd
000000f0: 4c2d 1bbd 537d debd 3f0d 63bd cb3a 95be

net.3.weight f4 [64, 64]
0.45756257 0.09737219 0.004063055 -0.08054182 -0.050667986 -0.12237048 -0.23990805 -0.004293684
0.33859545 0.08544484 0.35513684 -0.40836385 -0.096533924 0.22599554 0.085069925 0.137443
0.10201904 0.19318748 0.029721597 0.090546235 0.30188546 -0.38665825 0.09177132 0.529337
0.31792885 -0.13894545 0.12853779 -0.11008462 -0.51403683 0.118645445 -0.009997681 -0.020917743
-0.04002136 -0.06068608 -0.054235294 -0.086923435 0.1374102 -0.04741796 -0.08597042 -0.21842349
-0.0092149675 -0.20859449 0.637813 -0.47556892 -0.09112902 -0.11988594 -0.042016502 0.19834407
0.079520546 0.14693156 -0.33049527 -0.099877566 -0.11093502 0.21808949 -0.0013136722 0.0038735766
0.14330402 -0.07426675 -0.016550332 0.017521694 -0.45563594 0.0016527027 0.042787667 -0.08850396
-0.03941145 0.06240696 -0.0590975 0.8704047 0.02508843 0.04401432 0.17107467 -0.007288115
-0.021108313 0.37538543 -0.022985982 0.4465824 -0.05816096 0.039218307 -0.04172428 -0.010511804
-0.0093716085 0.20733869 0.48136762 0.2959877 -0.06855445 0.33619446 -0.054222748 -0.18912646
-0.066269614 0.036302082 0.40914983 0.13497134 0.93736374 -0.10242893 -0.006988004 -0.062665746
0.080730066 -0.019847676 0.45023957 0.120507106 0.26110122 0.10497227 0.879497 0.35200068
0.017752752 0.06745389 -0.5159516 0.34224704 0.046396315 0.09937933 0.47473457 -0.01716842
-0.06784551 0.16993955 0.18217151 -0.001979813 0.12056813 0.02930347 -0.009223625 0.557321
0.37445316 0.08837001 -0.060644105 0.0004847501 0.26586324 0.07387778 0.08389625 -0.0954255
0.018987209 -0.027700871 -0.09927735 0.726842 0.004081607 0.03735964 0.075112626 0.1291418
-0.06292536 0.528398 0.034523554 0.49985445 -0.0804673 -0.08305721 0.0027023256 -0.02125653
0.010252863 0.2201423 0.74878377 0.036337607 -0.017559526 0.19217952 0.0554516 -0.01786398
-0.047627095 0.22387111 0.4966573 0.0892809 0.7951969 -0.08323981 -0.099464685 0.089735076
-0.083343714 -0.10654175 0.47668934 -0.12012087 0.015649913 -0.024834337 0.9203552 0.36308318
-0.06047997 0.023581034 -0.31202954 0.18390147 0.07143344 -0.066240564 0.60254467 -0.2055532
-0.044656646 -0.08865263 0.3686884 0.025895625 -0.12448536 0.06858657 -0.046398774 0.5924698
0.06044688 0.00628908 -0.09114261 -0.063545756 0.18987308 0.010507509 -0.13764669 -0.10875565
0.7355359 -0.055220123 -0.052778706 -0.5717079 0.047184095 -0.015216276 -0.2963823 0.47267163
0.94871235 0.22032285 0.8308703 -0.17320041 0.10297082 -0.35005075 -0.10720985 0.05911721
0.06468798 0.11309513 0.01667682 -0.95863795 0.9862633 -0.23625772 -0.046720535 0.9903673
0.88674545 0.526144 0.1794812 -0.021213967 -0.87645686 0.028844148 0.07431024 0.062373295
-0.02195312 0.109496 -0.28149107 -0.1224512 -0.72171474 -0.27387387 -0.7162086 -0.27146134
-0.06772214 -0.36749288 0.91461986 -0.34982267 0.0034691691 0.085204914 0.12781525 -0.461818
0.058716472 -0.13020673 -0.22364566 0.09507616 0.052032232 0.14137131 -0.040399984 0.23842834
-1.1033967 -0.006606847 0.00026974082 -0.09637707 -0.24235088 0.08559768 -0.040378287 0.06006287
00000000: a445 ea3e 126b c73d 6023 853b 1cf3 a4bd
00000010: 3c89 4fbd 609d fabd 75aa 75be 08b2 8cbb
00000020: 625c ad3e b4fd ae3d 7fd4 b53e 1115 d1be
00000030: 94b3 c5bd 606b 673e 2439 ae3d dcbd 0c3e
00000040: 5cef d03d f0d2 453e b57a f33c 4e70 b93d
00000050: bb90 9a3e 12f8 c5be 9af2 bb3d a182 073f
00000060: 92c7 a23e b747 0ebe 699f 033e 0c74 e1bd
00000070: eb97 03bf 62fc f23d 50cd 23bc b05b abbc
00000080: 70ed 23bd f891 78bd d425 5ebd ea04 b2bd
00000090: 42b5 0c3e 5639 42bd 4211 b0bd 68aa 5fbe
000000a0: 60fa 16bc cb99 55be b647 233f c57d f3be
000000b0: daa1 babd c286 f5bd 7f19 2cbd b51a 4b3e
000000c0: abdb a23d 3a75 163e ad36 a9be 9c8c ccbd
000000d0: e631 e3bd da52 5f3e 862f acba d5db 7d3b
000000e0: 4abe 123e 2a19 98bd 9094 87bc a889 8f3c
000000f0: 1d49 e9be 809f d83a 1f42 2f3d 9041 b5bd
00000100: e76d 21bd 719e 7f3d 3810 72bd d8d2 5e3f
00000110: 4086 cd3c 5c48 343d 332e 2f3e 24d1 eebb
00000120: 57eb acbc 8532 c03e 194d bcbc 73a6 e43e
00000130: 303a 6ebd 60a3 203d 14e7 2abd b439 2cbc
00000140: 608b 19bc 9850 543e d175 f63e b38b 973e
00000150: 4766 8cbd ae21 ac3e ac18 5ebd 5eaa 41be
00000160: 5db8 87bd 7eb1 143d 167c d13e ed35 0a3e
00000170: 12f7 6f3f 42c6 d1bd a0fb e4bb e656 80bd
00000180: ce55 a53d 9897 a2bc cd85 e63e 6ecc f63d
00000190: 0faf 853e b4fb d63d b726 613f 6f39 b43e
000001a0: 386e 913c 4425 8a3d 6715 04bf 013b af3e
000001b0: 100a 3e3d 6487 cb3d 6910 f33e c9a4 8cbc
000001c0: 96f2 8abd a204 2e3e 2b8b 3a3e c0bf 01bb
000001d0: 6cec f63d d50d f03c b01e 17bc 97ac 0e3f
000001e0: 53b8 bf3e 56fb b43d f465 78bd 0f26 fe39
000001f0: 3a1f 883e 3c4d 973d ccd1 ab3d 726e c3bd
00000200: 108b 9b3c f0ec e2bc ec51 cbbd 5112 3a3f
00000210: 00bf 853b 6c06 193d a6d4 993d bf3d 043e
00000220: 03df 80bd 1745 073f 9268 0d3d ecec ff3e
00000230: 0acc a4bd e619 aabd 8019 313b 2d22 aebc
00000240: a0fb 273c fc6c 613e 4bb0 3f3f bed6 143d
00000250: ffd8 8fbc b5ca 443e 3821 633d 7b57 92bc
00000260: a114 43bd 783e 653e de49 fe3e e8d8 b63d
00000270: 0692 4b3f a279 aabd 24b4 cbbd 06c7 b73d
00000280: 1cb0 aabd 9032 dabd a010 f43e ee01 f6bd
00000290: 3f34 803c 6171 cbbc 669c 6b3f 0ae6 b93e
000002a0: d8b9 77bd 032d c13c 56c2 9fbe ab50 3c3e
000002b0: b24b 923d 22a9 87bd 5e40 1a3f 8a7c 52be
000002c0: e3e9 36bd 838f b5bd bac4 bc3e 1023 d43c
000002d0: 2ef2 febd 1e77 8c3d a40c 3ebd 1aac 173f
000002e0: 2697 773d a014 ce3b faa8 babd 4724 82bd
000002f0: 176e 423e b027 2c3c 41f3 0cbe 48bb debd
00000300: 154c 3c3f 7f2e 62bd 7c2e 58bd 735b 12bf
00000310: 1c44 413d b04d 79bc 6cbf 97be 0402 f23e
00000320: d0de 723f 509c 613e eab3 543f 735b 31be
00000330: 5ee2 d23d da39 b3be d690 dbbd e324 723d
00000340: 227b 843d 6b9e e73d d49d 883c 4c69 75bf
00000350: c07b 7c3f 8bed 71be 085e 3fbd b688 7d3f
00000360: c001 633f 60b1 063f ebc9 373e eac8 adbc
00000370: 7a5f 60bf 904a ec3c f82f 983d 247b 7f3d
00000380: 08d7 b3bc 703f e03d 991f 90be b2c7 fabd
00000390: 4cc2 38bf 3239 8cbe 7259 37bf fbfc 8abe
000003a0: e8b1 8abd 0728 bcbe 8724 6a3f f51b b3be
000003b0: 005b 633b ea7f ae3d 00e2 023e 6973 ecbe
000003c0: af80 703d ea54 05be 5e03 65be 4ab7 c23d
000003d0: c01f 553d a4c3 103e 747a 25bd 8f26 743e
000003e0: 1a3c 8dbf 407e d8bb 006c 8d39 5761 c5bd
000003f0: d42a 78be d64d af3d b463 25bd 7c04 763d

net.3.bias f4 [64]
0.19251978 0.1083621 0.06830216 0.47254497 0.15036577 0.12050817 0.26948372 0.07366199
0.02482023 0.18517342 0.22473249 0.12495902 0.1731491 0.27719873 0.049851216 0.21659349
0.20565686 0.15635064 0.21542175 0.06881198 0.31032562 0.26838392 0.11786833 0.24257806
0.13331863 0.2554394 0.25005576 0.059153207 0.15258889 0.17386052 0.31530455 0.07749464
0.2029656 0.061213795 0.21693277 -0.13711768 0.044894572 0.21269208 0.15005957 0.07431599
0.14250024 0.26095015 0.20364334 0.22808906 0.10905443 0.045725573 -0.01540514 0.37693027
0.091980726 0.018118797 0.20318577 0.2631138 0.29965737 -0.018672083 0.1755185 0.3728148
0.29036894 0.04338151 0.2406899 0.28988066 -0.059266407 0.07570849 0.08601242 0.17999978
00000000: e823 453e f3ec dd3d 01e2 8b3d 6af1 f13e
00000010: 7cf9 193e fdcc f63d c5f9 893e 19dc 963d
00000020: cc53 cb3c 1a9e 3d3e 4620 663e 84ea ff3d
00000030: ff4d 313e feec 8d3e ca30 4c3d afca 5d3e
00000040: b697 523e 621a 203e 8597 5c3e 4ced 8c3d
00000050: 00e3 9e3e 9e69 893e f364 f13d 6266 783e
00000060: ae84 083e f4c8 823e 4f07 803e a24a 723d
00000070: 4340 1c3e 7e08 323e 996f a13e 83b5 9e3d
00000080: 37d6 4f3e 51bb 7a3d a023 5e3e 9468 0cbe
00000090: 5fe3 373d f4cb 593e 37a9 193e fb32 983d
000000a0: 95eb 113e 429b 853e e187 503e 2e90 693e
000000b0: ee57 df3d bd4a 3b3d d765 7cbc 01fd c03e
000000c0: 6460 bc3d df6d 943c ee0f 503e dab6 863e
000000d0: b16c 993e 32f6 98bc 1fbb 333e 95e1 be3e
000000e0: 3dab 943e cfb0 313d 6a77 763e 3d6b 943e
000000f0: 55c1 72bd 0e0d 9b3d 4827 b03d dd51 383e
