2_Party/shadow_model_data/shadow_minus_F_client2_bottom.pt (torch, 20288 bytes, 4 tensors)

net.0.weight f4 [64, 4]
000000 4a 94 3d 3f 71 d6 84 bf 24 72 33 bf 85 50 63 be
       0.74054396 -1.0377942 -0.7009604 -0.22198685
000010 a7 6f 49 3f 4f 98 46 bf 54 76 f8 bd c5 af 48 3f
       0.7868599 -0.77576154 -0.12131944 0.78393203
000020 dd 74 69 3f f1 d9 56 bf 2f ff 80 bf ad d7 80 3f
       0.91193944 -0.839263 -1.0077876 1.0065819
000030 84 c3 46 bf ac 5a c5 be e6 f7 90 be 18 ef 36 3f
       -0.77642083 -0.3854574 -0.28314131 0.7145858
000040 5c 4e 69 3f 63 31 05 bf 76 7d d4 be e5 4d 82 3e
       0.9113519 -0.52028483 -0.4150197 0.25450054
000050 a6 e7 37 bf df 46 74 3e cf 64 8d 3d 3b f2 66 bf
       -0.7183784 0.2385516 0.06903993 -0.90213364
000060 65 27 f4 3e b6 30 ea be c5 31 2f be 7e 71 33 3e
       0.47686306 -0.45740288 -0.1710883 0.17523763
000070 b8 39 12 3f ed ed 99 3f 88 0b c3 3f 91 e0 2b c0
       0.5711932 1.2025734 1.5237894 -2.6855814
000080 f8 a8 6e 3f 0f 87 5a 3d e1 cd 0d bc 2d 25 9e 3e
       0.93226576 0.05335146 -0.008655042 0.30887738
000090 43 05 a4 be 7f 91 86 3f f7 5d 89 3f 08 01 da bf
       -0.32035264 1.0513152 1.0731801 -1.7031565
0000a0 95 cb 6c 3f 46 4f 0a bc 20 5c 1e 3e 37 de a9 bd
       0.9249814 -0.008441752 0.1546483 -0.08294337
0000b0 36 f9 70 bf 2b 84 68 3f 34 aa 10 3f 96 03 54 bf
       -0.94130266 0.9082667 0.5650971 -0.8281797
0000c0 d3 5a e1 be 4b 84 4c bf 17 2b b4 bf 0d 1c b7 3f
       -0.44014606 -0.79889363 -1.407565 1.4305435
0000d0 0f 2b 73 bf 49 ba 05 3f a8 d8 41 3f 0b 5d 7d bf
       -0.9498758 0.52237374 0.75721216 -0.989701
0000e0 85 2d 82 bf ac c3 86 bd 25 8e 1f be a6 6d 97 3e
       -1.0170141 -0.0658029 -0.15581568 0.29575843
0000f0 f3 96 4e 3f 28 f1 2d 3d 75 72 b1 be 6a 62 1f be
       0.8069908 0.042466313 -0.34657636 -0.15564886
000100 1e 76 32 3f 82 4c 64 3e bd 7a 17 be 61 6f 59 3f
       0.6971148 0.2229481 -0.14792915 0.84935576
000110 14 3f 1d bf 34 be 1e 3f f9 6e b8 3e 9d 06 00 bf
       -0.61424375 0.62008977 0.36022165 -0.5001009
000120 fd d4 39 bf 1e 9b f9 3e 25 48 93 be 37 4f 40 3e
       -0.7259062 0.48751158 -0.2876598 0.18780218
000130 f4 94 51 bf 7c 7e 3e 3f 8e 26 aa 3e 29 a5 ae be
       -0.8186791 0.7441175 0.3323254 -0.34110382
000140 97 bc 82 3f b9 56 26 bf 8c d2 0e bf 85 5b f3 bd
       1.0213803 -0.6497608 -0.5579002 -0.1188269
000150 d1 e8 84 bf 06 af fa 3e 19 26 12 3f 37 45 6a be
       -1.038355 0.48961657 0.5708938 -0.22877966
000160 4a 96 6b 3f d2 23 f8 bc 4b db 07 be fa 47 10 3f
       0.920262 -0.030290518 -0.13267247 0.5635983
000170 fd 32 55 bf 82 29 15 3f 33 5c 86 3d fb 14 a9 3c
       -0.83280927 0.5826646 0.06560554 0.020639887
000180 6f 14 8e 3f 9d 97 e8 bd 2a 89 80 bd 36 63 f9 bd
       1.1099986 -0.11357043 -0.06276162 -0.12177126
000190 9f 9a 2f bf 0f d8 3d be d3 ed 0f bf c0 32 a1 3e
       -0.6859531 -0.18539451 -0.56222266 0.31484032
0001a0 99 9f ff 3e 30 f8 4d 3e d5 d3 05 bf 28 ed 20 bb
       0.4992645 0.20114207 -0.52276355 -0.0024555419
0001b0 1b 54 5c 3f 93 d9 49 3e 98 4f ea be cc 37 52 be
       0.86065835 0.19711904 -0.4576385 -0.20529097
0001c0 09 28 7f bf bf 80 34 3f 3d 90 2e be 24 9a 0b bf
       -0.99670464 0.7050895 -0.1704721 -0.54532075
0001d0 f4 6f 5e bf db ce 1c be 8c ec 08 3f 66 fa 27 bf
       -0.86889577 -0.15313284 0.5348594 -0.6561645
0001e0 d7 90 92 3f 9e 75 59 3d 73 23 01 be 42 d8 cf bd
       1.1450452 0.053090684 -0.12611179 -0.1014867
0001f0 46 31 8f bf c8 30 65 3f 33 83 1a 3e 7d eb 00 bf
       -1.1186912 0.8952756 0.15089111 -0.50359327
000200 10 d0 3a bf a4 dc a0 3f 66 05 0e 3f 1b f8 82 bf
       -0.7297373 1.2567334 0.5547699 -1.0231966
000210 cc c5 27 bf 39 a5 8c 3f cf f3 f1 3e 7f c8 69 bf
       -0.6553619 1.0987922 0.47256324 -0.9132156
000220 0c 3f 4d 3f b4 a0 78 bf 14 88 27 be 93 2a 73 3f
       0.80174327 -0.97120214 -0.16360503 0.9498684
000230 62 e6 06 3f 8d 5a c6 3e d4 b2 08 3f 6e e1 ef be
       0.52695286 0.3874096 0.5339787 -0.46851677
000240 c7 17 5c bf 5d 40 5d 3f 3e 9f 04 3f 9a 97 6b bd
       -0.8597378 0.86426336 0.51805484 -0.057517625
000250 72 12 67 3f 42 7f 06 3e 3f 8d 2d 3d 8c 03 55 3f
       0.9026252 0.13134483 0.04237103 0.8320854
000260 49 ac 8c bf 6a a1 6f 3e 41 5c e2 bc 98 29 69 bf
       -1.0990077 0.23401418 -0.02763188 -0.9107909
000270 10 0e 70 bf 43 a0 55 3f 28 ca 00 3f d9 90 29 bf
       -0.9377146 0.83447665 0.50308466 -0.66236645
000280 56 68 94 3b 1b 8a b2 3f 60 cc 3d 3f 91 1d 11 c0
       0.0045290394 1.3948396 0.74139977 -2.2674296
000290 11 e9 b3 ba 21 74 08 bf b2 a8 21 bf a8 77 0a 40
       -0.0013726075 -0.533022 -0.63148034 2.1635532
0002a0 82 5a 60 bf f2 67 90 bd 0f 41 d6 bd 38 b1 38 bf
       -0.87638104 -0.07051076 -0.10461628 -0.72145414
0002b0 b6 25 69 bf 44 d8 98 be ee e8 a0 be 5f 1b dd bc
       -0.9107317 -0.29852498 -0.3142771 -0.02699059
0002c0 8d e1 78 3f ce cd 2a bf e3 15 82 be e9 0a df 3d
       0.97219163 -0.66720283 -0.25407323 0.10890753
0002d0 f4 2b 22 3f a4 7d 06 be db 04 b0 3d 88 0a be 3e
       0.6334832 -0.13133866 0.08594676 0.3711741
0002e0 7d 79 94 3f 0f 40 0b bf 06 bf 01 bf ba 23 37 3f
       1.1599575 -0.5439462 -0.50682104 0.7153889
0002f0 8c f3 66 bf fb 14 fe 3c 6a 82 70 be a3 fb 37 3f
       -0.90215373 0.031015864 -0.23487249 0.7186834
000300 8c ad 10 bf fe 9b 8d 3f e2 2d 57 3f b8 18 86 bf
       -0.5651481 1.106323 0.84054387 -1.0476294
000310 60 4c 85 3f fd 8a 6c be f6 da 24 bf e7 ae 39 3e
       1.0413933 -0.23099895 -0.6439661 0.18133126
000320 da 48 c7 be 99 bf 8a bf c4 ad 9b bf 22 8b ea 3f
       -0.3892277 -1.0839721 -1.2162404 1.832371
000330 e8 0c 89 3f fe de 2c bf cb b5 48 be 47 25 5a 3d
       1.0707064 -0.6752776 -0.19600599 0.053258207
000340 f8 f8 68 bf 5c ef 90 3c a0 b7 da bc b7 5f d8 be
       -0.91004896 0.01769226 -0.026698887 -0.42260525
000350 ef 79 66 3f 2f f3 3c bf 6c 03 46 be 34 7c d3 3d
       0.90029806 -0.7380857 -0.19337243 0.10326424
000360 5d e7 8c 3f bf 48 07 bf 64 a3 77 3e c7 0a 0c 3f
       1.1008106 -0.52845377 0.24183422 0.54703945
000370 12 86 45 bf 9d 1c 91 bd 62 c7 1d 3d 89 4f 0c 3f
       -0.771577 -0.07085536 0.038520224 0.5480886
000380 a1 88 86 3f 40 f9 4b 3e 25 0e 1c bf 1d 8a a8 be
       1.0510446 0.199193 -0.6095908 -0.32917872
000390 bc ab 80 bf c8 54 d5 3e a4 37 37 3f ad 7b 3b bf
       -1.0052409 0.41666245 0.71569276 -0.7323559
0003a0 58 1c 6d bf 59 e9 32 3f 04 4e 8b be c7 52 46 be
       -0.92621374 0.6988731 -0.2720796 -0.19367515
0003b0 9d ab 81 bf e0 8f 90 3e ef 60 82 3e ae 55 fe be
       -1.0130497 0.28234768 0.2546458 -0.49674743
0003c0 f4 a5 50 3f 54 57 13 bf f4 02 ff 3b 2d 61 91 bd
       0.81503224 -0.5755513 0.0077823345 -0.07098613
0003d0 88 94 48 3f 17 26 1e bf 93 49 87 be 4b 1a 38 3f
       0.7835164 -0.6177687 -0.2642332 0.7191512
0003e0 a4 95 8e 3f 6d f9 4d be ef ef e8 be 4d 4d 8f bd
       1.1139417 -0.2011468 -0.45495555 -0.06997166
0003f0 46 f7 3e 3e cf cc 94 bf ce c7 9f bf 9d db 2c 3f
       0.18649015 -1.1625003 -1.248285 0.67522603

net.0.bias f4 [64]
000000 f0 b3 80 be e1 e0 8a 3d a1 cb da bc 00 5e 19 3e
       -0.2513728 0.067811735 -0.026708426 0.14977264
000010 c7 69 fb be e8 c4 6d be 3f 24 c7 3e 79 a6 bf be
       -0.4910414 -0.23219645 0.3889484 -0.37431696
000020 32 e7 b3 3e 72 5f e5 be 10 bf ab 3e 9c 2f 68 bd
       0.35137326 -0.44799381 0.33544207 -0.05668603
000030 e7 75 e4 3e 12 e3 e2 3e e4 42 8f 3d 73 4b 13 3e
       0.44621202 0.44313866 0.0699518 0.1438425
000040 3b 4c b2 3e 81 90 dc be 4d 56 80 3e 4a b3 7f 3e
       0.34823784 -0.43078998 0.25065842 0.24970737
000050 63 ae a0 3d 45 b0 ce be 4c 98 7e 3e f2 69 fd bc
       0.078457616 -0.40368858 0.24862784 -0.030934308
000060 b8 60 16 3c 9e 0f 9e 3e 1b 8c 6d be 19 14 d0 be
       0.009178333 0.3087129 -0.23197977 -0.40640333
000070 22 30 da be a3 2a 41 be 47 9e d1 be bf 23 67 bc
       -0.42614847 -0.18863921 -0.4094107 -0.014107644
000080 a0 d1 d3 be c5 a8 b0 be 88 a9 b5 3e 24 50 ad be
       -0.4137087 -0.3450376 0.35480905 -0.33850205
000090 4f f1 29 3c 0a 75 d0 bb e2 63 81 bd 1e 1c e6 3e
       0.010372474 -0.0063616084 -0.06317879 0.44943327
0000a0 b6 8b 04 bf de 25 01 3f 8a dc 3b be 30 30 9a 3e
       -0.5177568 0.50448406 -0.18345848 0.3011489
0000b0 d7 2d d8 be 6b 15 28 be a9 a5 1a 3d 8a 7b f3 3e
       -0.42222473 -0.1641442 0.037755642 0.4755519
0000c0 c5 4a d3 3d 0a 39 7e be 7c 43 9e 3d ed 16 b3 3e
       0.103169955 -0.24826446 0.077277154 0.34978428
0000d0 fa 98 7d be 61 6c d4 be 3d 58 24 be 09 a5 da 3e
       -0.24765387 -0.41488937 -0.16049285 0.42704037
0000e0 30 f7 bf be 9e 35 0c 3e 74 32 d3 3e ed 44 2b be
       -0.37493277 0.13692328 0.4124943 -0.16725512
0000f0 f8 5c bd 3d cb 5d 89 3e eb d1 03 be e5 3c ac be
       0.09246248 0.2682937 -0.12873046 -0.3364021

net.1.weight f4 [64, 64]
000000 8d d2 9c bd c6 36 54 be 1b b8 cc be c5 74 81 3c
       -0.07657347 -0.2072402 -0.3998421 0.01580275
000010 d7 de 1e 3d d5 a5 c7 3d a8 db ea bd d4 10 9c 3d
       0.038786735 0.09748427 -0.11467677 0.07620397
000020 c3 66 e6 bd 23 4e 30 3d 38 ed 30 be cc 76 6c 3e
       -0.11250069 0.043043267 -0.17277992 0.23092192
000030 30 68 9f bd cc 70 83 bd 4f 97 90 3e 6d 41 86 bd
       -0.07783544 -0.06417999 0.2824044 -0.06555448
000040 73 bc ca bd 52 77 d7 3d fe 97 85 bd 6e b1 99 bd
       -0.09899225 0.105208054 -0.06523131 -0.07504545
000050 45 eb 95 be c7 32 ea 3d 4b 36 ae bc ee 33 7e 3e
       -0.2928106 0.11435466 -0.021266123 0.24824497
000060 9c 10 e9 be cd 52 d2 3c f9 65 f6 3d 25 b9 eb bd
       -0.45520484 0.025674248 0.120311685 -0.11509923
000070 28 c4 62 3e 0f 19 aa 3d 5b a7 47 bc ab 3b 9b 3e
       0.2214514 0.08305561 -0.012185897 0.3031896
000080 31 16 41 3e 99 6b 86 3d 2c b6 1a be 4d c1 b5 3d
       0.18856122 0.065634914 -0.15108556 0.0887476
000090 a1 80 a1 3e 3b 5a 5b be 64 6c 1e 3e c7 2e 3a bc
       0.3154345 -0.21421139 0.15471035 -0.011363692
0000a0 3e d6 83 3d 31 81 2c bd 55 39 24 3e 85 cb 03 3e
       0.06437348 -0.042115394 0.16037495 0.12870605
0000b0 55 63 b3 3d 60 d7 a4 3d fe b2 b4 be ef d6 d3 3d
       0.087591805 0.08048892 -0.3529281 0.1034373
0000c0 e3 17 0c 3e 5a b6 32 be 4b b5 49 3d d0 46 59 be
       0.13680987 -0.17452374 0.04924516 -0.21218419
0000d0 70 ab ec 3d 73 63 ca 3d 99 f2 d9 bd f5 60 e6 3d
       0.115561366 0.0988225 -0.10641975 0.11248962
0000e0 fa 1e b1 bd aa 9c 86 3d e2 a1 bd bd 5a 91 c8 3d
       -0.086484864 0.0657285 -0.09259392 0.097933486
0000f0 fa 34 c2 bd 1e ea 3d be 81 de 58 be 7c 68 2e 3d
       -0.09482761 -0.1854634 -0.21178629 0.042580113
000100 74 c8 13 3d 5c 46 12 be ae 6c 46 bf 8b 79 1a be
       0.03607984 -0.14284652 -0.7750958 -0.15085427
000110 0a ea 6e bd 48 f2 0b bc 46 b7 8b 3d e0 41 8f 3d
       -0.058328666 -0.008541651 0.06822066 0.069949865
000120 48 d9 e2 bd 0b 90 04 3e bb 1e cc bc ce 1d 12 3f
       -0.11076599 0.12945573 -0.024916997 0.5707673
000130 9d 79 1f 3d 5c ba 62 3d d8 36 35 bd f9 83 cb 3c
       0.03893434 0.055353507 -0.044241756 0.024843203
000140 68 8d 15 3d 27 19 7b 3d 13 38 46 bd 57 14 ee bc
       0.03651181 0.061303284 -0.04839332 -0.029062433
000150 02 50 7f be 3a 04 ed 3d e3 87 0f be 5a 42 d7 3d
       -0.24932864 0.11573072 -0.1401668 0.105107024
000160 f3 e6 98 be da b0 9c bd 55 cb 85 3d dd 00 11 3d
       -0.298637 -0.07650919 0.06532923 0.035401214
000170 8a 97 9d 3d 8a c1 22 3e ba a8 b1 bd 5f eb 2f 3f
       0.076949194 0.15894142 -0.0867476 0.6871852
000180 90 59 39 3e 69 4d 0d 3e e7 df 46 3d 02 19 30 bd
       0.18100572 0.13799061 0.048553374 -0.0429926
000190 79 71 0c 3f 20 82 a5 be d2 94 2d 3e 66 55 fa 3c
       0.54860646 -0.3232584 0.16951302 0.0305583
0001a0 f3 0c 17 3e 32 9e 18 be 59 64 ea 3d 1f a7 ff bd
       0.14751033 -0.14904097 0.11444921 -0.12483048
0001b0 37 06 ac 3d 06 6c a4 3d 4b 9f 30 bf f6 a6 86 3d
       0.08399623 0.08028416 -0.6899306 0.06574814
0001c0 8f 23 1f 3e 6d be 2d be 90 7d 1a bc 77 3e 9d bd
       0.15540908 -0.16967173 -0.0094293505 -0.0767793
0001d0 06 12 33 3c ff 20 8c bd 6f 34 72 bd 8f 01 eb 3c
       0.01092959 -0.06842231 -0.059132036 0.028687267
0001e0 f1 27 2e 3a 5c 5d 22 3e b7 01 a2 bd 41 7f 1c 3e
       0.0006643525 0.15855926 -0.07910483 0.15282919
0001f0 51 11 0a be e9 3b d3 3c ff 05 1f be 21 f6 ac 3b
       -0.13483168 0.025785403 -0.15529631 0.0052783643
000200 8c 45 5f bd 53 6a 33 be e9 0e 04 bf 42 1f 58 bd
       -0.054509684 -0.17521028 -0.5158525 -0.052764185
000210 05 95 22 be 03 4c 32 3e 64 75 82 3d 3b 41 cc 3d
       -0.15877159 0.17411809 0.06370047 0.09973379
000220 db 58 0b be e7 43 2a 3d 0e 76 c6 ba 7a 8d e2 3e
       -0.13608114 0.041568663 -0.0015141384 0.44248563
000230 c2 52 95 3d 87 8e 3c 3e d6 e6 93 3e a2 46 da bc
       0.072911754 0.18413745 0.2888705 -0.026645008
000240 4d ad c7 bd f5 07 f6 3d 19 b1 ea 3d 2e 2f 03 3e
       -0.097498514 0.120132364 0.1145956 0.12810966
000250 b7 b7 5f be ae 9a 61 3d 9e b8 5e bd b7 f6 68 3e
       -0.21847425 0.055079155 -0.054375283 0.22750364
000260 0b 41 ea be de c5 07 bc 00 93 fc bc aa d3 e6 bd
       -0.4575275 -0.008286921 -0.030831814 -0.112708405
000270 2a 05 b0 3d aa 45 34 3e 3d ed bf bd e9 52 37 3f
       0.08594735 0.176047 -0.093714215 0.71610886
000280 16 01 2a bd 4b 2e 18 bd 13 33 e4 3c 20 b7 9e bd
       -0.041504942 -0.037153523 0.027856385 -0.07749772
000290 ad 6c 27 3f 49 eb 0f bf 6c 43 d8 3e a3 cb 05 3e
       0.654002 -0.5621839 0.4223894 0.13065962
0002a0 c2 6b 8e 3d df 97 c6 bd 81 c5 c4 3d 99 3a 3d 3d
       0.06954147 -0.09696936 0.096079834 0.04619846
0002b0 98 a5 a8 bd 2d 42 f0 bd 15 3c c4 be af 05 0c 3e
       -0.082347095 -0.11731372 -0.3832709 0.13674043
0002c0 fd b5 9e 3d e3 fb 13 be e9 b0 c7 bd 70 47 fb bd
       0.07749555 -0.14451556 -0.0975054 -0.12269485
0002d0 60 8a 3e 3e 09 9b 82 bd e0 e0 80 be 0f 51 f2 bc
       0.18607473 -0.06377227 -0.25171566 -0.029579667
0002e0 19 86 9b bd 5a 67 61 3e fa 0e 5d bd 40 df 63 3d
       -0.075939365 0.22012082 -0.05396936 0.05563283
0002f0 dd 70 72 be bf 71 35 be 26 dd 42 be 2f a2 9c bc
       -0.23675866 -0.17719172 -0.19029674 -0.019120304
000300 95 d6 71 bd d8 b0 60 3e e6 b7 ee 3e a6 10 a6 bd
       -0.059042532 0.2194246 0.46624678 -0.08108644
000310 65 4d 8b 3d cc 38 25 be ee 88 a6 3d ab e0 08 3d
       0.06801871 -0.16134948 0.08131586 0.033417385
000320 2e fa 1a 3e 71 78 41 3d b4 74 28 3e 38 31 bb be
       0.15134498 0.047234003 0.16450769 -0.36560988
000330 09 f0 e5 bd f9 2a 74 bd d5 fc 83 be 4d 25 04 3d
       -0.11227424 -0.059611294 -0.25778833 0.032262135
000340 68 10 8a 3d 8c c6 4b bd e4 01 d0 bd 18 a7 cd 3b
       0.067414105 -0.049749896 -0.101566106 0.0062760226
000350 da a7 86 3e 2a 67 c4 bd 3d 7d 22 3e 3a af 56 be
       0.26299936 -0.095899895 0.15868087 -0.20965281
000360 23 a8 f8 3e 73 97 9f 3d 36 06 fd 3b 67 71 00 3a
       0.48565778 0.077925585 0.0077216877 0.0004899711
000370 28 ae 39 be c9 4e 14 be 06 10 de 3c a7 2a 11 bf
       -0.18132842 -0.14483179 0.02710725 -0.5670571
000380 bb a8 cd bc 2d 49 7d bd c5 67 99 3d 57 da 54 3d
       -0.025104871 -0.061837364 0.074904956 0.051966038
000390 12 a0 1a bf 40 e2 fb 3e a6 3c ca be b3 a9 65 bd
       -0.604005 0.49196053 -0.39499396 -0.05607004
0003a0 01 36 89 bd 75 05 8b bd 46 c8 08 bd a2 58 19 be
       -0.066997536 -0.0678815 -0.03339412 -0.14975217
0003b0 27 53 79 3c 9c 27 b2 bd 4e 2f f1 3e d4 14 a9 3d
       0.015217579 -0.08698961 0.47106403 0.08255926
0003c0 a9 4b bd 3c 67 c7 00 3e b8 51 f8 3d 87 11 53 3e
       0.023107367 0.12576066 0.121249616 0.20612155
0003d0 ee 67 3d 3b 07 03 14 3e 14 a7 cd 3d 3d 45 64 bd
       0.0028901058 0.1445428 0.10041633 -0.055730093
0003e0 5d 9c 08 3e 43 47 8e bd 39 5f 29 be 38 16 52 be
       0.13340898 -0.06947186 -0.16540231 -0.20516288
0003f0 6d 4a 72 3e f3 70 5d 3e 47 a9 82 3e e3 bb fa 3d
       0.23661204 0.21625118 0.25519773 0.12242868

net.1.bias f4 [64]
000000 f9 56 f0 bd 54 34 a1 bd 85 d4 b1 3d 06 92 fb 3c
       -0.11735339 -0.07871309 0.08683113 0.030709278
000010 c2 c5 dd bd 36 79 ee bd 52 19 df bd a9 55 7d 3d
       -0.10828735 -0.11644213 -0.10893501 0.06184927
000020 bf 83 9f bd cb 05 3d bc 0a 65 b8 3d af d3 a5 3d
       -0.077888004 -0.011537026 0.09003647 0.08097016
000030 c3 0d cc bd 71 48 24 be 79 da eb 3d 38 9c 83 3d
       -0.09963562 -0.16043259 0.1151628 0.06426281
000040 87 7f 7d bd bf fd 28 3d 21 0e 3b bd 06 76 a1 bd
       -0.061889198 0.041257616 -0.04566777 -0.07883839
000050 80 1e 1b 3e 1d 18 9c 3d 34 45 de 3d 55 b6 65 bd
       0.15148354 0.07621787 0.10853043 -0.05608209
000060 a4 6e 9b 3b a1 14 ce 3d 1c c2 48 bd 2e 93 a7 3d
       0.004743414 0.100625284 -0.049013242 0.08182369
000070 dc dc 72 3d 90 35 0a be 91 63 9f 3d f1 01 88 3c
       0.05929266 -0.13496995 0.07782663 0.016602488
000080 b7 0e c0 3c 32 2b ed 3d 59 18 3f bd d8 b0 7c bd
       0.023444517 0.115805045 -0.04665408 -0.06169209
000090 ae b1 4d 3d 31 4a 81 3d 45 f9 bc bd f5 ce fe bc
       0.050218277 0.06312979 -0.09227232 -0.031104544
0000a0 a2 8c ec bb 66 08 ff bc 49 ec 1f 3e 12 7b 5d bd
       -0.007218913 -0.031131934 0.1561748 -0.054072447
0000b0 ec c4 02 3e d5 97 8a bd de a3 93 bd e3 e0 a7 bd
       0.12770432 -0.06767241 -0.072089896 -0.081971906
0000c0 c0 cc db bd 5e cb 1b be f3 7f 90 3d 90 43 9a bc
       -0.10732412 -0.15214297 0.070556544 -0.018831044
0000d0 55 77 04 3e 4d 72 de bd df 23 b8 bc 25 fb f4 3c
       0.12936147 -0.10861645 -0.022478042 0.029904911
0000e0 a7 fd f5 bd 16 3a aa 3d 5c dc e7 3d 9b 67 68 3d
       -0.12011271 0.0831186 0.11321327 0.05673943
0000f0 de 2e 02 be e5 fa 98 bd 31 93 03 3d 90 76 8f bd
       -0.12713191 -0.07469729 0.032122795 -0.07005036
