2_Party/shadow_model_data/shadow_minus_F_client2_bottom.pt (torch, 20288 bytes, 4 tensors)

net.0.weight f4 [64, 4]
00000000: ad32 7cbf 929e db3e 261c e33d 63b3 34bd
00000010: f493 813f 1fef 0ebf d69a 903d 50ce 4f3f
00000020: 602f 49bf 792e ba3f ebe0 9f3f 9003 babf
00000030: 81a0 44bf c4a0 69bf 09ea 2fbf b3f0 e23f
00000040: e998 6b3f 4887 18be dfb2 10be 428c 4b3f
00000050: e1ad 80bf 6833 143f 62c1 a5bd cfda cbbe
00000060: 0a91 203f ec38 b93f aff8 0440 143e 41c0
00000070: 9f92 5f3f e2a9 8abe c491 d33e b354 27bf
00000080: cc1b c5be 71a0 bcbd f07b 173f 9d18 edbe
00000090: 9e65 8ebf 98ab 483a cfa9 73be 4e0c 96be
000000a0: 69b4 8dbf 91b8 12be 5621 b03d 7dff 00bf
000000b0: ec1d 183f fe62 623e d3d4 04bf 178d e9be
000000c0: 5082 78bf a8c0 acbd 3095 25bd 0a27 87be
000000d0: b4c0 6c3f d29c 16bf 6fdd a33d f79b ffbb
000000e0: c9e4 423f ca42 3abf 9a6a d13d cbbd df3d
000000f0: 2924 90bf 1f15 f03b 5bb3 023e 6c40 15bf
00000100: 7669 61bf 8b8f 7c3f c20e 693f 3100 ddbf
00000110: 1f8e 4f3f e29f 643e 8bf5 71be 9e36 1b3f
00000120: 5017 70bf 10b2 683e d19f 643f 96f6 8fbd
00000130: 9964 86bf 2f82 cf3e 7c0d f6bd a71d 09bf
00000140: 6395 8c3f bc07 22be c9f8 1bbe 5451 babe
00000150: acc2 8ebf 55e9 b3bd a811 97be 5907 c23e
00000160: e3cd 543f 88d2 a23e c5f5 dc3e 28c3 edbd
00000170: 3364 1d3f 88ce 053e 4e88 dbbe a724 163f
00000180: 991c 543f 552b 89be ddbb 1c3c a740 e33e
00000190: c517 36bf b830 c43e f4cf b2bd 96ea 18be
000001a0: bc8a 39bf 30e7 de3e f3b4 a23d 949f 52bf
000001b0: e2ca 45bf 87df a33d 4599 4a3f 8af2 58bf
000001c0: b2b7 48bf 1ad7 2a3f 0ec7 6e3f 7368 0fbf
000001d0: 9b35 82bf c556 053e 4097 283f 3f84 8d3c
000001e0: c615 7dbf 0a6f 253f c5e0 083f ad1b febc
000001f0: c90b 943f 003a a2be 8f45 6fbe 8a95 d6be
00000200: a1af 4dbf df23 523e 1688 e13e b9ce 25bf
00000210: 457b 743f e2a1 44bf c93f f0be 6f62 d13e
00000220: d59f 56bf 37ac b6be dedf 1dbe 2041 c73e
00000230: 721c 663f 398c b7be 52b6 71bd af5d a33e
00000240: 77c7 72bf 3ba2 053d 9d85 953e eaee dbbc
00000250: 1aec 16bf 1b07 4c3f d9f5 583f f773 cfbf
00000260: 766f 873f 539f 5a3e d97e 383d a422 d73e
00000270: b4a6 66bf 64ec eb3e 8a39 99bc d071 34bf
00000280: d00d 16bf 9ba4 8c3f c026 843f 52c4 85bf
00000290: d899 85bf b17f 483f 9224 0bbe 93b1 c4be
000002a0: 42a7 6dbf 948c 433e 51cd 443e 6d93 843e
000002b0: 835a 3d3f ff0a c0bd 86d6 09bf 22b7 203f
000002c0: ca3d 1c3f 011b d43e 3c43 153f 593c 55bf
000002d0: fbdc 343f 4ace 263e bdda 04bf cfdd 01bf
000002e0: 13f4 093f b15f 6bbf f082 99be 6cb5 313f
000002f0: 99c9 80bf 0404 5e3e f543 d23e a69d 8c3e
00000300: 602d 77bf 8891 c33e 7d17 6cbe 0b2f 223e
00000310: 43ed bc3d b4f4 b1bf 9e17 96bf 40d7 2d40
00000320: 452e 8dbf c6ae 013f 026f c33e 3e0e 10be
00000330: eecb 7f3f cba5 9b3e 12e3 8ebe 9b88 cbbe
00000340: a7d5 15bf bcef 713f 6fad 203e e614 c43e
00000350: 515b 43bf 6633 773f 15db 7f3f b522 6dbf
00000360: 0273 5abf 3525 a33e 5891 d03d b2e4 38bf
00000370: eb7d cfbe b427 b93e c7b1 243f 4862 07bf
00000380: ab00 8a3f 340d 03bf 5a43 38be c3cf 203f
00000390: ea60 3e3f cd74 68be d90a 26bc c6a2 303f
000003a0: 46ce 833f 9077 08bf b140 22be 1eb6 fbbd
000003b0: 4dc5 e7be f957 9c3f f9e2 493f f0b2 03c0
000003c0: e94b 24bf 4211 0dbf 4dba 10be a799 c63d
000003d0: b8eb 8abf ab4a 61be 1f44 2a3f 39c7 80be
000003e0: 702b 183f 0be0 e03d 58d9 16bf 4bba 0d3e
000003f0: ba0b 82bf 5e56 e33d c4c8 c8bd 4c8a 49bf
-0.98514825 0.42894417 0.11089353 -0.04411639 1.0123277 -0.5583362 0.070607826 0.8117418
-0.78587914 1.4545432 1.2490515 -1.4532337 -0.7680741 -0.91260934 -0.68716484 1.7729706
0.920302 -0.14895356 -0.14130734 0.7951089 -1.0053064 0.5789094 -0.080935255 -0.39815375
0.6272131 1.4470496 2.0776784 -3.019414 0.873331 -0.27082735 0.41322148 -0.65363616
-0.3849777 -0.09210289 0.5917349 -0.4630784 -1.1124761 0.0007654964 -0.23795246 -0.29306263
-1.1070682 -0.14328219 0.08600108 -0.50389844 0.5942066 0.22108075 -0.51887244 -0.45615456
-0.9707384 -0.08435184 -0.04042548 -0.26396972 0.9248154 -0.5883304 0.080012195 -0.007800575
0.7613035 -0.7275816 0.10225411 0.10924872 -1.1261035 0.0073267366 0.12763731 -0.58301425
-0.88051546 0.9865653 0.91038144 -1.7265683 0.81076235 0.22326615 -0.23628823 0.60630214
-0.9378557 0.22724175 0.8930636 -0.070294544 -1.049945 0.4052901 -0.12014291 -0.5356087
1.0983089 -0.15823263 -0.15231623 -0.36390173 -1.1153159 -0.08784739 -0.29505658 0.3789623
0.8312666 0.31801248 0.43156257 -0.11609489 0.61481017 0.13067067 -0.4287743 0.5864968
0.82856137 -0.26790872 0.0095662745 0.44385263 -0.7113002 0.3831842 -0.0873107 -0.14933237
-0.72477317 0.43535757 0.079446696 -0.82274747 -0.772627 0.08001619 0.7914012 -0.84745085
-0.78405297 0.6673447 0.93272483 -0.5601875 -1.0172609 0.13021381 0.6585579 0.017274974
-0.9886135 0.6462256 0.5346797 -0.031019056 1.1566097 -0.31684875 -0.23366378 -0.41910964
-0.80346113 0.20521496 0.44049138 -0.6476856 0.95500594 -0.76809514 -0.46923664 0.4089541
-0.83837634 -0.35678264 -0.1541743 0.38916874 0.89887154 -0.3584917 -0.059011765 0.31907412
-0.9483561 0.03262542 0.292035 -0.026847322 -0.5895401 0.7969834 0.84750134 -1.6207265
1.058089 0.2134984 0.045042846 0.42018616 -0.9009812 0.4607879 -0.018704195 -0.70486164
-0.58614826 1.0987734 1.0324326 -1.0450537 -1.0437574 0.7831984 -0.13588169 -0.38416728
-0.9283334 0.19096595 0.19218947 0.25893727 0.73966235 -0.09377097 -0.5384296 0.6277944
0.6103178 0.41426852 0.58305717 -0.8329521 0.7064969 0.1628963 -0.5189627 -0.5072908
0.5388805 -0.9194289 -0.2998271 0.6941745 -1.0061523 0.2168122 0.41067472 0.27464026
-0.9655361 0.3819697 -0.23055835 0.15838258 0.092249416 -1.3902802 -1.1725957 2.7162628
-1.1029745 0.5065731 0.3817063 -0.14067933 0.99920547 0.30399927 -0.27907616 -0.3975266
-0.5852913 0.9450643 0.1569116 0.38297194 -0.7631121 0.965628 0.9994367 -0.92631084
-0.8533174 0.31864324 0.10183972 -0.7222396 -0.40525755 0.36163104 0.64333767 -0.5288434
1.0781454 -0.5119202 -0.17994443 0.6281702 0.7436663 -0.22700806 -0.010134422 0.6899837
1.0297325 -0.5330744 -0.1584499 -0.122905955 -0.45267716 1.2214347 0.7886196 -2.0577965
-0.6417833 -0.5510446 -0.14133568 0.096972756 -1.0853186 -0.2200114 0.66510195 -0.25151995
0.5944128 0.10980233 -0.5892539 0.13840596 -1.0159829 0.111004576 -0.09803918 -0.7872665

net.0.bias f4 [64]
00000000: 9bb6 263e f0e5 933d 12c8 95be d64f aa3e
00000010: e0b4 f03e e784 bbbe 54e6 c4bd 9a27 a1be
00000020: 6355 cc3e d747 293d 73ce 71be 3713 a6be
00000030: bceb 87be b38f 20bd 68c5 3ebe a12d 65bd
00000040: 38d8 dabe 9765 d93e a41a 13bb 5741 fb3d
00000050: 6350 0b3d 9674 8c3e d3b5 5e3e ed98 77be
00000060: 5b4d 22be 4f70 89be e8cd cdbe ceb8 a93e
00000070: e63c b63d ced4 c5be 2554 bb3d d58f ffbd
00000080: 1c6d b3bd 5fe3 653d 1b1d 4bbb b4b8 783d
00000090: d1d1 a8bd 4395 47be 2500 23be 7fc1 c4be
000000a0: bca7 883e ce2c 7fbe 89fd 403e 231e c1bd
000000b0: 879c 71be 0603 593e 35ec ad3e fe9a b03e
000000c0: b424 2fbe 73c6 7a3e c981 393e 1837 6c3e
000000d0: 1f07 043f 9896 e43d e382 f03e 94e5 c1be
000000e0: 9501 583e b9a8 cf3d a309 8abe 666d 9bbe
000000f0: f21b 673e 3b9f d3be c448 c9be 1dc3 99be
0.16280596 0.072215915 -0.29254204 0.33264035 0.47012997 -0.36624834 -0.09614244 -0.31475526
0.39908895 0.041328277 -0.2361391 -0.32436535 -0.2654704 -0.039199542 -0.18629992 -0.05595172
-0.42743087 0.4246032 -0.00224463 0.12268322 0.03401221 0.27432698 0.21749048 -0.2417943
-0.15849821 -0.26843497 -0.40196157 0.33148807 0.08898334 -0.3863892 0.09146909 -0.12478606
-0.08761045 0.05612504 -0.003099269 0.06072302 -0.08243144 -0.19490533 -0.15918024 -0.38428876
0.2669047 -0.24919435 0.18846716 -0.09429576 -0.23594867 0.2119256 0.33969274 0.3449325
-0.17103845 0.24489765 0.18115915 0.23067892 0.51573366 0.11161536 0.4697486 -0.37870467
0.21094353 0.10139603 -0.26960477 -0.30356902 0.22569254 -0.4133242 -0.39313328 -0.30031672

net.1.weight f4 [64, 64]
00000000: e601 87be 6a8d 923e 7645 ddbd ef88 e1bd
00000010: 178b 403e 6786 c43b 0105 b53d 1b95 f23d
00000020: 7dbe 76bd 24fd 9ebe 2bca 80bc 7322 5d3c
00000030: c574 33be cdf8 623e 5dfc a43d 4b46 4abe
00000040: 5eee 93bd ad64 1e3c a8e4 e4be daf7 4dbe
00000050: b679 e13e 9292 35be 8ac1 763d 7aa9 ec3b
00000060: 32eb aa3d aafe aaba 8f65 28be 794a 223b
00000070: 77ba ab3c 32a4 43bd 912d b0bd 928f 2d3e
00000080: 1571 89be 1d72 6e3e 7b26 ebbe 0e20 a13e
00000090: 4a22 45be b45c 973c f467 7f3e da3f 8dbd
000000a0: 9625 77bd a420 88bd d2f5 0abe f419 06bd
000000b0: 773c 6fbc 5a08 09bd 8147 8c3d e387 4cbe
000000c0: 8618 40be 9261 16bc 4181 6dbe 9096 dd3c
000000d0: a0f5 093d 113b a3bd dfb8 1c3d d153 20bc
000000e0: 6b82 613e 1b6f b53d 0a35 283e dfeb a2bd
000000f0: c6cd 0ebe 8059 d1bd 53d9 d7bd c0c3 36be
00000100: f4ba 653e ddf8 95be 3280 7cbd 7cbc fd3d
00000110: a6fa f3bd f005 913d 0f2b a9bc ceb9 a3bb
00000120: 24f3 593d cede ba3e f85e 453e 324b cbbd
00000130: abc5 5f3d eeb8 c3be 79c1 30be a88e af3e
00000140: 9e0e e73d ea41 21be 6fe5 e03e 4144 5b3e
00000150: 0f01 e0be 0f56 353e 9610 4fbe a872 aebd
00000160: ad12 f1bd c3fb 1bbd 7d1a 693c 1c28 26bd
00000170: b7b9 2c3d 6e04 b83d cb20 9e3e 96ce b6bd
00000180: ab50 453e 4d36 b0be f22b 0a3f 1a6b b2be
00000190: e723 923e 21c5 0b3e 9137 f4bd 6655 d1bc
000001a0: c67d 043e 122d 6f3d 3add 533d ff6c d5bc
000001b0: 61d2 debd 26ba febd 960a babd 3bba 11bd
000001c0: 5b7f 713e 1def ce3c 20fd 473e 08fc 0fbe
000001d0: de8d 663d 20bf 46bd db37 bf3d ffb8 fc3d
000001e0: 2bbd 30be e805 a9bd 4cde 1cbe 9ee4 043e
000001f0: 69c4 043e 24dc fd3b 3e96 febc 7ed5 dd3d
00000200: f5eb c7bd 97f5 54be 74ab 8f3e 1256 d6bd
00000210: b138 22be 18f4 983d 6a0f 813e 8038 ed3d
00000220: b180 ca3c b73f 58be 3a2c edbd 9b8d bb3d
00000230: 4f57 d33c 49bd 2c3c 34f8 d33d f650 5c3c
00000240: 2c19 f23c 0986 983b 8a0c 223e f80a b4bd
00000250: 39b6 a83e 01dd 69be 8a72 093e cdd3 b83c
00000260: 1084 e13c 819f 063e 0e9e 083e b144 1cbd
00000270: 44f2 443e 440a 073e 3c50 d03d 7511 363d
00000280: eae7 4e3e 171a 5dbe 2d1b 62bf 3202 ebbd
00000290: 6440 14be 8da6 143e 7095 553d 5d9a 123c
000002a0: f7ff 3f3e e18b 11bd a47e 2ebd 1813 31bc
000002b0: 9e71 213e 03d5 21bd bc36 bfbd 17b6 53bd
000002c0: abc8 4cbb b26f 21be af70 c1bd f900 333d
000002d0: a106 353d 8eeb 783e 9c5a f6bd 6e45 a13c
000002e0: c8d4 20bd 3987 e9ba ffcf 0f3e ed41 8a3e
000002f0: 6170 acbc 0772 b1bd 1512 fb3d b7ef b23c
00000300: c5af 92be cdd6 8c3e 0bd1 a33d 6d28 57be
00000310: 68c7 32bd d43c 363d b486 823e fa9b 333e
00000320: 354a bcbd f9ee adbe f021 f4bd c8e8 113e
00000330: 132e 4a3c d1b6 d53e 2936 163e f389 58be
00000340: bb3e 903c 8f2a 80bd 699d f5be 9bcb 0ebe
00000350: 0328 033f 5d69 73be ceb6 c93d 2f0c cc3d
00000360: 67da 3f3e 60e1 08bd 59b1 05bd 91fe f33c
00000370: 0729 923d 952c 2abe 599f 19be ad63 ba3e
00000380: 8850 c3bd 388e 163e e744 4dbf c5f0 453e
00000390: f91c 47be 660e b83d b157 6a3e 3b8d 15be
000003a0: 3276 94bd 04fd eb3c 0c94 11be 44b9 123c
000003b0: d275 ea3c a679 873c f056 18be 241a 5fbe
000003c0: d70e 49be a026 53be 4829 38be f392 263e
000003d0: 807d 0cbe 89fb dabd 0622 37bd 27bc c0bc
000003e0: a755 533e 84bf 0d3e 74d6 963d acdd 383e
000003f0: 5ab1 32be 3a4a a9bd 8a01 cfba 945a ccbc
-0.26368636 0.28623515 -0.10804264 -0.11012446 0.18803059 0.0059974673 0.08838845 0.11844846
-0.060240258 -0.31052506 -0.015721401 0.013496983 -0.17525013 0.22165222 0.08055947 -0.19753377
-0.07223199 0.009667558 -0.447057 -0.20114079 0.4403817 -0.17731693 0.060243167 0.0072223516
0.08345641 -0.0013045867 -0.16444992 0.0024763627 0.020962937 -0.04776401 -0.08602441 0.16949299
-0.26844087 0.23285718 -0.45927796 0.31469768 -0.19251361 0.018476821 0.24941999 -0.06896944
-0.06033858 -0.06646851 -0.13570336 -0.032739595 -0.014601818 -0.03345523 0.06849576 -0.19973712
-0.18759355 -0.009178536 -0.23193838 0.027049333 0.033681512 -0.079702504 0.038262244 -0.009785608
0.22022407 0.08859082 0.16426483 -0.07955145 -0.13945684 -0.10222149 -0.10539498 -0.1784811
0.22434598 -0.2929143 -0.061645694 0.12389466 -0.11913042 0.070812106 -0.020650415 -0.004996515
0.053210393 0.3649811 0.19274509 -0.09926452 0.05463187 -0.38227028 -0.17261304 0.34288526
0.11282085 -0.157478 0.43925044 0.21412756 -0.43750808 0.1770861 -0.20221171 -0.08517963
-0.1177114 -0.038081896 0.014227507 -0.040565595 0.0421693 0.0898522 0.30884394 -0.08926122
0.19269054 -0.34416428 0.53973305 -0.34847337 0.28543016 0.13649417 -0.11924661 -0.025553416
0.12938604 0.05839259 0.05172465 -0.02605295 -0.1087997 -0.12437849 -0.0908405 -0.035577994
0.23583739 0.025260502 0.19530153 -0.14060986 0.05628764 -0.048522115 0.093368255 0.12339973
-0.17259662 -0.0825308 -0.15319175 0.12977836 0.1296555 0.00774719 -0.0310775 0.10831736
-0.09761802 -0.2079681 0.28060496 -0.10465635 -0.15841939 0.07468432 0.25207072 0.11583042
0.024719568 -0.21118055 -0.11580701 0.091578685 0.025798468 0.010543176 0.10350075 0.013447037
0.029553019 0.00465465 0.15825096 -0.087911546 0.32951525 -0.22838213 0.134226 0.022561932
0.027528793 0.13146783 0.13341543 -0.038151447 0.19233042 0.1318751 0.101715535 0.044450242
0.20205656 -0.21591984 -0.88322717 -0.11475028 -0.14477688 0.14516659 0.052144468 0.008947936
0.18749987 -0.03553379 -0.042601243 -0.010807775 0.15765998 -0.039509784 -0.09336612 -0.051687326
-0.0031247537 -0.15765265 -0.09445321 0.0437021 0.044195775 0.24308607 -0.12029001 0.019686427
-0.039265424 -0.0017816789 0.14044188 0.27003422 -0.02104968 -0.08664327 0.12259308 0.02184282
-0.28649727 0.2750763 0.07998856 -0.21011515 -0.0436472 0.044491604 0.25493395 0.17539969
-0.09193841 -0.33971384 -0.119205356 0.14248955 0.0123400865 0.4174104 0.14669098 -0.21146373
0.017608037 -0.062581174 -0.47971657 -0.13944857 0.5123293 -0.23770662 0.0984932 0.09963261
0.18735658 -0.03341806 -0.032639835 0.029784473 0.071367316 -0.16618569 -0.15002193 0.36404172
-0.095368445 0.1470269 -0.8018326 0.19330128 -0.19444646 0.08987121 0.22885014 -0.14604656
-0.072491065 0.02880717 -0.14216632 0.008955304 0.028620634 0.016537499 -0.14876914 -0.21787316
-0.19634567 -0.20620203 -0.17984498 0.16266994 -0.1371975 -0.10692508 -0.04471018 -0.023527218
0.20638143 0.13842589 0.073651224 0.18053311 -0.17450467 -0.08266111 -0.0015793305 -0.024945535

net.1.bias f4 [64]
00000000: 0b46 ed3d a0b6 b2bd f346 7d3d 9e40 8e3d
00000010: fdf8 f3bd c379 923d c2a0 ff3d eb81 bfbd
00000020: 26f4 683d f016 b9bc bca0 123d 154d 60bd
00000030: 384f 0e3e afc5 4cbb a837 8cbb 5e5d 863d
00000040: d54d 113c 611a 243c d6e3 16bd 79d4 b1bd
00000050: fd5c 93bd bdbb 08be f5c2 93bc c8ba 353d
00000060: 6f7c 16be 409d 9fbc 777c a73d 0d09 323d
00000070: 2710 983c b1f4 d63b 60b3 55bd 854d 553c
00000080: d020 a9bd a224 363d c7a7 fabd 43ea 6abc
00000090: 94d0 a6bd edcb 8f3d e031 0a3e bcbd fabd
000000a0: 33ac 9e3d 5c63 943c 958a bdbd d123 16bd
000000b0: c8c4 febd 54a9 82bd acf9 583c 133c 10be
000000c0: 7d80 bf3d 4207 063d 16fc ccbc 141f f23d
000000d0: fdf7 423e 722b cf3d 0b48 973d 5edc 953c
000000e0: a3b1 c0bb c481 6abd dca7 61bd fbeb 053e
000000f0: fe5a 2abd 2cb6 023e f9cd cb3c a289 ea3c
0.11585625 -0.08726239 0.06183524 0.069459185 -0.11912725 0.071521305 0.12481834 -0.09350952
0.056873463 -0.022593945 0.03579782 -0.05476101 0.13897407 -0.0031245758 -0.0042790957 0.06560777
0.008868654 0.010016055 -0.036838375 -0.08683104 -0.071954705 -0.13352866 -0.018037299 0.04436758
-0.14695905 -0.019484162 0.08178037 0.043465663 0.01856239 0.006559931 -0.05217302 0.01301897
-0.082582116 0.04446853 -0.12239032 -0.014338079 -0.08145252 0.07021318 0.13495588 -0.1224322
0.07747688 0.018113784 -0.09254948 -0.03665525 -0.12439877 -0.06379953 0.01324312 -0.14085416
0.09350679 0.032721765 -0.025022548 0.11822334 0.19039913 0.101157084 0.07386788 0.018293556
-0.005880551 -0.05725266 -0.055091724 0.130783 -0.041590683 0.12764806 0.024878489 0.028630082
