2_Party/shadow_model_data/shadow_plus_F_client1_bottom_inter.pt (torch, 21928 bytes, 4 tensors)

net.0.weight f4 [64, 10]
000000 9e 05 b0 c0 8f 99 b2 c0 a0 d1 a5 3e 45 65 a6 be
       -5.5006857 -5.581245 0.32386494 -0.32499138
000010 94 d4 4f be 67 68 ae 3d df 90 4a 3e 17 b7 0c 3e
       -0.20295936 0.08516007 0.19781826 0.13741718
000020 52 b7 db 3d 94 7d 85 be 8f aa 1f bf a9 f9 f5 be
       0.10728325 -0.2607237 -0.62369627 -0.48042038
000030 12 1e be bf c7 d6 cb bf 51 a9 6a bd 5f 3d c9 3e
       -1.4852927 -1.592492 -0.05729038 0.39304635
000040 6c ee bd 3e 6b 47 a3 3e 58 c4 7f 3e 58 4d f0 3e
       0.37095964 0.31890425 0.24977243 0.4693401
000050 6c 89 2b be 86 35 ab 3d 39 ca 20 be 46 a8 98 be
       -0.16751641 0.08359818 -0.15702142 -0.29815882
000060 38 74 08 be e1 48 ac 3d f5 04 00 3e c7 8d f3 bd
       -0.13325584 0.08412338 0.12501891 -0.11892276
000070 83 48 88 be e5 2d 6d be d8 a4 3b be 25 c0 3a bd
       -0.26617822 -0.23162039 -0.18324602 -0.0455934
000080 9b 28 a9 3d 6a 6b 87 3e 91 60 61 3e 43 dc 8c 3e
       0.08259698 0.26449138 0.22009493 0.27511796
000090 87 34 d0 3d d3 21 27 be 84 76 91 be 55 d2 ce 3b
       0.10166269 -0.16321497 -0.28410733 0.0063116946
0000a0 69 b4 db 3d a0 07 4a 3e 87 28 8c 3e 2f ca da 3c
       0.1072777 0.19729471 0.2737467 0.026707737
0000b0 38 81 80 3e 66 21 b7 ba 1a 36 ac 3d d1 63 41 3e
       0.25098586 -0.0013971746 0.084087566 0.18885733
0000c0 3c 3f 27 be b5 c0 64 3e 9e ef 6c 3e 38 36 18 bc
       -0.16332716 0.22339137 0.23138282 -0.0092902705
0000d0 d6 a0 13 be fc 87 12 be 95 7e 7d 3e 7e 7b b2 bd
       -0.14416823 -0.14309686 0.24755318 -0.087149605
0000e0 fe fd 1e 3d 2b d6 4d be 23 50 38 be 16 9e 96 3e
       0.038816445 -0.2010123 -0.1799932 0.29417485
0000f0 77 78 77 c0 24 cc 74 c0 75 62 c7 3f b0 19 bc 3e
       -3.8667276 -3.8249598 1.5576922 0.36738348
000100 e6 f9 de bd d2 e1 1b be 66 65 f3 bd 64 4f 1f be
       -0.10887508 -0.15222862 -0.118845746 -0.15557629
000110 bc fb b5 bc 92 27 43 bd 1e d2 3e 40 e5 77 25 40
       -0.022214763 -0.04764516 2.9815745 2.5854428
000120 09 4a 48 bf 1d 1a ac be 24 4d 4d 3e 88 e3 8e 3e
       -0.7823797 -0.33613673 0.20048958 0.27907968
000130 86 98 ba bd 91 69 35 3e f6 35 ee bd fc f8 c2 3e
       -0.09111123 0.17716052 -0.11631386 0.38080585
000140 eb fc 78 3f 53 d3 a0 3f 44 35 67 3f 9a c0 4f 3d
       0.9726092 1.2564491 0.9031565 0.05072079
000150 e9 ed d4 be 8d a0 b5 bd 1e 1d 0b 3d ce 32 ce 3d
       -0.4158776 -0.08868513 0.033963315 0.10068284
000160 5a 10 a0 be b3 19 98 be e3 6d 35 3f 0a b6 fc 3e
       -0.31262475 -0.29707107 0.708708 0.49357635
000170 ce a4 3f 3f 95 cc 08 3f cf 72 2f be f2 8a c1 be
       0.74860847 0.5343717 -0.1713364 -0.3780132
000180 f0 f7 9c be 65 ea bf be 09 04 84 be 2a 1c 96 bd
       -0.3065791 -0.37483516 -0.2578433 -0.073295906
000190 ee b7 30 40 18 91 1f 40 6d 23 03 3f 8b 6e 03 3f
       2.7612262 2.4932308 0.5122593 0.5134055
0001a0 92 15 89 be f0 67 46 be 30 d1 83 bd 3c e0 1e be
       -0.2677427 -0.19375587 -0.06436384 -0.15515226
0001b0 46 d1 17 be 75 d6 27 be 1e a2 23 bf 51 e4 06 bf
       -0.14825925 -0.16390403 -0.63919246 -0.52692133
0001c0 c9 93 e8 bf 86 53 e7 bf 08 a2 ad 3e 50 16 d6 3e
       -1.81701 -1.8072364 0.33912683 0.41813898
0001d0 b5 5e 90 3b 31 ea f2 3e df 29 cd 3e fa f4 13 3e
       0.004405821 0.474443 0.40071008 0.1444892
0001e0 ce ac cc bd e3 11 93 be ac 49 13 3e 1d 09 d5 3c
       -0.099938974 -0.28724584 0.14383572 0.026005322
0001f0 89 2f ad 3d 65 1e 1e 3d 8d 5f 4b 3e 79 64 0b 3e
       0.08456332 0.038603205 0.19860668 0.13612546
000200 65 2d 88 3e 57 e7 55 be 81 8b a2 bf 88 58 97 bf
       0.26597133 -0.2088903 -1.2698823 -1.1823893
000210 3e 6b 8d be e6 e2 43 bd b2 d4 97 be 3e 02 08 3d
       -0.27620882 -0.04782381 -0.2965446 0.033205263
000220 70 85 da be 17 9c 07 be 5f 49 e2 be 2b 02 77 3c
       -0.4267993 -0.13243137 -0.44196603 0.0150762005
000230 21 59 86 bd d1 51 dd bd a8 f4 0b 3e c5 6d 56 3e
       -0.06559969 -0.10806621 0.13667548 0.20940311
000240 c9 21 85 be dc 91 99 be 5b f6 8a 3e 1c 9a e6 bd
       -0.2600234 -0.29994094 0.2714108 -0.11259863
000250 45 61 84 be bc e0 80 be d7 27 15 3e 8d ea 8c 3d
       -0.2585546 -0.2517146 0.14565979 0.068806745
000260 61 d9 30 bd 6a 07 93 be d0 1b 72 bd 84 fe 99 3e
       -0.04317606 -0.28716594 -0.059108555 0.30076993
000270 2f 2d 94 3e 51 94 a2 bb 39 49 47 3e 0b 68 84 be
       0.28940722 -0.0049615283 0.19461526 -0.25860628
000280 21 4a 0e be 1a 8d 1b 3e a9 43 85 bd 68 a1 8a be
       -0.13895465 0.15190545 -0.06507046 -0.27076268
000290 3a 25 66 bd b5 9b 38 3e e4 7a 92 be d5 d2 cc bd
       -0.056187846 0.18028148 -0.28609383 -0.100011505
0002a0 6b 6f 15 3d c5 a4 85 be 36 0e 8c c0 6a 07 82 c0
       0.03648321 -0.26102272 -4.3767347 -4.063405
0002b0 8a 41 10 3f ab 77 22 be 62 0a 09 be 74 f5 ac 3d
       0.56350005 -0.15865962 -0.13382867 0.08445254
0002c0 4c 6d 26 be 3c ff 8f be 3b 28 17 3d 0b 45 be 3d
       -0.16252631 -0.28124416 0.0369036 0.09290513
0002d0 5e a5 5d bf b8 e5 28 bf a5 23 f4 bf ef 29 bc bf
       -0.86580455 -0.65975523 -1.9073378 -1.4700297
0002e0 fc 69 03 3c 48 91 6d 3e 43 94 d8 3e 05 bf bf 3e
       0.008020874 0.23199952 0.42300615 0.37450424
0002f0 08 7a b6 3e 16 72 8c 3e 3e 5c 25 c0 92 52 2a c0
       0.35639977 0.2743079 -2.583755 -2.6612897
000300 5b b2 85 be 6f e2 fb be 67 42 9b bd fb 83 16 be
       -0.26112637 -0.49196193 -0.075810246 -0.14698784
000310 4d 9b 1c 3e 1c 49 23 3e 32 9a a1 bb 9b 25 d4 bd
       0.15293618 0.15945858 -0.0049317116 -0.10358735
000320 e3 bc 75 be 96 53 8b be 75 e2 ce bd 20 6b b9 bd
       -0.23997836 -0.27212209 -0.10101787 -0.090536356
000330 b2 a5 80 be 82 4e bb 3d a4 77 0c 3e 15 f8 65 be
       -0.25126415 0.091458336 0.13717514 -0.22457917
000340 a4 1f bc ba f4 b8 5e 3e a0 94 b6 3e a2 55 29 3f
       -0.0014352691 0.21750242 0.35660267 0.6614629
000350 33 41 ae 3f 13 5e 50 3e 30 33 b4 be d8 51 be be
       1.3613647 0.20348386 -0.35195303 -0.37171817
000360 78 d7 7c be 6d cc 7c 3d 59 56 b3 be 3d 15 72 be
       -0.2469157 0.061718393 -0.35026816 -0.23640914
000370 1c 92 36 3e 76 c3 7d bc 0c c1 70 be 69 58 9c be
       0.17829174 -0.015488496 -0.23511142 -0.30536202
000380 8e 4d 90 3e 39 d4 8d 3e 6f 59 8d 3e ff 72 3f be
       0.2818417 0.27700976 0.27607295 -0.18696211
000390 55 6e 4e be ad 3f 8c 3e fc 3e 95 be 3f e4 56 bd
       -0.20159276 0.2739233 -0.29149616 -0.052463766
0003a0 9d 46 5c be bf e1 11 3d fb 29 11 bd 89 a6 ae bd
       -0.21511312 0.03561568 -0.035440426 -0.08527858
0003b0 24 08 f4 3c 4b 3e 6f be eb b7 83 be 6a 74 38 3e
       0.029789038 -0.23363607 -0.25726256 0.18013158
0003c0 53 f2 e7 bf 67 20 da bf 32 13 3b 3f 6f 5f e0 3e
       -1.8120826 -1.7041138 0.73076165 0.4382281
0003d0 51 47 88 3d 8e 6d 40 be ac 05 64 be b3 bc fb bd
       0.066542275 -0.18791792 -0.22267789 -0.12291851
0003e0 dc 39 69 3a fa 9d 37 be 4f 9b 3c be be 8b 96 3e
       0.00088968663 -0.17931357 -0.1841862 0.2940349
0003f0 96 fa 04 c0 21 2d dd bf d9 2a 09 3e c1 2b a8 3e
       -2.0777946 -1.7279397 0.13395251 0.32845882

net.0.bias f4 [64]
000000 d0 44 56 3e 2d d4 bd be 42 97 38 3d 0e ff 59 3e
       0.20924687 -0.3707594 0.045066126 0.21288702
000010 a9 fa 39 be b3 09 b7 bd bf 99 db bc ce 3a ec 3d
       -0.18162026 -0.08937397 -0.02680671 0.115346536
000020 51 7c db 3e b2 8d 8f 3e 35 61 7f 3e 13 92 74 be
       0.42868283 0.28037792 0.24939425 -0.23883848
000030 ed 5f 7f bd 1c 96 1f be 44 6f 70 be f6 d6 81 be
       -0.06234734 -0.15584606 -0.23479944 -0.25359315
000040 90 aa 1a be 12 21 ba 3d 79 18 c8 be ff b6 51 be
       -0.15104127 0.09088339 -0.3908117 -0.20479964
000050 6d 7a ad bd ff 3c 52 be a3 3e 75 3d 11 4a ac bd
       -0.084706165 -0.2053108 0.05987419 -0.084125645
000060 5d 05 5e 3e 8f c0 82 be 17 46 22 3d dc 94 a3 3e
       0.21681733 -0.25537536 0.039617624 0.31949508
000070 37 62 93 be 57 b8 63 be 18 b4 2e 3c 2e a5 83 3d
       -0.2878587 -0.22238289 0.010663055 0.0642799
000080 50 02 63 3e a1 42 d8 3b 8e 65 0d 3e 3a e9 5e bd
       0.22168851 0.0065997397 0.13808271 -0.05442164
000090 b0 0f 00 be 33 ee 51 be e8 27 f4 3d 22 22 9d be
       -0.12505984 -0.20501022 0.11921674 -0.30690104
0000a0 a0 07 71 bc f2 07 af 3e 88 2f b1 bd 2b a9 cc 3e
       -0.014711291 0.3418575 -0.08651644 0.39972815
0000b0 65 03 b7 3d ad 38 72 be 98 10 49 be 92 b1 27 3e
       0.08936194 -0.23654433 -0.19635236 0.16376331
0000c0 0f 04 65 3d b1 84 65 3e 88 e0 c7 be ac b7 0b 3e
       0.055912074 0.22413899 -0.3903849 0.13644284
0000d0 cb 58 4d be d6 d6 99 3e 12 ef 01 bf 73 0e 91 be
       -0.20053403 0.3004672 -0.5075542 -0.28331336
0000e0 0d d1 3a be f6 e5 ba be f1 c4 bd 3e 5e 8b 20 3e
       -0.18243809 -0.3650357 0.37064317 0.15678164
0000f0 5c 39 0e bc b8 92 2f bb b4 2a b0 bd a9 88 89 be
       -0.008680668 -0.0026790332 -0.08601895 -0.26862076

net.3.weight f4 [64, 64]
000000 2f 41 a0 3e e4 a8 65 3e 10 59 1c 3d e4 fe 5a 3d
       0.3129973 0.22427708 0.038170874 0.05346574
000010 4a 70 90 bd 3c 09 f4 3d 54 ed ca bc 51 59 77 3d
       -0.070526674 0.11915824 -0.02477137 0.060387913
000020 95 f3 84 bc 4c 36 77 bc 03 26 9e bd 24 27 fb 3d
       -0.01622943 -0.015088629 -0.07722094 0.12263325
000030 f0 79 87 bd 94 25 da bd b8 c3 28 bd 66 db db 3d
       -0.066150546 -0.10651699 -0.041202277 0.10735206
000040 e0 34 43 bd e7 bb b4 3d 8d 2c cb 3d c7 1b 04 3e
       -0.047657847 0.08824902 0.09920607 0.12901221
000050 33 30 42 bc 6d b9 a1 3d 40 01 0f bd 4c 5a c7 3d
       -0.011852312 0.07896695 -0.0349133 0.0973402
000060 5b 3e 2c 3d 33 5b 17 bd 44 84 fa 3d c6 79 39 be
       0.042051654 -0.03695221 0.12232259 -0.18112859
000070 ae b9 de 3c 74 14 3b bd 40 82 3b 3c d6 5f e0 bd
       0.027188148 -0.045673802 0.011444628 -0.10955779
000080 40 dd 19 bb 90 ef cd 3d 6c f1 1b 3d 13 88 8e bc
       -0.0023477823 0.100554585 0.038072035 -0.01739887
000090 60 8d 19 3d 81 0b 48 bd 17 12 4d 3c d4 a2 d8 3d
       0.03748834 -0.048839096 0.01251652 0.10577932
0000a0 08 45 d2 bc 52 cf 17 be a0 c7 02 3d aa 43 f2 bd
       -0.025667682 -0.1482518 0.03192866 -0.11829312
0000b0 b4 ec 8f bd a0 b8 d0 bb ee a3 6d 3e 4c ab 35 3d
       -0.070275694 -0.0063696653 0.23207065 0.044352815
0000c0 78 10 8e 3c c0 51 d1 3c 57 b7 2a 3d f8 2a 65 bd
       0.017341837 0.025551677 0.041678753 -0.05594918
0000d0 44 ff 4f bd dd 71 1f be 13 c3 6d 3d 88 16 e4 bd
       -0.05078055 -0.15570779 0.058047365 -0.1113711
0000e0 c9 97 6a bc e5 84 87 3d 90 b9 43 be ef e3 07 be
       -0.014318415 0.066171445 -0.19113755 -0.13270544
0000f0 5c c5 9a 3d aa 18 c6 bd 04 89 e5 3d 74 5f 18 3d
       0.075571746 -0.09672673 0.11207774 0.037200406
000100 7f 39 fa bd d5 e7 0d be 66 40 c1 3d 58 96 10 3d
       -0.12217998 -0.13857968 0.09436111 0.03529963
000110 70 5a 20 bd 8c 8c 0e bd 0a 09 f6 3d 46 5d 2a 3d
       -0.039148748 -0.034802005 0.12013443 0.04159286
000120 d1 35 af bc 03 a9 ef 3d 96 3c 22 3e c5 58 8f bc
       -0.021387966 0.11702158 0.15843424 -0.017498383
000130 50 ee 16 bd ac 93 c0 3d f4 2d 3b 3d 08 fb 3d bd
       -0.036848366 0.09403166 0.04569812 -0.04638198
000140 68 b2 d1 3d 8b 41 ca bc 6a 29 c4 b9 43 93 c6 bc
       0.102391064 -0.024689456 -0.0003741489 -0.024240142
000150 a0 73 f5 bc d3 b5 0f bd 62 a1 a2 bd 6c 2a de bd
       -0.02996236 -0.03508551 -0.079409376 -0.10847935
000160 d2 c6 ee bc f1 01 df 3c 58 c1 9b bc 6c dc 62 3c
       -0.02914754 0.027222605 -0.019013092 0.013846498
000170 50 22 39 bc e0 bf 52 3d b2 4e f8 3d 33 40 05 bd
       -0.011299685 0.051452518 0.12124385 -0.03253193
000180 20 2f c3 3c 40 e6 bd bd 80 5a f8 3c 8f 5d bd 3d
       0.023826182 -0.09272432 0.030316591 0.092463605
000190 70 ca 84 3c 84 21 89 bd 31 d1 ba 3d 82 4b 82 bd
       0.016209811 -0.06695846 0.09121931 -0.06362058
0001a0 80 3b a1 3a 77 7b 9a 3d f8 f8 90 bc 8e d4 01 3e
       0.0012301058 0.0754308 -0.017696843 0.1267874
0001b0 ea 2a f9 bd d8 01 63 bd a1 d1 0c be f0 8c e6 3c
       -0.12166388 -0.05542168 -0.13751842 0.028143376
0001c0 bd f9 13 3e e5 d0 84 bc 61 66 7a 3b 1d 9d 86 bc
       0.14450736 -0.01621289 0.0038207995 -0.01643234
0001d0 20 1d 92 bb 95 cc 7d 3d 81 b6 89 3d be 2d fc bd
       -0.0044590384 0.061962683 0.06724263 -0.12313412
0001e0 33 94 57 3a 78 bc 8d bc 2c 17 20 3e 48 6e d5 3d
       0.00082236825 -0.017301783 0.1563384 0.10421425
0001f0 d2 8c b6 3d 4c f5 cd 3d 98 ed 43 bd 74 11 9a 3d
       0.08913578 0.10056552 -0.04783401 0.0752286
000200 c0 40 18 3e f4 19 2a bd 20 49 71 3d 28 f8 ee bc
       0.1486845 -0.041528657 0.058907628 -0.029171064
000210 28 2a f5 3c 04 05 ae bd b4 d4 8c 3d f0 e1 56 be
       0.029927328 -0.084970504 0.068765074 -0.20984626
000220 ff b6 84 bc a8 11 cd 3d 91 72 11 3e 92 9f 1d 3e
       -0.01620054 0.10013133 0.1420386 0.15392902
000230 80 e7 1a bd 89 a5 87 3e 40 ea 78 3d a8 7a f7 bc
       -0.03781843 0.2649348 0.060770273 -0.030209854
000240 a0 4e e8 bc 1c 2d 3d bc 7b e1 ed be 3e 05 d5 3d
       -0.028357804 -0.011546399 -0.4646109 0.104013905
000250 c3 40 92 3b a5 e0 bc 3d 66 15 e7 3d 00 b9 2b bd
       0.0044632866 0.09222535 0.11283378 -0.041924477
000260 66 35 e7 3d fd 3d 7c bf 58 10 b2 3c ab 34 68 3d
       0.11289482 -0.98532087 0.021736309 0.056690853
000270 17 6d 54 bf 40 26 d3 3b 3e 59 f6 bd 5d b1 84 3d
       -0.8297896 0.0064437687 -0.1202874 0.06479142
000280 18 70 9e bc 8c f5 a6 3d 30 bd 68 3d e9 76 68 3d
       -0.01934056 0.08152303 0.05682105 0.056754027
000290 a8 8b 38 bd f9 27 38 bf 59 ef df be 64 63 ff bd
       -0.04505506 -0.71935993 -0.43737295 -0.12470129
0002a0 88 f6 ed bc e0 b4 08 3e 24 dc 0d 3d 28 9c 0d 3d
       -0.02904822 0.13350248 0.03463377 0.03457275
0002b0 1a 55 a7 bd 9c b9 e4 bd bc dc 61 be c0 37 e4 bd
       -0.08170529 -0.11168215 -0.2205686 -0.11143446
0002c0 fd b1 5f bf 03 53 a2 3d fe 2e 48 bf e2 fa 8b be
       -0.87380964 0.079259895 -0.78196704 -0.27339846
0002d0 ca 75 f0 3d 06 67 3b 3d a8 b0 ef be d0 e0 8e 3c
       0.117412165 0.045752548 -0.46814466 0.017441183
0002e0 dc 91 3e bf ad ea ea be 17 f5 5d 3d 4b 8f 83 3d
       -0.74441314 -0.45882168 0.054188814 0.06423815
0002f0 ca 00 94 bd d2 c7 b3 bd 20 f8 62 bc ba 04 c8 bd
       -0.07226713 -0.08778347 -0.013853103 -0.097665265
000300 a9 46 81 3e c8 d9 27 3e 50 09 cd 3d 4c d7 e9 bd
       0.25249222 0.1639167 0.10011542 -0.11418018
000310 a8 4c 9e 3c 54 3a 4b bd 9f a5 35 bd 14 17 21 bd
       0.019323662 -0.049616173 -0.0443474 -0.03932865
000320 2c 1b 0b be 05 a6 b2 3d 0d f8 e7 bd 9f ed 3c be
       -0.13584584 0.08723072 -0.11326609 -0.1845002
000330 39 76 bb bd a5 1b ed bb 9a 75 a1 bd da 6c 86 3d
       -0.091534086 -0.0072359615 -0.07883759 0.065637305
000340 68 e1 fb 3c 0e dc d8 3c 24 ef dd 3d 3d 6a 27 bd
       0.03074713 0.026472118 0.10836628 -0.0408728
000350 c7 dd a0 3c 73 09 5c 3d b4 53 8f 3d d0 da 23 bc
       0.019637002 0.05371995 0.06998387 -0.010000899
000360 5d a4 f0 bc fd c3 24 be 48 27 11 3d 26 6f b1 bd
       -0.02937525 -0.16090389 0.035437852 -0.08663778
000370 b3 d8 95 3d 78 0d f3 bd 0e 90 f3 bd f5 5f 2f be
       0.07316723 -0.11867803 -0.118927106 -0.17126448
000380 e0 72 f3 3d 6e a5 a7 3d b0 6f 36 bd cf e7 2f 3e
       0.11887145 0.0818585 -0.044540107 0.17178272
000390 fc c1 ce bd 3b 1c 0d bc 34 48 4a 3d 4a 61 f0 bd
       -0.10095593 -0.008612688 0.049385265 -0.117373064
0003a0 30 59 3d bd 71 c3 a5 bd 0c 2e 0e bd 8d 93 7e bd
       -0.046227634 -0.08093918 -0.034711882 -0.062152434
0003b0 ee 23 f1 bd 0c 06 6b bd 50 4d b9 3d a0 49 0d bd
       -0.11774431 -0.057378814 0.09047949 -0.034494042
0003c0 eb 24 bd 3c 4b 3d 5d bd 9e cf 45 bd 24 de 04 be
       0.023088893 -0.05401353 -0.048293702 -0.12975365
0003d0 ae 6f 9d 3d 38 ed 1b bd 89 a2 9b be 58 68 bb 3c
       0.07687317 -0.038068026 -0.30397442 0.022876903
0003e0 9d e8 91 3d 4b c3 ed bd c2 02 5d 3d ab 52 dd bd
       0.071244456 -0.11609515 0.05395771 -0.10806783
0003f0 b2 47 d8 3d 10 42 3b 3d 6a 60 f1 3d 3c fb 9c 3d
       0.1056055 0.0457173 0.11785968 0.07665107

net.3.bias f4 [64]
000000 e5 07 ac 3e 24 eb cb 3e 5f fc dd 3d 0a e3 93 3e
       0.33599773 0.39827836 0.108391516 0.28884155
000010 d6 09 e9 3e 5f dd 8f 3e 47 0e e2 3e 72 91 0e 3f
       0.45515317 0.2809858 0.44151518 0.5569068
000020 1b 0f 86 3d af e6 fd 3e d5 62 a9 3e 90 bc 59 3e
       0.0654585 0.4959006 0.33083215 0.21263337
000030 16 ac 9d 3e e2 27 be 3e 5c 21 3a 3e 79 88 62 3e
       0.30795354 0.37139803 0.18176788 0.22122373
000040 c0 52 34 3b a4 b3 3d 3e 4c 2a a5 3e 86 c2 92 3e
       0.0027515143 0.18525559 0.32258832 0.28664035
000050 a9 d0 f6 bb cd d5 7c 3e db f4 3e 3e a7 e4 36 3e
       -0.0075321984 0.24690934 0.18648092 0.17860661
000060 b3 de a9 3e e5 1d 2b 3e 2d d5 c7 bc 85 da 0e bd
       0.3317772 0.16710623 -0.024393642 -0.034876365
000070 d6 65 82 3e 49 1c cf 3e 54 a0 5d 3e 2c ba a4 3e
       0.2546832 0.40451267 0.21643192 0.32173288
000080 4b 9b 9b 3e dc aa 8d 3e d8 55 84 3e f4 ae cf 3e
       0.30391917 0.27669418 0.25846744 0.40563166
000090 df 0e a4 3e 6a 71 ae 3e b0 07 c3 bd bd 99 5c 3e
       0.32042596 0.34070903 -0.09522951 0.21543022
0000a0 bd 56 64 3e de 3c 4d 3e 0b 7a c4 3e fe 4e 05 3d
       0.22298713 0.2004275 0.3837436 0.032546036
0000b0 aa e0 b8 3e b0 92 c0 3e 87 9b 45 3e 9f d0 f0 bb
       0.36108905 0.37611914 0.1929761 -0.0073490883
0000c0 1e cb b3 3e 51 6c b1 3e e2 a5 44 bd 8a 4f 0f 3e
       0.35115904 0.3465295 -0.04800976 0.13995185
0000d0 0a ff 86 3e 92 b6 5f 3e 68 11 a4 3e 6e b1 98 3e
       0.26366454 0.21846989 0.3204453 0.29822868
0000e0 12 ee ae 3e 4a 69 d8 3e dd ae 1b bc 69 dd 77 3d
       0.34166008 0.4226783 -0.00950214 0.060513888
0000f0 3e 53 bd 3e 04 59 1f 3e b8 18 11 3e 81 6a f3 3e
       0.3697757 0.155613 0.14169586 0.47542194
