2_Party/shadow_model_data/shadow_minus_F_client2_bottom.pt (torch, 21376 bytes, 4 tensors)

net.0.weight f4 [64, 8]
-0.15063038 -0.9319496 0.0377592 0.14119047 0.31185153 -0.27626622 0.3821469 0.36477512
0.20632218 0.12232933 0.3184751 0.28161958 0.28012007 -0.27166873 -0.113241374 -0.27920526
0.25153938 -0.09888498 -0.12358805 -0.1100895 0.15417017 -0.23499823 0.0027376486 -0.26847476
2.533029 1.1064081 -0.05675713 0.035075262 -0.38883257 0.047368772 -0.31031004 -0.20284994
0.32721326 0.22768313 0.15408285 0.101140335 0.006261884 0.09566197 0.24167159 -0.23733902
2.1664503 1.328281 -0.2810862 -0.20648932 -0.43452072 -0.13330011 -0.28655827 -0.4309544
0.28462338 -0.011649494 -0.19346705 0.24411356 -0.077957965 -0.27748254 0.18595918 0.14981021
-0.11147268 0.2578662 -0.11018387 0.28161648 -0.07988876 -0.25417045 -0.19635189 0.25932634
1.2076384 0.69101536 -0.09525777 -0.013527526 -0.120522685 -0.042536758 -0.11496079 -0.023084084
0.10702699 0.103698865 -0.29520264 0.20372252 0.2384302 -0.20501302 -0.21222477 0.18251027
-0.18688823 -0.20352733 -0.118910335 0.22749415 -0.04508006 -0.3449615 -0.057780292 -0.17141844
2.0444252 1.3555298 -0.08827777 -0.14158654 -0.41296205 -0.26960608 -0.31766218 -0.18006627
-0.1469608 -0.21517399 0.048954237 0.00086489547 0.3370391 -0.061121233 -0.16347869 0.17299722
1.9723002 0.78781104 -0.4512486 0.1841111 -0.22057529 -0.4117459 -0.015756344 -0.36828282
-0.124465585 -0.1110368 0.046377886 0.108994864 0.021475546 -0.22152388 0.08870765 -0.11898902
-0.9544128 -2.0294662 0.42541042 0.20833488 -0.045452844 0.06679439 0.37558728 0.48942584
0.15893643 -0.33412054 -0.17712156 -0.22709104 -0.1946948 -0.3810731 -0.04872295 0.067842446
-1.8625199 -2.6280012 -0.03219261 0.14561768 0.19619219 0.21172602 0.41641417 0.06155707
1.3138039 1.3605752 -0.044438936 -0.32964095 -0.096643746 -0.19010429 -0.11260992 -0.25429413
0.6935187 0.5380494 -0.11560434 0.16100007 -0.35070726 0.13425727 -0.5201468 0.05668978
2.0185788 1.0070468 -0.16742064 -0.21057242 -0.40115923 -0.16937391 -0.16292846 -0.52780503
-0.038167097 -0.70726174 -0.123183526 0.0048385826 0.17400046 -0.20567845 0.088772476 0.29636404
-0.2347816 0.07085905 0.0552294 0.23127694 0.0052951192 0.27440092 -0.2521791 -0.2746034
0.21937022 0.21053463 -0.10066795 -0.019722955 0.18189968 -0.05348026 -0.12905453 0.06318744
0.6259372 0.31795728 0.06670197 -0.33097225 -0.23594555 0.14222632 -0.12736781 -0.48122448
2.2320428 1.2454247 -0.27445814 0.1559704 -0.47656363 -0.41747457 0.17388919 -0.44352117
0.12751794 0.3097121 0.26608345 -0.26051942 0.35044405 0.34774184 0.08197153 -0.343126
0.275331 0.27908826 -0.057961736 -0.30135307 0.21830714 -0.060954668 -0.15904278 0.14238857
2.1933932 1.3051811 -0.23606241 -0.22131503 -0.32551536 -0.29674354 -0.32392597 -0.26772493
-0.2544753 0.30184743 -0.17000778 0.29518822 0.2275862 -0.2785787 -0.14206257 0.14812662
0.2897845 -0.08556514 -0.012705631 -0.24933636 0.29227835 -0.27206537 0.13122062 -0.086907856
-0.08145765 0.23917809 -0.06371261 0.21338402 -0.069257215 0.19833156 0.1069745 -0.20898926
00000000: da3e 1abe 4094 6ebf 64a9 1a3d 3c94 103e
00000010: 01ab 9f3e c472 8dbe c2a8 c33e cec3 ba3e
00000020: 1f46 533e cd87 fa3d 2b0f a33e 7130 903e
00000030: e66b 8f3e 2a18 8bbe 18eb e7bd fef3 8ebe
00000040: c5c9 803e 3584 cabd bb1b fdbd 9b76 e1bd
00000050: c9de 1d3e 60a3 70be 1f6a 333b 8675 89be
00000060: 261d 2240 c89e 8d3f 2a7a 68bd 14ab 0f3d
00000070: 1015 c7be c205 423d f5e0 9ebe e5b7 4fbe
00000080: 7f88 a73e c425 693e e5c7 1d3e aa22 cf3d
00000090: 7d30 cd3b 6cea c33d c278 773e 0009 73be
000000a0: 1fa7 0a40 1d05 aa3f 88ea 8fbe f071 53be
000000b0: 8079 debe d37f 08be c4b7 92be 0ea6 dcbe
000000c0: 28ba 913e 85dd 3ebc 3a1c 46be e8f8 793e
000000d0: 6da8 9fbd 3112 8ebe 156c 3e3e d967 193e
000000e0: ca4b e4bd 0a07 843e 15a8 e1bd 0930 903e
000000f0: b89c a3bd a122 82be 7810 49be 6cc6 843e
00000100: e593 9a3f 62e6 303f 8116 c3bd 8ea2 5dbc
00000110: 99d4 f6bd 063b 2ebd 9070 ebbd d51a bdbc
00000120: f730 db3d 1260 d43d cd24 97be a39c 503e
00000130: 0c27 743e efee 51be 7351 59be f9e3 3a3e
00000140: a15f 3fbe 7869 50be 4387 f3bd 3af4 683e
00000150: dea5 38bd cb9e b0be 07ab 6cbd 5188 2fbe
00000160: ddd7 0240 0082 ad3f faca b4bd 10fc 10be
00000170: c36f d3be cf09 8abe 9ea4 a2be 4b63 38be
00000180: e47c 16be 9256 5cbe 3d84 483d 27ba 623a
00000190: 6490 ac3e 425a 7abd f566 27be 2f26 313e
000001a0: 5574 fc3f fcad 493f 0e0a e7be 9f87 3c3e
000001b0: 7dde 61be 5cd0 d2be 7313 81bc 918f bcbe
000001c0: d0e7 febd 4367 e3bd bdf6 3d3d b338 df3d
000001d0: 7ced af3c 28d7 62be 5bac b53d 84b0 f3bd
000001e0: 6654 74bf c6e2 01c0 65cf d93e bd55 553e
000001f0: c32c 3abd 7fcb 883d fa4c c03e 0696 fa3e
00000200: 3bc0 223e d911 abbe 5b5f 35be 8e8a 68be
00000210: 135e 47be 031c c3be b791 47bd fbf0 8a3d
00000220: 0d67 eebf 2c31 28c0 66dc 03bd cd1c 153e
00000230: 9be6 483e b5ce 583e 3d34 d53e 4423 7c3d
00000240: ba2a a83f 5427 ae3f 9a05 36bd b3c6 a8be
00000250: 28ed c5bd b3aa 42be 08a0 e6bd d732 82be
00000260: 718a 313f 9bbd 093f f8c1 ecbd 34dd 243e
00000270: e78f b3be bd7a 093e 5728 05bf 8b33 683d
00000280: 6530 0140 e9e6 803f 5170 2bbe 4ca0 57be
00000290: be64 cdbe 5b70 2dbe b8d6 26be 3b1e 07bf
000002a0: 1a55 1cbd 1b0f 35bf a547 fcbd f98c 9e3b
000002b0: 2d2d 323e 5f9d 52be 58ce b53d 07bd 973e
000002c0: 966a 70be 8d1e 913d 3938 623d ddd3 6c3e
000002d0: ae82 ad3b 477e 8c3e 9e1d 81be d198 8cbe
000002e0: 96a2 603e 6496 573e 002b cebd 0992 a1bc
000002f0: e943 3a3e 1e0e 5bbd df26 04be 6b68 813d
00000300: 6c3d 203f 4ccb a23e 0b9b 883d 3275 a9be
00000310: b69b 71be c7a3 113e b56c 02be 0e63 f6be
00000320: cad9 0e40 146a 9f3f c785 8cbe b4b6 1f3e
00000330: 2600 f4be 3abf d5be 0210 323e 3515 e3be
00000340: 1094 023e 9692 9e3e 173c 883e cd62 85be
00000350: 676d b33e 380b b23e b1e0 a73d 36ae afbe
00000360: 2ff8 8c3e a8e4 8e3e 4969 6dbd f34a 9abe
00000370: e88b 5f3e 9aab 79bd 1cdc 22be 4fce 113e
00000380: 8e60 0c40 2d10 a73f 58ba 71be 68a0 62be
00000390: f3a9 a6be c5ee 97be a0d9 a5be 3e13 89be
000003a0: 964a 82be bf8b 9a3e 8516 2ebe e922 973e
000003b0: 5b0c 693e dea1 8ebe da78 11be 81ae 173e
000003c0: a25e 943e c73c afbd 472b 50bc 0852 7fbe
000003d0: 82a5 953e 274c 8bbe b35e 063e bffc b1bd
000003e0: 45d3 a6bd 1aeb 743e c27b 82bd 5781 5a3e
000003f0: bad6 8dbd 6e17 4b3e 7215 db3d 4801 56be

net.0.bias f4 [64]
0.1577092 -0.17434907 -0.009015927 0.22666414 0.053665202 -0.13821416 -0.19124418 -0.32579234
-0.1954669 0.20929265 -0.13107459 0.16376589 -0.14867756 0.40555984 -0.14831008 -0.27381125
-0.23593493 -0.4155951 0.07429738 0.16140199 0.087691516 -0.19596237 0.025821477 -0.05458611
0.096663915 0.105906785 0.31056204 -0.28430536 0.1424923 -0.23878554 -0.11925577 -0.12663376
0.16170578 -0.07547479 0.05660899 0.26708478 0.036802247 -0.3817036 -0.19865829 -0.1698733
0.25000015 -0.056129687 0.14516248 0.14141364 0.23793982 -0.28102493 -0.20414639 -0.21406132
0.0028439946 -0.2497732 0.06616819 -0.1635277 -0.059247255 0.28287464 -0.32461295 0.08114732
0.19592 -0.35084453 0.1951554 -0.049110267 0.22229685 0.38696072 -0.27318367 -0.11875757
00000000: 857e 213e 9088 32be 8ab7 13bc a51a 683e
00000010: 0bd0 5b3d 0388 0dbe 84d5 43be 41ce a6be
00000020: 7a28 48be d050 563e 6b38 06be 3fb2 273e
00000030: ee3e 18be 8aa5 cf3e 99de 17be fd30 8cbe
00000040: ed98 71be e2c8 d4be 3a29 983d 9046 253e
00000050: 9c97 b33d 5caa 48be 9087 d33c af95 5fbd
00000060: bbf7 c53d a8e5 d83d fd01 9f3e 7990 91be
00000070: 80e9 113e 3284 74be 5f3c f4bd 48ac 01be
00000080: 3396 253e 8792 9abd d4de 673d 56bf 883e
00000090: f4bd 163d a76e c3be 146d 4bbe 44f3 2dbe
000000a0: 0500 803e 3ee8 65bd 79a5 143e bdce 103e
000000b0: 7fa6 733e 80e2 8fbe c00b 51be e432 5bbe
000000c0: 5062 3a3b 8cc4 7fbe 3083 873d ce73 27be
000000d0: 40ad 72bd f2d4 903e ab33 a6be 9130 a63d
000000e0: 419f 483e e5a1 b3be d1d6 473e d927 49bd
000000f0: c9a1 633e b71f c63e bbde 8bbe 2b37 f3bd

net.3.weight f4 [64, 64]
-0.03654735 0.0035117865 -0.08004069 0.08879523 0.07969357 0.18460369 0.024812514 0.092475146
-0.03784987 0.006487176 -0.104239926 0.27229014 -0.0011279583 0.225079 -0.1035742 -0.04027511
0.027764142 -0.15907788 0.027886657 -0.065123186 0.09896798 0.030018587 -0.07372475 0.095917374
0.0760944 0.22162835 -0.01491344 0.07076676 0.15089104 -0.06685415 -0.07897799 0.12567373
-0.09601973 0.05194418 0.11762996 0.15933652 0.037542656 -0.02849527 0.10570048 -0.06887789
0.043074697 0.06038776 0.039146796 0.06224886 0.03546393 -0.11746837 -0.046450973 -0.025572484
0.13786748 -0.0932122 -0.005238056 -0.018049613 0.04010953 0.19652283 0.031487066 -0.023763975
0.030912757 0.034482867 0.085818775 -0.08705148 -0.09431726 0.21273872 -0.02258499 0.113285996
0.2113409 0.07278091 -0.11576189 -0.026832802 0.06609912 -0.054274406 -0.023356596 0.030621514
0.042396013 -0.019243598 0.07963267 -0.124742776 -0.1079424 -0.030254468 0.03159088 0.038521126
-0.00850504 -0.18231182 -0.09516371 -0.17354406 -0.04910323 -0.041314512 -0.052544504 -0.122313485
-0.10881245 -0.09328617 0.089331836 0.07670203 -0.13654089 -0.05970955 -0.09204824 -0.05597454
0.12025164 0.024791462 -0.11222564 0.026848525 0.04185611 0.027076794 0.08440757 0.08493015
-0.0740841 0.082081325 -0.17520869 -0.023810497 0.08464317 -0.09435353 -0.08416593 -0.03384514
0.0038967605 0.06781368 -0.058112085 -0.03827648 -0.038968727 -0.022889718 -0.19315326 -0.11289137
-0.025321439 -0.050071537 -0.1591438 0.040339813 -0.08040407 -0.1281308 -0.12495729 -0.076295495
0.08347865 -0.065050825 0.107944 -0.08583486 -0.07655136 -0.14274526 -0.13018061 -0.11450757
0.03797217 -0.046022385 0.05942841 0.0068980656 0.027450979 -0.043392085 -0.1130151 -0.01833283
0.02892516 -0.04075003 -0.15036337 -0.09926739 -0.20488136 -0.030634858 -0.08120833 0.08710253
-0.19328791 0.035601646 0.064474836 0.0151049495 -0.1381487 -0.12287898 -0.012677282 -0.15296991
0.005996838 -0.009019747 -0.02017954 -0.20910372 0.068245605 -0.0486997 -0.0013806671 0.075735465
0.02929096 -0.033196628 -0.14932227 -0.15226386 -0.016579047 -0.0859357 0.013325289 -0.14836788
0.030061804 0.05283703 -0.078251556 0.10786696 0.038899884 -0.119658105 -0.031658094 -0.16315746
-0.09749289 -0.10345134 -0.0025490914 0.043541506 -0.04485342 -0.008400944 -0.05116342 -0.15806693
0.10067944 0.023975924 -0.08238597 0.102195114 0.0069514215 0.16816303 0.042443812 -0.06722714
0.12760451 0.046846554 0.010887027 0.26588893 0.06437871 0.18122807 -0.024494529 -0.09059143
-0.07097103 -0.03525067 -0.0268295 -0.05110031 0.06767829 0.13334505 0.030566439 0.05713515
0.07972052 0.21494767 -0.06001158 0.045080855 0.1562033 -0.11123702 0.07028574 0.08110511
-0.09229924 0.12565006 -0.03820324 0.01135019 0.06615968 -0.037079547 0.12294565 0.0013067573
-0.061226726 -0.042744245 0.12804039 0.042475175 0.07758154 -0.056072205 0.010087863 0.20419976
0.11668465 -0.12394899 0.051485747 -0.11522114 -0.040564254 0.27525738 0.05280746 0.03017259
0.055217594 0.05261083 0.11477157 -0.04561244 -0.094166085 0.21081704 0.019565031 0.0010428438
00000000: adb2 15bd 0026 663b 60ec a3bd 46da b53d
00000010: 6236 a33d c008 3d3e 9d43 cb3c 9c63 bd3d
00000020: 7708 1bbd 6092 d43b be7b d5bd 9d69 8b3e
00000030: 00d8 93ba 1c7b 663e b61e d4bd 84f7 24bd
00000040: a071 e33c 50e5 22be 8f72 e43c 4e5f 85bd
00000050: b9af ca3d 8ae9 f53c 00fd 96bd 5470 c43d
00000060: 61d7 9b3d 8bf2 623e 8057 74bc 2aee 903d
00000070: 2e83 1a3e d4ea 88bd 36bf a1bd 9db0 003e
00000080: fea5 c4bd 6cc3 543d fae7 f03d 1d29 233e
00000090: 54c6 193d ea6e e9bc 7e79 d83d da0f 8dbd
000000a0: 186f 303d 2859 773d 6458 203d a9f8 7e3d
000000b0: a042 113d 4293 f0bd 6043 3ebd 637d d1bc
000000c0: 222d 0d3e 0ae6 bebd 00a4 abbb c8dc 93bc
000000d0: e449 243d 483d 493e 95f8 003d abac c2bc
000000e0: c03c fd3c e83d 0d3d c1c1 af3d 0c48 b2bd
000000f0: 6829 c1bd 2ed8 593e 2804 b9bc 7d02 e83d
00000100: c069 583e 280e 953d 9214 edbd 77d0 dbbc
00000110: fa5e 873d d74e 5ebd 5556 bfbc f8d9 fa3c
00000120: 71a7 2d3d c0a4 9dbc 7416 a33d 2479 ffbd
00000130: e810 ddbd 38d8 f7bc 7065 013d 54c8 1d3d
00000140: b958 0bbc f3af 3abe 31e5 c2bd 89b5 31be
00000150: 7820 49bd 6839 29bd e838 57bd 7e7f fabd
00000160: 10d9 debd d20c bfbd 9cf3 b63d f415 9d3d
00000170: 60d1 0bbe 0092 74bd ca83 bcbd 8f45 65bd
00000180: 7e46 f63d 7717 cb3c 8ed6 e5bd 70f1 db3c
00000190: 5071 2b3d 27d0 dd3c e0dd ac3d dcef ad3d
000001a0: 68b9 97bd 411a a83d e869 33be 3b0e c3bc
000001b0: 6659 ad3d 6c3c c1bd 305f acbd 34a1 0abd
000001c0: cb60 7f3b e6e1 8a3d f006 6ebd ccc7 1cbd
000001d0: ac9d 1fbd 3883 bbbc f8c9 45be 9733 e7bd
000001e0: e86e cfbc d017 4dbd 98f6 22be 5c3b 253d
000001f0: e4aa a4bd b834 03be 9ce9 ffbd d040 9cbd
00000200: dbf6 aa3d 5e39 85bd be11 dd3d 30ca afbd
00000210: f6c6 9cbd d02b 12be 114e 05be f282 eabd
00000220: b588 1b3d f881 3cbd 346b 733d 2b09 e23b
00000230: e0e0 e03c e6bb 31bd 7674 e7bd bb2e 96bc
00000240: 75f4 ec3c 81e9 26bd dbf8 19be b44c cbbd
00000250: 6bcc 51be f4f5 fabc 8e50 a6bd d062 b23d
00000260: 44ed 45be 08d3 113d 620b 843d c07a 773c
00000270: da76 0dbe faa7 fbbd 60b4 4fbc 25a4 1cbe
00000280: 2081 c43b 90c7 13bc 904f a5bc 491f 56be
00000290: 5ac4 8b3d 5679 47bd 80f7 b4ba 321b 9b3d
000002a0: 98f3 ef3c 30f9 07bd f0e7 18be 0feb 1bbe
000002b0: c8d0 87bc 0eff afbd 5052 5a3c c0ed 17be
000002c0: 2c44 f63c a46b 583d 5a42 a0bd 5ae9 dc3d
000002d0: 7c55 1f3d 4f0f f5bd ebab 01bd c012 27be
000002e0: 5aaa c7bd 4cde d3bd a80e 27bb 9458 323d
000002f0: 38b8 37bd 1da4 09bc bc90 51bd 4cdc 21be
00000300: 0631 ce3d 2869 c43c fab9 a8bd ac4b d13d
00000310: c0c8 e33b ee32 2c3e 90d9 2d3d 62ae 89bd
00000320: c2aa 023e 2ce2 3f3d 805f 323c 9822 883e
00000330: fcd8 833d da93 393e c0a8 c8bc 0088 b9bd
00000340: 4259 91bd 0263 10bd 8ac9 dbbc 8f4e 51bd
00000350: ea9a 8a3d 9b8b 083e 7866 fa3c 8c06 6a3d
00000360: 8344 a33d 3e1b 5c3e b4ce 75bd b4a6 383d
00000370: c2f3 1f3e 3cd0 e3bd f8f1 8f3d 701a a63d
00000380: 6207 bdbd 69aa 003e 007b 1cbd 26f6 393c
00000390: ba7e 873d b9e0 17bd eeca fb3d 8047 ab3a
000003a0: e0c8 7abd 9714 2fbd 051d 033e 73fa 2d3d
000003b0: 12e3 9e3d f8ab 65bd 9047 253c be19 513e
000003c0: 5df8 ee3d f8d8 fdbd b8e2 523d 10f9 ebbd
000003d0: b426 26bd 89ee 8c3e a34c 583d 822c f73c
000003e0: d82b 623d 747e 573d 5b0d eb3d 1cd4 3abd
000003f0: 26da c0bd 6ce0 573e d846 a03c 08b0 883a

net.3.bias f4 [64]
0.6425165 0.51147306 -0.00054347585 0.19625846 0.31564653 0.38569835 0.7620791 -0.11854585
0.27314985 0.41009736 0.23136346 0.6315402 0.16923308 0.39833966 -0.09023054 0.23929195
0.24747477 0.47512284 0.38390028 0.65515566 0.41368598 0.4796576 -0.04624272 0.39667493
0.60806406 0.5614337 0.38292208 -0.008921278 0.23239616 0.44112575 0.31966996 0.4484615
0.4237877 0.6478044 0.25130594 0.090839416 0.5801011 0.4796175 0.65825295 0.42667034
0.519728 0.35680565 0.35514778 0.17933938 0.27631706 0.48404446 0.500209 0.55951357
-0.06880679 0.35559905 0.53621495 0.49702495 -0.15195979 0.39807814 -0.12269057 0.6087144
0.40432835 0.35760632 0.18253876 0.06546353 0.38404745 0.24261573 0.569357 0.32885072
00000000: f67b 243f e6ef 023f 0c78 0eba faf7 483e
00000010: 6c9c a13e 417a c53e 9e17 433f 2bc8 f2bd
00000020: 4cda 8b3e 48f8 d13e 8bea 6c3e 9eac 213f
00000030: 704b 2d3e 2df3 cb3e caca b8bd f308 753e
00000040: 076a 7d3e 4d43 f33e 948e c43e 48b8 273f
00000050: a6ce d33e ae95 f53e 0269 3dbd fa18 cb3e
00000060: 16aa 1b3f 1eba 0f3f 5d0e c43e 8d2a 12bc
00000070: 42f9 6d3e 3cdb e13e c8ab a33e bf9c e53e
00000080: b4fa d83e 82d6 253f 2cab 803e 040a ba3d
00000090: 8181 143f 6d90 f53e 4483 283f 8974 da3e
000000a0: e50c 053f 3baf b63e eed5 b53e bea4 373e
000000b0: 6e79 8d3e add4 f73e b20d 003f 483c 0f3f
000000c0: 93ea 8cbd 1411 b63e 6245 093f 0e7a fe3e
000000d0: 599b 1bbe e6d0 cb3e 3245 fbbd b5d4 1b3f
000000e0: 2004 cf3e 2d18 b73e 71eb 3a3e be11 863d
000000f0: dea1 c43e 4270 783e 61c1 113f 1f5f a83e
