2_Party/shadow_model_data/shadow_minus_F_client1_bottom.pt (torch, 21888 bytes, 4 tensors)

net.0.weight f4 [64, 10]
0	0xbf01864e	-0.5059556
1	0xbed094ae	-0.40738434
2	0xc0124f80	-2.2861023
3	0xc05ca00a	-3.447268
4	0x3e79a0c2	0.2437773
5	0x3dda713e	0.106661305
6	0x3eb86744	0.36016285
7	0x3e491347	0.1963626
8	0x3ed24874	0.41070902
9	0x3e81a385	0.25320068
10	0xbe92d4f1	-0.28678086
11	0xbe5da784	-0.21645933
12	0x3e2737d9	0.16329898
13	0x3e7c4109	0.24634184
14	0xbecf7d70	-0.4052539
15	0xbee97933	-0.4560028
16	0x3d8def8b	0.06930455
17	0xbe4515b9	-0.19246568
18	0xbe9bc4fe	-0.3042373
19	0xbed050c0	-0.40686607
20	0x3f3d91ee	0.74050796
21	0x3f4fb2f9	0.81132466
22	0xc02eb456	-2.7297568
23	0xc064364f	-3.5658147
24	0x3e39e244	0.1815272
25	0x3eac4a22	0.3365031
26	0x3ea1a8e8	0.31574178
27	0x3d37327a	0.044725873
28	0x3ed88b66	0.42293853
29	0x3edaca1f	0.4273233
30	0xbc859113	-0.016304528
31	0x3e64a1b0	0.22327304
32	0xbe6c55bc	-0.2307958
33	0x3e8f142d	0.2794508
34	0x3e450177	0.1923884
35	0xbe39c5e4	-0.18141896
36	0xbe2d9208	-0.16950238
37	0xbc53e264	-0.012932394
38	0x3dcdf5fb	0.10056683
39	0xbe9808fb	-0.29694352
40	0x3fe3bab0	1.7791348
41	0x3f95f4dd	1.1715351
42	0xbf908b02	-1.1292422
43	0xc01e2e2d	-2.4715683
44	0x3e6d6b4a	0.23185459
45	0x3e01245f	0.1261153
46	0xbd94d52c	-0.07267222
47	0x3e3aa7de	0.18228099
48	0x3e04914d	0.12946053
49	0x3ea51404	0.32241833
50	0x3fd2e86e	1.6477182
51	0x3fc4db24	1.5379376
52	0xbeba870f	-0.36431167
53	0xbf89f133	-1.0776733
54	0x3c891fde	0.016738828
55	0x3d8c0638	0.06837124
56	0x3cb8f339	0.022576915
57	0x3e9eb696	0.30998677
58	0x3ea095c1	0.31364253
59	0xbda9271c	-0.08259413
60	0xbb8fca2d	-0.004388115
61	0xbdcc0146	-0.099611804
62	0xbe8ae43c	-0.27127254
63	0x3e8c5577	0.27408955
64	0x3e10cd0a	0.14140716
65	0xbe0eaa69	-0.13932194
66	0x3e605049	0.21905626
67	0x3d885072	0.06655969
68	0xbe9a4d6f	-0.30137202
69	0x3cc8e749	0.024524348
70	0x3f3f42b6	0.7471117
71	0x3f30dfec	0.6909168
72	0xbeedd1e0	-0.46449184
73	0xbf1350fe	-0.5754546
74	0x3c3341a3	0.010940942
75	0x3d862518	0.06550044
76	0xbeedd988	-0.46455026
77	0xbea5aa8a	-0.32356673
78	0xbe46af19	-0.19402732
79	0x3cfc6133	0.030808067
80	0x3e8b5c64	0.27218926
81	0x3e5bc25f	0.21460865
82	0x3e3c95d5	0.18416531
83	0xbe3fdbec	-0.18736237
84	0x3e387fed	0.1801755
85	0x3e9036ee	0.28166908
86	0x3daccd38	0.0843758
87	0xbd633ac5	-0.05547597
88	0xbe43652d	-0.19081564
89	0x3e9bbbd6	0.30416745
90	0x3e57b082	0.21063426
91	0x3eba581f	0.36395356
92	0x3ecbeb89	0.39828137
93	0xbe5557b0	-0.20834231
94	0xbec0a4a9	-0.37625626
95	0x3e34a814	0.17642242
96	0xbecd83a4	-0.40139496
97	0xbe861b5c	-0.2619275
98	0xbd0400a7	-0.032227185
99	0xbeee398d	-0.46528283
100	0x3df9a111	0.12188924
101	0xbdc36696	-0.09541051
102	0x3d30a2ac	0.043123886
103	0xbd22aee1	-0.03971756
104	0x3e6fc25e	0.23413989
105	0xbe9c88e7	-0.30573198
106	0x3d64409b	0.055725675
107	0xbe9be92c	-0.30451334
108	0x3e148117	0.14502369
109	0xbe99f221	-0.30067542
110	0x4015ebfc	2.3425283
111	0x401a0625	2.406625
112	0xbebf75c4	-0.37394536
113	0xbedce4f8	-0.4314344
114	0xbe66a594	-0.225241
115	0xbe500f76	-0.20318398
116	0xbd74f555	-0.05980428
117	0x3c8a6d6c	0.01689788
118	0xbec972b4	-0.39345324
119	0x3c9cb1be	0.019127723
120	0xbf386797	-0.72033066
121	0xbf2e0dff	-0.67990106
122	0xbf87057f	-1.0548552
123	0xbffe9af0	-1.9891033
124	0xbe048d42	-0.1294451
125	0x3e154f81	0.1458111
126	0x3e9d510b	0.30725893
127	0x3ea27ca3	0.31735715
128	0x3e35074c	0.17678565
129	0xbd510c96	-0.051037394
130	0x3dbdd763	0.092695974
131	0xbbb5fe27	-0.005553979
132	0x3e5d5282	0.21613505
133	0xbd54952d	-0.051900078
134	0xbe0d0479	-0.13771237
135	0x3e6ebca6	0.23314151
136	0xbe8a7a93	-0.27046642
137	0xbdca4327	-0.098760895
138	0x3c8ea0d8	0.01741068
139	0x3a5708ee	0.000820293
140	0xbf5ce935	-0.86293346
141	0xbf83284a	-1.024667
142	0xbfc769ac	-1.5579123
143	0xbee169f3	-0.44026145
144	0x3ebf5f11	0.37377217
145	0x3e4483dd	0.19190927
146	0x3eb9e9a8	0.36311078
147	0x3ee16016	0.4401862
148	0x3eaf4475	0.34231916
149	0x3edca4ca	0.43094474
150	0xbdc89483	-0.09793951
151	0x3e62fa98	0.22165906
152	0xbe781c5f	-0.24229573
153	0xbe703951	-0.23459364
154	0x3da6f641	0.08152438
155	0xbe35a847	-0.17739974
156	0x3b65c9f4	0.0035063
157	0xbe322187	-0.17395602
158	0xbe2a8f60	-0.16656256
159	0x3dba4503	0.09095194
160	0xbe73ff8b	-0.2382795
161	0x3e9924fc	0.2991103
162	0x3cd6fb92	0.026243005
163	0xbe3bb473	-0.18330555
164	0x3e2584df	0.16163968
165	0x3e4de357	0.20106255
166	0x3dd6349f	0.104592554
167	0x3e115a2f	0.14194559
168	0x3e58f257	0.21186195
169	0xbe68c7e3	-0.227325
170	0x40649df5	3.572141
171	0x4060ecff	3.514465
172	0xbf3e84b4	-0.7442124
173	0xbf29157b	-0.660484
174	0xbe08a874	-0.1334551
175	0xbe9495e8	-0.2902062
176	0xbe8f1a25	-0.27949634
177	0xbe84bb78	-0.25924277
178	0xbd0fec82	-0.03513766
179	0xbdae2088	-0.085022986
180	0x3ecfe0d9	0.40601233
181	0x3cf07b76	0.029355746
182	0xc010e266	-2.2638183
183	0xc038e701	-2.8890994
184	0x3d37452b	0.044743698
185	0x3ee9c7e5	0.4566032
186	0xbceddfe9	-0.029037433
187	0x3ee160d2	0.4401918
188	0x3e9738eb	0.29535612
189	0x3d939ed7	0.07208031
190	0x3e8a5ba6	0.27023047
191	0x3eb835ba	0.3597849
192	0x3eaaa887	0.333317
193	0xbcb60671	-0.022219868
194	0xbe90f747	-0.28313658
195	0xbeba7681	-0.36418536
196	0xbe6f0d8e	-0.23345014
197	0xbc678159	-0.01412996
198	0xbf059668	-0.52182627
199	0xbefbe2c8	-0.49196458
200	0x3fd5cb8a	1.670274
201	0x3ff5a9a6	1.9192398
202	0xbed717fa	-0.4201048
203	0xbf390cf7	-0.7228541
204	0x3d685c52	0.05672867
205	0xbe641d45	-0.2227679
206	0xbe2f7337	-0.17133795
207	0xbe9993ad	-0.2999548
208	0x3c921b36	0.01783524
209	0x3d9a53dd	0.07535527
210	0xbe768f00	-0.24077988
211	0x3e964234	0.29347384
212	0x3deccbdb	0.1156232
213	0x3cc7edcc	0.024405383
214	0x3de16674	0.110058695
215	0xbd7f17bd	-0.062278498
216	0xbd8e86af	-0.069592826
217	0x3bb297fc	0.005450247
218	0xbd840c55	-0.06447665
219	0xbe5336ad	-0.20626326
220	0x404b6a37	3.1783578
221	0x405ed9df	3.4820478
222	0xbf7f56be	-0.99741733
223	0xbfabd7a3	-1.3425182
224	0xbd287c28	-0.04113403
225	0xbec32aec	-0.38118684
226	0x3d9dac25	0.076988496
227	0xbe015b89	-0.12632574
228	0x3d1561cc	0.03647022
229	0xbe5f8afc	-0.21830362
230	0x401e812a	2.4766335
231	0x4015b25b	2.339011
232	0x3e6e41ab	0.23267238
233	0xbe51fb1e	-0.2050595
234	0xbe04daf1	-0.12974145
235	0xbe784365	-0.24244459
236	0xbe3a8f5f	-0.18218754
237	0xbebca4c9	-0.3684447
238	0x3d3e7005	0.04649355
239	0xbdb85bf4	-0.09001914
240	0x3ecb5d1f	0.39719483
241	0xbd7ffd79	-0.06249759
242	0xbf6d3a96	-0.9266752
243	0xc0069968	-2.1031132
244	0x3d7e885e	0.06214177
245	0x3e90d2e3	0.28285894
246	0x3e50495a	0.20340481
247	0x3e7f84a4	0.24952942
248	0x3e5f9eca	0.21837917
249	0x3ea519b2	0.32246166
250	0xbdf24904	-0.11830333
251	0x3e6386a6	0.22219333
252	0x3e74f1f3	0.23920421
253	0x3e98e214	0.29859984
254	0xbe9b8d6e	-0.3038134
255	0xbe8dd1b9	-0.27699068

net.0.bias f4 [64]
0	0xbd1c6cce	-0.0381897
1	0x3e3b556c	0.18294305
2	0x3e05d5b1	0.13069798
3	0xbe19864a	-0.14992633
4	0xbe6689c4	-0.22513491
5	0xbec222d7	-0.37917206
6	0x3e6fd099	0.23419417
7	0x3ec28157	0.37989303
8	0xbe260f75	-0.16216834
9	0x3ebe50a5	0.37170902
10	0xbdb0260a	-0.086010054
11	0x3de61214	0.11233917
12	0x3d2baf47	0.041915204
13	0xbe5abdf0	-0.21361518
14	0xbe8358d8	-0.2565372
15	0xbe7342af	-0.23755907
16	0xbc6c950c	-0.014439832
17	0xbe21705b	-0.15765516
18	0xbe906d06	-0.28208178
19	0x3e7f9a11	0.24961115
20	0xbda2bdd8	-0.07946366
21	0x3e276f8c	0.16351146
22	0x3e64f576	0.22359261
23	0x3dddf112	0.10836996
24	0xbd9da924	-0.07698277
25	0x3ee442ef	0.44582316
26	0xbdde59d4	-0.10856977
27	0xbe9cd1ed	-0.3062891
28	0xbddb0465	-0.106941976
29	0xbd6104eb	-0.05493633
30	0x3d10e612	0.035375662
31	0x3e32a6fc	0.17446512
32	0xbf03ab5c	-0.5143335
33	0xbe9b2b3f	-0.30306432
34	0xbe6b8b5c	-0.2300238
35	0xbe84a803	-0.25909433
36	0x3c986e4f	0.018607287
37	0xbeb00fd2	-0.3438707
38	0x3e655654	0.22396213
39	0xbeec9219	-0.46205214
40	0xbe2342a1	-0.15943386
41	0xbdba7d84	-0.091059715
42	0xbe37a14f	-0.17932628
43	0x3e1d25f3	0.15346508
44	0x3e9c5985	0.30537048
45	0xbdee87f0	-0.11647022
46	0xbc78b876	-0.015180698
47	0x3e099fe2	0.13439897
48	0x3e54239a	0.20716706
49	0x3c6a90b3	0.014316726
50	0x3e19ac26	0.15007076
51	0x3d97fdd2	0.07421459
52	0xbd8c4b26	-0.06850271
53	0x3e27b8ef	0.1637914
54	0xbe4adc2b	-0.1981055
55	0xbeae83dd	-0.3408498
56	0xbe88e456	-0.26736706
57	0xbe49dd9b	-0.19713442
58	0xbe9ddfad	-0.30834714
59	0x3e730673	0.23732929
60	0xbe411d68	-0.18858874
61	0x3eae17a4	0.3400241
62	0xbe8b9e2d	-0.27269116
63	0xbe9eb1be	-0.30994982

net.3.weight f4 [64, 64]
0	0xbf80e76e	-1.0070627
1	0x3f43a8d1	0.7642947
2	0xbedef7fb	-0.4354857
3	0xbdae8bfe	-0.08522795
4	0xbdc299a9	-0.095019646
5	0x3afe43ba	0.0019398846
6	0x3dcc084a	0.099625185
7	0x3eb7159a	0.35758668
8	0x3dc3da2e	0.09563099
9	0x3ec144b7	0.37747738
10	0x3df429fa	0.11922069
11	0x3e8cb55a	0.2748211
12	0xbcdc6a4b	-0.026906153
13	0x3df2fca4	0.118645936
14	0xc034cf30	-2.8251457
15	0x3d7271f8	0.05919072
16	0x3d59b590	0.053151667
17	0x3e639223	0.22223715
18	0xbf146498	-0.57965994
19	0x3ed3d2f8	0.41371894
20	0x3e3c608e	0.18396208
21	0x3c05c4db	0.00816461
22	0x3e898eb0	0.26866674
23	0x3e87f0e2	0.26550967
24	0xbe49c45d	-0.19703813
25	0x3f1edb4d	0.62053376
26	0x3d7ddcf8	0.06197831
27	0xbd93349a	-0.07187767
28	0x3dd531bd	0.104098774
29	0x3b9891a0	0.0046560317
30	0xbd1c5d1c	-0.038174734
31	0x3e773bf3	0.24143963
32	0xbe49d288	-0.19709218
33	0xbdeed6e4	-0.11662081
34	0xbd49dd8c	-0.04928355
35	0x3d22fea0	0.03979361
36	0x3e65982a	0.22421327
37	0xbc085be6	-0.008322692
38	0x3dcf3d2e	0.10119091
39	0xbf37346f	-0.7156438
40	0x3d795304	0.060870185
41	0x3e8122d0	0.25221872
42	0xbf8be627	-1.0929612
43	0x3e671cc7	0.22569571
44	0x3ef056a4	0.46941102
45	0xbdbc6bda	-0.092002586
46	0xbd167cc8	-0.036740094
47	0xbda9ad44	-0.08285001
48	0xbb9cda4e	-0.004786766
49	0x3d94ceff	0.07266044
50	0x3cca96e0	0.024730146
51	0x3e93b73a	0.28850728
52	0x3e73a08b	0.23791711
53	0x3e0284a4	0.12745911
54	0xbc0152d0	-0.007893279
55	0xbf52b27c	-0.82303596
56	0x3dd39f8e	0.10333167
57	0xbeffc3f3	-0.49954185
58	0x3dc9284e	0.09822141
59	0x3e9350ff	0.28772733
60	0xbf315e7d	-0.692848
61	0x3ebb10c9	0.36536244
62	0xbcb42998	-0.02199249
63	0xbf548bbb	-0.8302571
64	0x3dca1cd7	0.09868782
65	0xbdb62201	-0.088932045
66	0x3e1fe06d	0.15612955
67	0x3d66a0a4	0.056305543
68	0x3dc32f8b	0.095305525
69	0xbc2ef661	-0.0106788585
70	0xbae12e00	-0.0017179847
71	0x3d8e1a73	0.069386385
72	0x3d20cccc	0.03925781
73	0x3a91ab74	0.0011113719
74	0x3cee2e78	0.029074892
75	0x3d672b4b	0.05643777
76	0x3e048c2c	0.12944096
77	0xbdce43aa	-0.100715
78	0x3cf85c74	0.030317523
79	0xbd8f6f3c	-0.07003638
80	0xbd550450	-0.052006066
81	0x3d04dbaa	0.03243605
82	0x3bd5be27	0.006522912
83	0xbe297471	-0.16548325
84	0x3d8b4d57	0.06801861
85	0x3dbc1b9e	0.09184955
86	0x3d823bc2	0.06359054
87	0xbd9dbab0	-0.077016234
88	0x3e094b24	0.1340757
89	0xbdcb7397	-0.099341564
90	0xbdb9943a	-0.09061475
91	0x3d577e80	0.052610874
92	0x3d333cd9	0.0437592
93	0x3df68b18	0.12038249
94	0xbc7f2df0	-0.015574917
95	0x3d9a0f80	0.07522488
96	0x3d833db1	0.06408251
97	0x3df4046a	0.119149044
98	0xbdcd1450	-0.1001364
99	0x3debcb3a	0.11513372
100	0x3d7a9a88	0.06118253
101	0xbd0d80a6	-0.034546517
102	0xbddaf529	-0.10691292
103	0x3dd53dc9	0.10412175
104	0x3da6c48c	0.08142957
105	0x3dd962c8	0.10614544
106	0x3e090af6	0.13383088
107	0x3e7aeed7	0.24505173
108	0xbe0c74c7	-0.13716422
109	0xbd8e630e	-0.06952487
110	0xbdeb4430	-0.11487615
111	0xbd392a68	-0.045206457
112	0xbd4aec72	-0.049541898
113	0xbdfc98fc	-0.12333867
114	0x3da1c8f2	0.078996554
115	0x3d2e4689	0.042547736
116	0x3b221bd4	0.0024735825
117	0x3e1acb85	0.15116699
118	0xbcef2950	-0.029194504
119	0x3df9fa5a	0.12205954
120	0x3ceaba48	0.028653279
121	0x3dded8af	0.10881173
122	0x3c2df5b0	0.0106176585
123	0x3c07f6cc	0.008298587
124	0x3da7a15a	0.08185072
125	0xbd96ec91	-0.0736934
126	0xbd0c7bd4	-0.03429778
127	0x3c36463c	0.011125144
128	0xbd63d0b7	-0.055618968
129	0xbe02d4dd	-0.12776513
130	0xbd4118d1	-0.047142807
131	0xbd8999f6	-0.06718819
132	0xbddedda6	-0.1088212
133	0xbc1b07c2	-0.009462299
134	0xbd2ca794	-0.042152002
135	0x3ce7ef1a	0.028312255
136	0x3dd0dfe0	0.10198951
137	0x3de3d75a	0.111250594
138	0xbdbaf558	-0.09128827
139	0xbcd56084	-0.026046999
140	0xbd076acb	-0.03306083
141	0x3de57142	0.11203243
142	0xbda3caa6	-0.079976365
143	0x3dd61dfe	0.10454939
144	0xbd66f850	-0.056389153
145	0xbe0da827	-0.13833676
146	0xbde98819	-0.11402912
147	0xbcc99665	-0.024607847
148	0xbe4477be	-0.19186303
149	0x3df549b7	0.119769506
150	0xbdb8f6bc	-0.09031436
151	0x3cc77035	0.024345497
152	0xbdefb96b	-0.117052875
153	0xbe360a3b	-0.1777734
154	0x3cc07d00	0.023497105
155	0xbdded996	-0.10881345
156	0x3e4f6893	0.20254736
157	0x3dd688ec	0.104753345
158	0x3d4c1c40	0.04983163
159	0x3dc0bcb0	0.09410989
160	0x3df1d8ee	0.11808954
161	0x38dc2000	0.00010496378
162	0xbc544120	-0.01295498
163	0x3bc63420	0.0060486943
164	0xbda8370e	-0.08213626
165	0x3da41cbf	0.080132954
166	0x3d9951c1	0.074862964
167	0x3b41e027	0.0029583068
168	0x3dad908c	0.08474836
169	0xbda0488f	-0.078263395
170	0x3d95e795	0.073195614
171	0xbe3f270b	-0.18667237
172	0x3ea54602	0.32279974
173	0x3d447494	0.04796274
174	0xbd432720	-0.047644734
175	0x3ba4d3a0	0.0050301105
176	0x3e11aaa0	0.14225245
177	0x3d9e102b	0.077179275
178	0x3db32842	0.08747913
179	0xbd9da03a	-0.076965764
180	0xbc5c5141	-0.013447107
181	0xbdc493f8	-0.09598535
182	0xbd3c7ea8	-0.046019226
183	0xbe2035b1	-0.15645482
184	0xbdc4c1a4	-0.096072465
185	0xbe2d41fc	-0.16919702
186	0xbc100570	-0.008790359
187	0x3e0a656c	0.13515252
188	0xbe0b62d9	-0.13611926
189	0x3ddaa829	0.10676605
190	0x3ddea864	0.10871962
191	0xbc6a8a88	-0.014315255
192	0x3e139c31	0.14415051
193	0x3d81a114	0.06329551
194	0x3e0bf43f	0.13667391
195	0xbd1ed99c	-0.038781747
196	0x3e104f87	0.14092837
197	0x3e5faa98	0.2184242
198	0x3deaefce	0.1147152
199	0x3e0dc0b4	0.13843042
200	0x3d965514	0.07340446
201	0x3e0eac15	0.13932832
202	0xbd4e777c	-0.050406918
203	0x3e7d00a6	0.24707279
204	0x3bf7d134	0.0075627808
205	0x3d245170	0.040116727
206	0x3dac1c80	0.084038734
207	0x3c292430	0.010323569
208	0x3dfc7e32	0.12328757
209	0x3e05598d	0.13022442
210	0x3de980a8	0.11401492
211	0x3dd76aa2	0.105183855
212	0x3e34ff4d	0.17675515
213	0x3d732a0a	0.059366263
214	0x3e8d45f4	0.27592432
215	0x3dc6b3ca	0.09702261
216	0xbc182a07	-0.009287364
217	0x3c86800b	0.016418478
218	0xbd303084	-0.043015018
219	0x3ca3f930	0.020016283
220	0x3dd5283e	0.10408066
221	0xbddf40d4	-0.10901037
222	0xbd450758	-0.048102707
223	0x3e21658f	0.15761398
224	0x3df5d772	0.120039836
225	0xbdeae8f2	-0.11470212
226	0xbd185d2c	-0.03719823
227	0xba928f80	-0.0011181682
228	0x3e54918d	0.20758648
229	0x3e294604	0.16530615
230	0x37b7af90	2.1897053e-05
231	0x3de6caa9	0.11269123
232	0x3dbcd3ae	0.09220062
233	0x3e3ee1bf	0.18640803
234	0x3e0ddb46	0.13853177
235	0x3e95d334	0.29262698
236	0xbe32cdff	-0.17461394
237	0x3d61698c	0.055032298
238	0x3dbb82be	0.091557965
239	0xbdb3c1de	-0.087772116
240	0x3e13a665	0.14418943
241	0x3c714bf1	0.0147275785
242	0xbd7a64e4	-0.061131373
243	0x3dfb92a3	0.12283828
244	0x3d9784f3	0.07398405
245	0x3e16798c	0.14694804
246	0x39ce0400	0.00039294362
247	0x3dda0003	0.106445335
248	0x3de0cfec	0.10977158
249	0x3e3d14a4	0.18464905
250	0xbdd9770e	-0.10618411
251	0x3e4a52c6	0.19758138
252	0x3e6ef31a	0.23334923
253	0x3b841c5f	0.0040317024
254	0xbd963b44	-0.07335523
255	0x3bc94186	0.006141844

net.3.bias f4 [64]
0	0x3ebc51ad	0.36781064
1	0x3e62d1af	0.221503
2	0x3ea34ecb	0.31896052
3	0x3ef5c645	0.4800283
4	0x3e6d19d3	0.23154382
5	0x3caaf9e1	0.020871105
6	0xbda47ca1	-0.080315836
7	0x3f0f0bc6	0.5587734
8	0x3f101136	0.5627626
9	0xbcaffeca	-0.021483798
10	0xbda197a0	-0.07890248
11	0x3f0404a1	0.51569563
12	0x3ecc467c	0.39897525
13	0x3ed89823	0.4230357
14	0xbe0ffd1a	-0.14061394
15	0xbe1d5e49	-0.15367998
16	0xbe1c5a42	-0.15268806
17	0xbe2450bc	-0.16046423
18	0x3e1cbc4f	0.15306209
19	0x3eaf995a	0.34296685
20	0xbd487691	-0.0489412
21	0x3e9af1b6	0.30262536
22	0x3f18053c	0.5938299
23	0xbd17ac33	-0.037029456
24	0x3ed7b3fd	0.42129508
25	0x3eba2f88	0.36364388
26	0x3bbb62be	0.005718558
27	0x3ea4980e	0.3214726
28	0xbd908dd6	-0.07058303
29	0x3ea80bf8	0.3282163
30	0x3e9595cd	0.2921585
31	0xbe4bb557	-0.19893394
32	0x3ef99fe7	0.48754808
33	0x3d42c939	0.047555182
34	0x3d60bfa1	0.05487025
35	0x3f0cf180	0.55056
36	0x3e190b28	0.14945662
37	0xbd9592a6	-0.073033616
38	0x3e2df8a9	0.16989388
39	0x3e605301	0.21906663
40	0x3f1809f7	0.59390205
41	0x3ef48c20	0.47763157
42	0xbe20956a	-0.15681997
43	0x3d876b1f	0.066122286
44	0x3f0ca1d7	0.5493445
45	0x3ef36ad4	0.4754244
46	0xbe2fca94	-0.17167121
47	0x3e4e4bc4	0.2014609
48	0x3eb4e6a3	0.35332212
49	0x3f0fc398	0.5615783
50	0x3e10b2d7	0.14130722
51	0xbd9925dc	-0.07477924
52	0xbdde56b9	-0.10856385
53	0x3ec459ce	0.38349766
54	0x3eb95577	0.36198017
55	0x3ebc8c33	0.36825714
56	0x3e6ea973	0.23306827
57	0x3ece905d	0.40344515
58	0x3ece859b	0.40336308
59	0x3e688359	0.22706355
60	0x3d82c976	0.06386082
61	0x3f2a74e3	0.66584605
62	0xbe40dc33	-0.18834
63	0x3eecd826	0.46258658
