2_Party/shadow_model_data/shadow_minus_F_client1_bottom_inter.pt (torch, 21936 bytes, 4 tensors)

net.0.weight f4 [64, 10]
-0.30099878 0.11075509 -2.5095627 -1.2403682 0.096023895 0.24235642 0.30684087 0.2145186
0.3170797 0.27610376 -0.381842 -0.31773567 -2.561146 -1.1368809 0.15191832 0.1606784
0.11100445 0.2707378 0.40229908 0.0022702096 -0.19940709 -0.4098089 -0.29439494 0.37501174
-0.33872804 0.14767472 -0.09560591 -0.31662983 0.036108784 0.07709997 -0.31147677 -0.41099295
-0.15985423 0.17694181 -0.29392833 -0.33766097 0.11759906 0.13704875 -0.23493671 -0.20710239
0.3970211 0.25184673 -1.3313445 -0.17457683 0.28138316 0.13203698 -0.10507171 0.2549765
0.1774021 -0.14569381 -0.12343347 0.14022207 -1.1655364 -0.67533416 -0.076763734 -0.032403443
0.3197001 0.30171916 0.18813878 0.04409846 -0.009198327 0.15170312 -0.071401455 0.25114685
-0.22536834 -0.15364155 0.13491663 -0.0291276 -0.25221205 -0.2069408 -0.20250313 -0.4221233
1.2688043 0.57209295 -0.325155 -0.36667785 0.20102885 -0.2185845 -0.029605698 -0.22183959
0.30457097 -0.059781414 0.26779544 -0.09292544 0.27330613 -0.12211399 0.19619282 -0.08989929
0.2260033 -0.30102998 0.02666443 0.36436108 -1.647032 -0.5912557 0.25016773 -0.15046243
0.1826556 0.20919816 0.22761993 0.17706433 0.57257575 0.8104553 -1.7190331 -0.066204086
0.03148495 0.123246044 0.09987213 0.2557693 -0.21994546 0.32940668 -0.34893185 -0.32854217
1.4505935 0.9513126 -0.37916288 0.21341702 -0.26289898 -0.12978862 -0.12866066 -0.286387
-0.07357108 -0.011548715 0.2644042 0.25367817 0.21938501 0.12525056 0.17821974 0.0863462
-0.2045983 0.3006711 -0.22272654 0.10975519 0.3322256 0.8155899 -0.2498049 -0.123534
-0.28250724 0.12795903 0.0800485 -0.24038091 0.5043282 0.759593 -2.1255362 -1.0226924
0.30462945 -0.10600626 0.1994558 0.17244548 0.3452481 0.21847354 -0.8278173 -0.443393
1.5687395 0.5102101 -0.36441717 -0.24888924 -0.25191393 -0.20722815 -0.23402038 -0.14509048
0.1115459 0.12514323 -0.13297835 0.040764 -0.017062094 -0.20033254 0.2508582 -0.081556536
0.033780653 -0.030860884 0.14217465 0.2881911 -0.114634365 0.23384222 -0.30860358 -0.21839865
0.23464245 -0.011647669 -0.28364915 0.066794336 -0.03787759 0.16821878 -0.92386854 -0.25537068
0.054906756 0.33554804 -0.23051704 0.1475263 0.06623126 0.21572478 0.13178921 0.0033949288
0.01327539 -0.055267766 -0.32497022 0.04236026 0.068764254 -0.1253568 0.26352847 -0.22063875
0.0763289 0.21164636 0.27984697 0.0993348 -0.083227016 0.019859044 0.16028853 -0.20714584
0.09819506 -0.15978523 -1.0961422 -0.84365046 0.33016977 0.506636 -0.34219238 0.17797823
-0.28565657 0.116018616 -0.06525589 -0.024197433 0.47943434 0.2561614 -2.1798227 -1.1842555
-0.06554331 0.28115043 0.054873817 0.07706946 0.2755745 0.26934418 1.2182896 1.1637948
-1.9529943 -1.2775878 -0.13696608 0.24447988 0.3079557 0.15477444 0.2145179 0.24259074
-0.8044284 -0.5718991 0.42301878 0.36097935 -0.13266656 0.07528682 -0.2416451 -0.01732755
0.15589082 -0.36716583 -0.079615615 0.14344941 0.29964694 0.13750492 0.26222953 0.043372914
00000000: 831c 9abe 91d3 e23d ad9c 20c0 63c4 9ebf
00000010: 2da8 c43d 482c 783e 3f1a 9d3e c4aa 5b3e
00000020: 4558 a23e 795d 8d3e cb80 c3be 40ae a2be
00000030: d1e9 23c0 5085 91bf 7a90 1b3e e188 243e
00000040: 4d56 e33d 259e 8a3e 25fa cd3e ccc7 143b
00000050: 5f31 4cbe 79d2 d1be efba 96be 8a01 c03e
00000060: c36d adbe 0b38 173e 08cd c3bd 4e1d a2be
00000070: cee6 133d 97e6 9d3d e279 9fbe ab6d d2be
00000080: d4b0 23be 3c30 353e c67d 96be e6e1 acbe
00000090: c7d7 f03d 8256 0c3e 4093 70be a612 54be
000000a0: 5a46 cb3e 0ef2 803e 7f69 aabf 45c4 32be
000000b0: 7411 903e b434 073e d62f d7bd 488c 823e
000000c0: e5a8 353e c230 15be b0ca fcbd 6096 0f3e
000000d0: 4c30 95bf b3e2 2cbf 4e36 9dbd 79b9 04bd
000000e0: bbaf a33e ef7a 9a3e 74a7 403e 96a0 343d
000000f0: 94b4 16bc 1058 1b3e ed3a 92bd 5296 803e
00000100: f5c6 66be 3654 1dbe 9627 0a3e 019d eebc
00000110: f021 81be 4ae8 53be fb5c 4fbe 8c20 d8be
00000120: 2e68 a23f af74 123f b77a a6be 33bd bbbe
00000130: 82da 4d3e 9dd4 5fbe a687 f2bc eb29 63be
00000140: baf0 9b3e 5bdd 74bd 7c1c 893e b14f bebd
00000150: c8ee 8b3e e616 fabd c5e6 483e 1e1d b8bd
00000160: 696d 673e 9a20 9abe 5d6f da3c 898d ba3e
00000170: f2d1 d2bf 895c 17bf fc15 803e d312 1abe
00000180: 120a 3b3e 0b38 563e 3315 693e 5a50 353e
00000190: 5394 123f 007a 4f3f 4709 dcbf 0296 87bd
000001a0: 5df6 003d 6c68 fc3d c289 cc3d 32f4 823e
000001b0: 6239 61be fea7 a83e 32a7 b2be ae36 a8be
000001c0: 0cad b93f 3989 733f a321 c2be fe89 5a3e
000001d0: b29a 86be 4fe7 04be 9fbf 03be 51a1 92be
000001e0: 6fac 96bd d236 3dbc fd5f 873e 1be2 813e
000001f0: 77a6 603e af41 003e 3c7f 363e 47d6 b03d
00000200: 3782 51be 90f1 993e 6d12 64be 54c7 e03d
00000210: 7919 aa3e 80ca 503f dbcc 7fbe 65ff fcbd
00000220: caa4 90be b107 033e 78f0 a33d 6a26 76be
00000230: a71b 013f b074 423f c908 08c0 96e7 82bf
00000240: 64f8 9b3e cf19 d9bd 243e 4c3e 8c95 303e
00000250: 5cc4 b03e 87b7 5f3e d6eb 53bf 6804 e3be
00000260: 75cc c83f 219d 023f e394 babe d2dc 7ebe
00000270: ddfa 80be 9e33 54be 0aa3 6fbe 9992 14be
00000280: 2d72 e43d 8c25 003e 7a2b 08be 27f8 263d
00000290: cec5 8bbc f923 4dbe 7c70 803e 1d07 a7bd
000002a0: 955d 0a3d f7cf fcbc 3b96 113e c98d 933e
000002b0: 6cc5 eabd 5674 6f3e 4a01 9ebe e5a3 5fbe
000002c0: 1c46 703e ddd5 3ebc 763a 91be 78cb 883d
000002d0: 8825 1bbd 8b41 2c3e a682 6cbf f2bf 82be
000002e0: e8e5 603d f4cc ab3e a90c 6cbe 2211 173e
000002f0: 41a4 873d f5e6 5c3e c0f3 063e 747d 5e3b
00000300: 0581 593c 7460 62bd 7f62 a6be f481 2d3d
00000310: 46d4 8c3d 885d 00be 34ed 863e 20ef 61be
00000320: 5452 9c3d d3b9 583e 1a48 8f3e 0b70 cb3d
00000330: ed72 aabd 6faf a23c ad22 243e 0a1e 54be
00000340: 7e1a c93d bd9e 23be 634e 8cbf 7af9 57bf
00000350: 030c a93e e6b2 013f d733 afbe ed3f 363e
00000360: 9441 92be 2b9b ed3d e1a4 85bd b239 c6bc
00000370: 6b78 f53e 9627 833e 3782 0bc0 af95 97bf
00000380: 923b 86bd f3f2 8f3e 5ec3 603d 98d6 9d3d
00000390: 1a18 8d3e 7be7 893e eaf0 9b3f 3af7 943f
000003a0: b8fb f9bf ff87 a3bf d640 0cbe ef58 7a3e
000003b0: 5fac 9d3e 317d 1e3e 95aa 5b3e b569 783e
000003c0: 05ef 4dbf fb67 12bf eb95 d83e 49d2 b83e
000003d0: bed9 07be fa2f 9a3d d071 77be 82f2 8dbc
000003e0: d8a1 1f3e 29fd bbbe 830d a3bd 67e4 123e
000003f0: 536b 993e 17ce 0c3e f342 863e cca7 313d

net.0.bias f4 [64]
-0.09492 -0.23455785 -0.025928868 0.13871503 0.28292102 -0.23541723 -0.21474132 0.31615466
0.29609293 0.21522768 0.034081675 0.32985607 0.018904625 -0.23717512 -0.112449735 0.045653004
-0.010863039 -0.30550998 -0.023646453 0.09005232 0.11301918 0.21665543 -0.227681 0.02103576
-0.0181507 -0.017559359 0.014630521 -0.013483384 -0.06940674 0.018607993 0.09930566 -0.1844394
-0.042969856 -0.21393749 0.03848657 -0.25346455 -0.12491995 0.005662547 0.3359646 -0.071897775
-0.21168229 0.036393877 -0.14686513 0.0626596 -0.021788731 0.0053191422 0.2535933 -0.14710046
0.17067821 -0.063115515 0.07582609 0.115946405 0.15652034 0.079994805 0.09287903 -0.12656529
-0.2079544 -0.1181739 -0.19063756 0.027887248 0.15733309 0.110838056 -0.09628484 0.18192264
00000000: 6b65 c2bd ef2f 70be c768 d4bc 500b 0e3e
00000010: 06db 903e 3711 71be 26e5 5bbe 06df a13e
00000020: 7e99 973e a564 5c3e 3a99 0b3d e5e2 a83e
00000030: dfdd 9a3c 09de 72be 0c4c e6bd a5fe 3a3d
00000040: e3fa 31bc ce6b 9cbe 35b6 c1bc 5a6d b83d
00000050: 9a76 e73d ecda 5d3e 3525 69be 3053 ac3c
00000060: c7b0 94bc a5d8 8fbc dab4 6f3c 69e9 5cbc
00000070: 1f25 8ebd ca6f 983c c460 cb3d afdd 3cbe
00000080: 2901 30bd 6e12 5bbe 18a4 1d3d 1bc6 81be
00000090: 08d6 ffbd e38c b93b 8d03 ac3e 243f 93bd
000000a0: 3ec3 58be bf11 153d d063 16be ad53 803d
000000b0: 487e b2bc 334c ae3b fbd6 813e 81a1 16be
000000c0: 45c6 2e3e b542 81bd b64a 9b3d 4f75 ed3d
000000d0: de46 203e 51d4 a33d 5c37 be3d 559a 01be
000000e0: 00f2 54be 2805 f2bd 7e36 43be cc73 e43c
000000f0: ed1b 213e 10ff e23d fc30 c5bd ee49 3a3e

net.3.weight f4 [64, 64]
0.07573627 0.018289452 -0.13368939 -0.056997016 0.052454386 -0.04549089 0.021254495 0.11182228
-0.03532125 0.17538914 0.0006942624 0.084312 -0.0051296204 0.058789615 0.1387407 -0.16948833
0.061474472 -0.096119314 -0.02852433 0.022790166 -0.076074615 -0.13194671 0.016704718 0.02411929
-0.086952575 -0.0034813583 0.026656484 -0.12984605 -0.061564088 -0.055981502 -0.046267986 -0.087873615
0.11663538 -0.07115382 0.104188 -0.025840351 -0.044047773 -0.0075255185 -0.060263693 -0.09451568
0.05940862 -0.0013620274 -0.11940704 0.08155087 0.011439979 0.0577422 -0.16995242 -0.08881034
-0.19578056 -0.10129736 0.11093473 -0.08511788 -0.08681166 -0.079043776 -0.086120255 0.11732508
-0.027010515 0.04856256 -0.0882633 -0.027985603 -0.09763525 0.06761514 -0.019210855 0.14912805
0.12901865 0.1169362 0.094146684 -0.071029164 0.05680171 0.062468123 -0.04824041 -0.07128817
0.01788643 -0.043006312 0.0955429 -0.047852334 -0.06802842 0.0016889491 0.17062771 0.085099936
0.04126385 0.061334968 0.0016542545 0.04108286 -0.062938586 -0.020210689 -0.08272442 -0.18569654
-0.051866177 -0.10768537 0.17632537 -0.105531186 -0.08861667 -0.08892336 0.005666122 0.026348034
-0.049222693 -0.09687577 -0.012042377 0.054661877 -0.10256341 -0.07384619 0.15572438 -0.014324501
0.010542572 0.07064985 0.018352553 -0.090618074 0.02914612 0.02166388 -0.12843235 0.064386815
-0.07114271 -0.05267079 -0.13739991 -0.04496884 -0.010579303 0.021262 -0.06288141 0.014336932
0.005463034 0.023081789 0.05468665 -0.045563906 0.015891926 0.027120516 -0.14630628 -0.0057856776
0.103713855 -0.010663875 -0.13253978 -0.15175082 -0.12828651 -0.0017452906 0.087626174 -0.12957263
-0.12200682 -0.050468016 -0.008166262 -0.12752138 -0.08915046 -0.08386344 -0.020692546 0.024051186
-0.042708248 0.08752391 -0.061972138 -0.17675366 0.12127794 -0.011462854 0.089054644 0.048604257
0.099254526 -0.09754984 -0.13753416 -0.087246746 0.05358714 0.14722916 0.10806753 -0.11400077
0.011540517 0.10145737 0.067541584 -0.13167489 -0.04875277 -0.0028442591 -0.018466463 -0.04201138
-0.09479235 -0.04271831 0.026536733 0.010792583 -0.075807855 0.19009875 0.1390815 -0.055628598
-0.15186152 -0.026657894 -0.10174516 0.09244523 0.001363486 0.15035644 -0.026152296 -0.1216196
0.096065596 -0.18174624 -0.025356293 -0.11787775 0.10399052 -0.062454104 0.08887134 0.18306929
0.08980447 -0.06917642 -0.057850186 0.091043174 -0.054468904 0.11141516 0.06819008 0.20147203
-0.029599786 0.055554733 0.07275707 0.09866741 -0.027906343 0.114959545 0.03273545 0.26872125
-0.030458659 -0.10197399 0.105377324 -0.055347573 -0.022011936 0.100236915 0.09830107 0.14080755
0.089541115 -0.04005122 0.027634742 0.023795737 0.009795725 0.029715458 0.01770784 0.112144455
-0.059762582 0.12341261 -0.076045915 0.14951675 -0.08228122 -0.11566447 0.08956286 -0.11204365
-0.0967491 -0.03925369 -0.018947795 -0.0298239 -0.044625014 0.13686405 -0.08919183 0.11783093
0.073987834 0.06884025 0.10970566 -0.037401184 0.07203241 0.0075372513 -0.07440955 0.044287127
-0.09008619 -0.06196132 0.002842307 -0.087960005 -0.053154968 -0.07182486 0.045784045 0.015921097
00000000: 9e1b 9b3d c3d3 953c dfe5 08be b475 69bd
00000010: 69da 563d a854 3abd e81d ae3c 1403 e53d
00000020: 04ad 10bd 3699 333e 29ff 353a c5ab ac3d
00000030: 6016 a8bb 61cd 703d 0b12 0e3e 598e 2dbe
00000040: a8cc 7b3d 34da c4bd dbab e9bc 71b2 ba3c
00000050: 02cd 9bbd 0a1d 07be 55d8 883c d195 c53c
00000060: 3114 b2bd 8027 64bb b35e da3c 5df6 04be
00000070: a02a 7cbd dc4c 65bd 8083 3dbd 15f7 b3bd
00000080: 88de ee3d 18b9 91bd 8560 d53d 25af d3bc
00000090: 706b 34bd a098 f6bb 10d7 76bd 7091 c1bd
000000a0: 7456 733d 0e86 b2ba ae8b f4bd 2404 a73d
000000b0: c06e 3b3c 1683 6c3d 0208 2ebe 32e2 b5bd
000000c0: b37a 48be fe74 cfbd bf31 e33d 4852 aebd
000000d0: 50ca b1bd b4e1 a1bd d15f b0bd 2248 f03d
000000e0: 2845 ddbc 89e9 463d 64c3 b4bd 1042 e5bc
000000f0: fdf4 c7bd ce79 8a3d 1560 9dbc 06b5 183e
00000100: 771d 043e 3f7c ef3d facf c03d bd77 91bd
00000110: e9a8 683d 93de 7f3d bc97 45bd 88ff 91bd
00000120: 9086 923c 6327 30bd ffab c33d cf00 44bd
00000130: 7c52 8bbd ba5f dd3a 08b9 2e3e e048 ae3d
00000140: 4804 293d 603a 7b3d 92d3 d83a 8046 283d
00000150: f2e5 80bd e390 a5bc 6c6b a9bd 3c27 3ebe
00000160: a171 54bd 268a dcbd a38e 343e bc20 d8bd
00000170: a87c b5bd 731d b6bd e0aa b93b d5d7 d73c
00000180: bc9d 49bd ce66 c6bd 644d 45bc 22e5 5f3d
00000190: c40c d2bd ac3c 97bd 3676 1f3e 50b1 6abc
000001a0: c0ba 2c3c deb0 903d 1858 963c f895 b9bd
000001b0: d8c3 ee3c 7378 b13c c583 03be 3cdd 833d
000001c0: 45b3 91bd 54bd 57bd 90b2 0cbe 3f31 38bd
000001d0: d054 2dbc a52d ae3c f8c7 80bd 74e5 6a3c
000001e0: 4003 b33b 0516 bd3c 1cff 5f3d 38a1 3abd
000001f0: c92f 823c d82b de3c 50d1 15be c895 bdbb
00000200: ee67 d43d 89b7 2ebc 82b8 07be 9164 1bbe
00000210: 8a5d 03be 3cc2 e4ba 5a75 b33d b0ae 04be
00000220: b6de f9bd 8db7 4ebd c9cb 05bc f794 02be
00000230: 8494 b6bd 98c0 abbd 6a83 a9bc fe06 c53c
00000240: d8ee 2ebd bc3f b33d 7fd6 7dbd e9fe 34be
00000250: 9260 f83d b2ce 3bbc 4862 b63d 4215 473d
00000260: f545 cb3d 36c8 c7bd c1d5 0cbe 6cae b2bd
00000270: 307e 5b3d 3ec3 163e 8252 dd3d 3c79 e9bd
00000280: 7014 3d3c e2c8 cf3d 3e53 8a3d c8d5 06be
00000290: fcb0 47bd c066 3abb fb46 97bc 2014 2cbd
000002a0: 7e22 c2bd 65f9 2ebd 9063 d93c 60d3 303c
000002b0: 2641 9bbd 3fa9 423e 616b 0e3e d0da 63bd
000002c0: 9681 1bbe a861 dabc c45f d0bd ed53 bd3d
000002d0: 00b7 b23a 0af7 193e 573d d6bc b213 f9bd
000002e0: 0abe c43d b01b 3abe 00b8 cfbc e469 f1bd
000002f0: fbf8 d43d e0cf 7fbd 2d02 b63d 8476 3b3e
00000300: 68eb b73d 5eac 8dbd 51f4 6cbd d874 ba3d
00000310: c91a 5fbd a22d e43d 3ea7 8b3d af4e 4e3e
00000320: 407b f2bc 5c8d 633d a901 953d 2412 ca3d
00000330: d89b e4bc e96f eb3d 9b15 063d d595 893e
00000340: 7084 f9bc bdd7 d0bd 11d0 d73d 23b4 62bd
00000350: 6052 b4bc 0349 cd3d 1252 c93d db2f 103e
00000360: 5561 b73d c00c 24bd 4162 e23c 47ef c23c
00000370: 407e 203c d56d f33c 0810 913c feab e53d
00000380: 9cc9 74bd c0bf fc3d f6bd 9bbd eb1a 193e
00000390: 0e83 a8bd 7ee1 ecbd bc6c b73d 2477 e5bd
000003a0: 6424 c6bd 7ac8 20bd 6838 9bbc 4051 f4bc
000003b0: b8c8 36bd 1726 0c3e 35aa b6bd 5851 f13d
000003c0: ef86 973d 1efc 8c3d 5cad e03d fc31 19bd
000003d0: ba85 933d 0cfb f63b 0964 98bd 6b66 353d
000003e0: 1c7f b8bd 27cb 7dbd 0046 3a3b 6024 b4bd
000003f0: 06b9 59bd ea18 93bd 0d88 3b3d f66c 823c

net.3.bias f4 [64]
0.3812973 0.24802715 0.22729024 0.4214306 -0.1320894 0.21790457 0.2686843 -0.09568584
0.33779266 0.32548004 0.40185437 0.14574762 0.3823232 0.38564175 0.25957394 0.30773097
0.27432367 0.42045987 0.26030198 0.42480057 0.14793825 0.3021922 0.20468007 0.4863561
0.11614929 0.057604987 0.2343932 0.42371085 0.44839728 0.13369343 0.056914918 0.10894963
-0.08767746 -0.13667312 0.2591824 0.2812236 0.008949823 0.33946678 0.28243086 0.4007968
0.3418677 -0.021258956 0.15042026 0.25293598 0.17941912 0.09446814 -0.004634101 0.31928208
0.18677515 0.3862602 0.5603657 0.17474756 0.29354525 0.36310896 -0.027156558 0.11866056
0.2791505 0.104912505 0.39993402 0.52757657 0.06769402 0.24704345 0.32643157 -0.1712803
00000000: 6639 c33e d4fa 7d3e c6be 683e c0c5 d73e
00000010: 7242 07be 6022 5f3e fd90 893e f0f6 c3bd
00000020: 29f3 ac3e 52a5 a63e dbbf cd3e dd3e 153e
00000030: debf c33e d672 c53e e0e6 843e ea8e 9d3e
00000040: 2774 8c3e 8446 d73e 4d46 853e 767f d93e
00000050: 207d 173e f0b8 9a3e a797 513e ab03 f93e
00000060: aedf ed3d 35f3 6b3d c504 703e a1f0 d83e
00000070: 5494 e53e eee6 083e 9e1f 693d fc20 df3d
00000080: 3d90 b3bd 0af4 0bbe 8eb3 843e 8afc 8f3e
00000090: 47a2 123c 97ce ad3e c79a 903e 3d35 cd3e
000000a0: 4809 af3e 4327 aebc c507 1a3e d380 813e
000000b0: a5b9 373e 8378 c13d a8d9 97bb f178 a33e
000000c0: fc41 3f3e e6c3 c53e 2074 0f3f 06f1 323e
000000d0: 904b 963e 6be9 b93e 6e77 debc 4f04 f33d
000000e0: d0ec 8e3e 5edc d63d 27c4 cc3e 420f 073f
000000f0: 2aa3 8a3d f5f8 7c3e 0a22 a73e 1a64 2fbe
