2_Party/shadow_model_data/shadow_minus_F_client2_bottom.pt (torch, 21376 bytes, 4 tensors)

net.0.weight f4 [64, 8]
-2.1358628 -2.469002 -0.20428267 0.3723354 0.36801255 0.19562122 0.43669128 0.40741992
-0.9133885 -0.83418244 -0.20362994 0.17019999 -0.2431414 -0.033832055 -0.021226795 -0.22714028
0.13597669 -0.03653141 0.14957756 0.051885508 -0.055912305 -0.19566585 -0.2840816 -0.3103497
-0.24840365 0.03216268 0.1922163 -0.045806963 0.34148085 0.10359594 0.24189323 0.0032089767
0.25389633 -0.26668417 0.34849682 0.2002975 -0.033784702 0.26438597 -0.059457403 -0.28037372
-0.57022613 -0.42549115 -0.3143884 0.24551848 -0.2052745 0.0051785107 -0.20293353 -0.015212233
-0.311529 0.15803441 0.016962463 -0.040501434 -0.103119895 -0.25285178 -0.037789285 -0.20695587
-0.62898844 -0.15262705 0.15697895 0.04890891 -0.04745264 -0.15555625 0.18776248 0.21193269
-0.24356921 -0.0054901326 -0.0320327 0.108283214 -0.261139 0.030938314 0.10265472 -0.29051974
-1.3096662 -1.9770823 -0.17336287 0.34262174 0.25267974 0.43971226 0.445391 -0.08276234
0.23525843 -0.24395831 -0.22705287 0.23982555 0.16756646 -0.04433313 -0.075996034 0.0050040954
-0.2582693 0.25823686 0.3261611 -0.30626366 0.22902188 -0.15995075 0.26652372 -0.23589173
-2.1445062 -1.6147918 -0.15827203 0.12748846 0.3802141 0.148945 0.14460374 0.19366834
-0.3509799 0.007142247 -0.22007968 0.15382057 -0.18830967 -0.31096506 -0.33884084 0.29335052
0.6012545 0.26549044 -0.36977798 -0.016336108 0.0880575 0.24204399 -0.29290682 -0.173268
-0.29843998 0.11413556 0.18627144 0.124679185 -0.14935786 -0.31650263 0.0048442325 0.2628798
-0.03825471 -0.16554654 0.13054152 0.20866364 -0.17634578 0.20128727 -0.0016444436 0.0032600586
-0.7390901 -0.9507427 -0.10095663 0.20344119 0.23377779 0.13846365 0.419682 0.13125978
-0.0870627 -0.2977383 0.31733197 0.023697866 0.23425812 0.31129202 -0.33064115 -0.14704007
0.2640027 0.060740225 0.1943733 -0.06404049 -0.06367925 0.31235576 -0.18492953 -0.12145866
1.1849695 1.1298616 -0.42403683 0.003031045 -0.26471668 -0.4214026 -0.07702575 0.09099202
-0.2903419 0.107153974 0.35149437 0.13037567 -0.030315427 0.13539827 -0.35325974 -0.23552893
-0.013590883 -0.20716743 -0.09090321 -0.10565477 0.08524659 -0.34524077 -0.060629506 0.25100648
-0.0468128 0.12916133 0.030657575 -0.16140224 0.3273711 -0.2616167 -0.19515748 -0.0762047
1.5242959 1.2950243 -0.35767585 0.05705843 -0.17770696 -0.2832164 -0.3737966 0.11827311
0.7134808 0.12339522 -0.13646129 0.07905848 -0.32978696 0.06831625 -0.40912923 -0.07962756
-0.21594006 0.102651455 -0.13994062 -0.045595318 0.17861591 -0.25351617 -0.086878106 0.25624764
1.0885742 0.286826 -0.36837453 0.2202334 -0.39365324 -0.24178977 0.018009422 -0.2631278
0.08955088 0.17642342 0.03646326 0.16386251 0.067257896 0.23142084 -0.1258686 0.015422881
-0.16409622 0.21253091 0.1847017 0.26022252 -0.26583096 0.06261416 -0.052167512 -0.27127084
0.23770726 0.09253711 -0.16193043 0.13152194 -0.31164673 -0.34225523 -0.22581084 -0.32874677
-1.2857434 -1.0011199 0.34359396 -0.25932294 0.16169319 0.2533083 0.35250124 -0.09642302
00000000: fab1 08c0 2104 1ec0 7a2f 51be bfa2 be3e
00000010: 246c bc3e ee50 483e 0096 df3e 5899 d03e
00000020: d4d3 69bf fb8c 55bf 5e84 50be e848 2e3e
00000030: 0ffa 78be 7b93 0abd d1e3 adbc 7697 68be
00000040: 793d 0b3e f6a1 15bd dc2a 193e e685 543d
00000050: 4d04 65bd a15c 48be 2573 91be 28e6 9ebe
00000060: 875d 7ebe 04bd 033d 5ad4 443e 15a0 3bbd
00000070: 94d6 ae3e 1c2a d43d dcb2 773e b24d 523b
00000080: b3fe 813e d48a 88be 2d6e b23e ca1a 4d3e
00000090: d461 0abd 995d 873e 9b89 73bd 258d 8fbe
000000a0: 57fa 11bf fad9 d9be 84f7 a0be 3269 7b3e
000000b0: 7b33 52be 7fb0 a93b cfcd 4fbe bb3c 79bc
000000c0: bb80 9fbe c6d3 213e ddf4 8a3c d5e4 25bd
000000d0: 8630 d3bd ca75 81be f0c8 1abd 3dec 53be
000000e0: 6305 21bf 444a 1cbe 17bf 203e b654 483d
000000f0: b35d 42bd 234a 1fbe cf44 403e e204 593e
00000100: 356a 79be 92e6 b3bb b834 03bd 97c3 dd3d
00000110: 03b4 85be 5972 fd3c a33c d23d 01bf 94be
00000120: 24a3 a7bf 0811 fdbf 0986 31be 1e6c af3e
00000130: 3d5f 813e f721 e13e 4a0a e43e 4d7f a9bd
00000140: 96e7 703e 35d0 79be 8c80 68be d494 753e
00000150: 8b96 2b3e a896 35bd cfa3 9bbd 65f9 a33b
00000160: e03b 84be 9f37 843e 96fe a63e 97ce 9cbe
00000170: b684 6a3e 21ca 23be cc75 883e 9a8d 71be
00000180: 973f 09c0 7fb1 cebf 1012 22be 568c 023e
00000190: 6cab c23e 0a85 183e 0113 143e fe50 463e
000001a0: a3b3 b3be 8309 ea3b 915c 61be 2483 1d3e
000001b0: 40d4 40be d036 9fbe 8c7c adbe 0a32 963e
000001c0: d1eb 193f 5dee 873e 8a53 bdbe 4dd3 85bc
000001d0: 7e57 b43d 61da 773e e2f7 95be 2b6d 31be
000001e0: 20cd 98be e8bf e93d f1bd 3e3e cd57 ff3d
000001f0: 44f1 18be a20c a2be 5ebc 9e3b 2e98 863e
00000200: f9b0 1cbd 0885 29be adac 053e ecab 553e
00000210: fd93 34be 401e 4e3e 5f8a d7ba b5a6 553b
00000220: 0235 3dbf e063 73bf 5ac2 cebd e352 503e
00000230: 7263 6f3e 6ac9 0d3e 8fe0 d63e f768 063e
00000240: ee4d b2bd 2871 98be 5679 a23e 0722 c23c
00000250: 5ce1 6f3e ab61 9f3e cc49 a9be ac91 16be
00000260: 5d2b 873e beca 783d cb09 473e a927 83bd
00000270: 446a 82bd 18ed 9f3e 2b5e 3dbe 51bf f8bd
00000280: 15ad 973f 4e9f 903f 5b1b d9be 7fa4 463b
00000290: f288 87be 15c2 d7be adbf 9dbd 065a ba3d
000002a0: b2a7 94be 8b73 db3d 12f7 b33e 3381 053e
000002b0: 0f58 f8bc d8a5 0a3e 76de b4be 7f2e 71be
000002c0: 4cac 5ebc b323 54be 762b babd 8761 d8bd
000002d0: c495 ae3d 66c3 b0be a556 78bd ec83 803e
000002e0: c7be 3fbd de42 043e 9825 fb3c a146 25be
000002f0: 2f9d a73e a0f2 85be 5dd7 47be 3611 9cbd
00000300: 211c c33f 5bc3 a53f 4a21 b7be 1ab6 693d
00000310: d0f8 35be bd01 91be 4562 bfbe 2c39 f23d
00000320: ada6 363f a2b6 fc3d 82bc 0bbe 6ae9 a13d
00000330: d6d9 a8be 64e9 8b3d 6379 d1be c613 a3bd
00000340: 641f 5dbe ed3a d23d 984c 0fbe 28c2 3abd
00000350: 17e7 363e dfcc 81be 26ed b1bd e432 833e
00000360: 6656 8b3f dcda 923e 969b bcbe dd84 613e
00000370: eb8c c9be bd97 77be 7f88 933c b0b8 86be
00000380: 7466 b73d 57a8 343e 805a 153d 93cb 273e
00000390: 82be 893d 96f9 6c3e b3e3 00be 40b0 7c3c
000003a0: d708 28be b4a1 593e 7122 3d3e e33b 853e
000003b0: ff1a 88be da3b 803d 9aad 55bd 03e4 8abe
000003c0: 8869 733e 1984 bd3d 17d1 25be b0ad 063e
000003d0: 2990 9fbe 143c afbe f53a 67be 7f51 a8be
000003e0: 3d93 a4bf b224 80bf 8ceb af3e fac5 84be
000003f0: e692 253e a0b1 813e 0b7b b43e 6f79 c5bd

net.0.bias f4 [64]
-0.47270128 0.25593656 0.04650205 -0.17311375 -0.20003998 -0.027224565 -0.31863427 -0.012992099
-0.31716776 -0.35659286 -0.21181801 -0.288937 -0.0013318668 -0.15805756 0.016593987 0.27183485
-0.3236225 -0.34780836 0.1853495 -0.21779169 -0.14773339 0.0112166675 -0.13106498 -0.13435079
0.39346677 0.36222073 0.012588319 0.29578802 -0.12051866 -0.23948838 0.0009832438 -0.22048433
0.0045973873 -0.024443908 0.27761453 -0.08024983 -0.14643805 0.04492477 0.11868605 -0.2684097
0.1654829 -0.17633264 0.17813632 0.18295161 -0.23006229 -0.30380136 -0.22227131 -0.22405045
0.026512349 -0.14609113 -0.16280597 -0.26531172 -0.056512333 -0.35187688 -0.0076616746 -0.09211924
-0.22765325 -0.4509145 0.22533567 -0.09334267 -0.07532806 0.1771945 -0.054316208 -0.06101855
00000000: e705 f2be 1e0a 833e ef78 3e3d bb44 31be
00000010: 48d7 4cbe 0d06 dfbc 0824 a3be d0dc 54bc
00000020: d063 a2be 5793 b6be d2e6 58be 8def 93be
00000030: 0992 aeba d7d9 21be 1df0 873c f02d 8b3e
00000040: d9b1 a5be f013 b2be 42cc 3d3e c904 5fbe
00000050: 6c47 17be 1dc6 373c e635 06be 4193 09be
00000060: 7a74 c93e ff74 b93e 3d3f 4e3c 8771 973e
00000070: 7dd2 f6bd 713c 75be 30e0 803a a5c6 61be
00000080: aea5 963b 973e c8bc 7e23 8e3e 065a a4bd
00000090: dbf3 15be 0903 383d ac11 f33d ff6c 89be
000000a0: 5974 293e 8b90 34be 5e69 363e ab57 3b3e
000000b0: 7395 6bbe da8b 9bbe 179b 63be 7b6d 65be
000000c0: 6d30 d93c ea98 15be 9cb6 26be f0d6 87be
000000d0: 7a79 67bd 3529 b4be c90e fbbb 03a9 bcbd
000000e0: ef1d 69be 44de e6be 65be 663e 712a bfbd
000000f0: 9945 9abd 7a72 353e ac7a 5ebd 96ee 79bd

net.3.weight f4 [64, 64]
-0.13849531 -0.05391686 -0.04504545 -0.04854636 0.076021194 0.025166225 -0.057618007 -0.13655582
-0.11295308 -0.0038342448 -0.052284792 -0.060962304 -0.031430125 -0.09046811 -0.11316639 -0.12379876
-0.116336256 0.019993775 0.030824125 -0.054440662 -0.09489915 -0.0009675026 -0.09872119 0.023120865
0.015206398 -0.07563226 0.025241302 -0.054051112 -0.02799955 -0.03932038 0.020082861 -0.113924034
-0.07415298 -0.057441264 0.039183244 0.060323805 0.075808 -0.064478606 -0.009975819 0.05286205
0.06954542 0.07386601 0.009760108 -0.030259047 -0.08073547 -0.08847612 0.08936587 -0.0014318716
0.00081176986 0.020545036 -0.09393002 -0.031681597 -0.017419199 0.004246544 0.024695488 -0.1108104
-0.103031024 -0.011137456 0.07372932 -0.07965228 -0.03537039 -0.087845445 0.03407873 -0.03650359
-2.060119 0.09975527 -0.087439 0.105507374 -0.08515446 0.06297887 0.071214646 -0.076826885
-0.10580613 -1.1524994 0.120857805 0.048301354 -0.30343795 0.0011424571 0.12430602 0.10383077
0.031896755 -0.61808926 -0.118463635 -0.024493024 0.15991105 -0.018626928 0.004219532 0.00070124865
0.14869183 0.13015579 0.045931015 0.094546236 -0.064025685 -0.101741955 0.026738614 -0.3328679
-0.18842758 0.004524559 0.6339081 0.01884824 0.084727794 0.093654566 -1.9286636 -0.04421678
-0.052265123 0.01857069 0.073854476 0.12159845 -0.5275471 0.14557055 0.12071209 0.16265787
-1.2344017 0.10253848 -0.078555554 -1.5958459 0.050192345 -0.35291305 0.07662818 0.01700023
0.061648786 -0.26774752 0.29747424 0.59204173 -0.8534463 0.56577307 0.076981425 -0.77073073
-0.05931911 -0.1704087 -0.07978852 -0.034915045 0.07913332 -0.022939393 -0.015278086 0.12187418
-0.09374675 -0.07158031 0.058955997 -0.048877344 -0.09178584 0.02578026 -0.09712294 -0.02096796
0.039461866 0.19192235 -0.04266247 0.044278204 -0.14287925 -0.06552124 0.07010952 -0.12143846
-0.052538373 -0.14561039 0.005509923 0.17586826 0.10010676 -0.030544266 -0.09980881 -0.26760805
-0.02994125 0.0040367097 0.10000465 0.068204835 -0.060513377 -0.17247543 0.25394136 0.05859959
0.04422359 -0.08325304 -0.11658837 -0.002481771 -0.076078326 0.18484639 -0.01193431 0.12636355
-0.10838095 -0.08397348 0.085595906 -0.14740127 0.101348095 0.11110631 -0.021653408 -0.14485565
-0.12350869 -0.114380665 0.032353982 -0.040613245 -0.09961801 0.13579895 0.046831302 -0.0016580449
-0.10287411 0.030006578 0.07877356 -0.0064876825 0.08350396 -0.047889143 -0.102466345 -0.13295108
0.0054329038 0.019705713 -0.08847761 -0.08449009 -0.12992741 -0.070806324 0.014653336 0.058536023
-0.11763573 0.0009428015 -0.04541962 0.05015202 0.08440361 0.08905314 -0.061314255 -0.07019031
0.015572707 0.037885927 -0.06759958 0.14043224 0.09167296 -0.05219136 0.03364107 -0.03874304
-0.14248453 0.12295887 -0.12855324 0.045651108 0.005943477 0.074117966 0.008095309 0.026216373
-0.0459304 0.053837538 0.1386454 0.10708512 -0.019402493 -0.027767962 -0.013125375 0.05622639
-0.022770798 0.013793975 -0.11677383 -0.1010076 -0.005940295 0.03485498 -0.010998068 -0.053506654
0.013862923 -0.11290541 -0.025169063 0.0576746 -0.09668023 -0.07967493 -0.08391201 -0.14672107
00000000: b7d1 0dbe edd7 5cbd 9481 38bd 8cd8 46bd
00000010: 00b1 9b3d 6629 ce3c dc00 6cbd 4ad5 0bbe
00000020: f253 e7bd f447 7bbb 9428 56bd 9cb3 79bd
00000030: e0bc 00bd 5847 b9bd c8c3 e7bd 348a fdbd
00000040: b441 eebd fcc9 a33c e082 fc3c 2cfd 5ebd
00000050: 7c5a c2bd 00a0 7dba 562e cabd f867 bd3c
00000060: 4224 793c 16e5 9abd d9c6 ce3c b364 5dbd
00000070: 505f e5bc 680e 21bd d084 a43c 0151 e9bd
00000080: 85dd 97bd 8847 6bbd 9c7e 203d 1816 773d
00000090: 3a41 9b3d 5c0d 84bd 9e71 23bc e085 583d
000000a0: d46d 8e3d 1047 973d dce8 1f3c d2e1 f7bc
000000b0: a358 a5bd f832 b5bd 7405 b73d a3ad bbba
000000c0: f4cc 543a 104e a83c 625e c0bd 90c4 01bd
000000d0: b5b2 8ebc 9826 8b3b 314e ca3c 90f0 e2bd
000000e0: ee01 d3bd e079 36bc 66ff 963d bc20 a3bd
000000f0: 8be0 10bd 50e8 b3bd 2396 0b3d ca84 15bd
00000100: fdd8 03c0 7e4c cc3d 3813 b3bd 4014 d83d
00000110: 7665 aebd 11fb 803d fcd8 913d 6a57 9dbd
00000120: e2b0 d8bd 1a85 93bf 4c84 f73d a4d7 453d
00000130: 385c 9bbe 80be 953a 2894 fe3d 3aa5 d43d
00000140: 2ca6 023d 193b 1ebf 109d f2bd 98a5 c8bc
00000150: b9bf 233e 8097 98bc 0044 8a3b 00d4 373a
00000160: ac42 183e 8f47 053e 2922 3c3d 75a1 c13d
00000170: e61f 83bd 165e d0bd f00a db3c a96d aabe
00000180: 29f3 40be c042 943b cd47 223f a067 9a3c
00000190: c485 ad3d f7cd bf3d 73de f6bf a81c 35bd
000001a0: f413 56bd 8f21 983c 0441 973d 9c08 f93d
000001b0: 540d 07bf 7210 153e e637 f73d c98f 263e
000001c0: e000 9ebf b2ff d13d bce1 a0bd ae44 ccbf
000001d0: 7d96 4d3d 05b1 b4be 3cef 9c3d 1144 8b3c
000001e0: 7083 7c3d 3416 89be 8b4e 983e 0c90 173f
000001f0: 757b 5abf 81d6 103f 70a8 9d3d 9c4e 45bf
00000200: 98f8 72bd 9e7f 2ebe 2a68 a3bd 1403 0fbd
00000210: a610 a23d 65eb bbbc f050 7abc 2c99 f93d
00000220: 4cfe bfbd b398 92bd d87b 713d 9c33 48bd
00000230: 37fa bbbd 2031 d33c 64e8 c6bd 00c5 abbc
00000240: c4a2 213d 4b87 443e d8be 2ebd 105d 353d
00000250: f04e 12be 0030 86bd 9495 8f3d bab4 f8bd
00000260: 7a32 57bd e41a 15be 968c b43b cf16 343e
00000270: c604 cd3d f837 fabc 9068 ccbd ec03 89be
00000280: 5a47 f5bc 6046 843b 3dcf cc3d faae 8b3d
00000290: e0dc 77bd 669d 30be 9a04 823e 2006 703d
000002a0: cc23 353d 9280 aabd e2c5 eebd 35a5 22bb
000002b0: f4ce 9bbd 5f48 3d3e 2088 43bc 7265 013e
000002c0: d5f6 ddbd 4afa abbd e84c af3d 5cf0 16be
000002d0: 978f cf3d b48b e33d 7d62 b1bc 0a55 14be
000002e0: 20f2 fcbd 6940 eabd 9c85 043d 135a 26bd
000002f0: 8704 ccbd e10e 0b3e 2ed2 3f3d c152 d9ba
00000300: a9af d2bd 5bd0 f53c 0854 a13d a096 d4bb
00000310: 2004 ab3d 6827 44bd e0d9 d1bd 5424 08be
00000320: 8006 b23b e06d a13c c033 b5bd 2409 adbd
00000330: b10b 05be e802 91bd 8c14 703c 78c3 6f3d
00000340: 00eb f0bd 5626 773a ec09 3abd 346c 4d3d
00000350: cddb ac3d 7e61 b63d a824 7bbd f0bf 8fbd
00000360: ab24 7f3c 462e 1b3d a671 8abd 78cd 0f3e
00000370: 08bf bb3d 9cc6 55bd 38cb 093d 06b1 1ebd
00000380: 77e7 11be dcd1 fb3d 76a3 03be a8fc 3a3d
00000390: 80c1 c23b 29cb 973d 30a2 043c b8c3 d63c
000003a0: 8421 3cbd c084 5c3d 0ff9 0d3e 724f db3d
000003b0: faf1 9ebc a379 e3bc d00b 57bc a54d 663d
000003c0: d389 babc 2000 623c 1e27 efbd 13dd cebd
000003d0: cea6 c2bb 18c4 0e3d 3e31 34bc cb29 5bbd
000003e0: 5021 633c f43a e7bd 5a2f cebc 343c 6c3d
000003f0: 4900 c6bd 9c2c a3bd 0fda abbd 0c3e 16be

net.3.bias f4 [64]
-0.05942603 0.1573273 0.19938892 0.59436303 0.401786 -0.01867535 0.05097647 0.38644785
0.39559138 0.37051302 0.2693415 0.3245387 0.45222038 0.42462704 0.46193022 0.43985578
0.28128108 0.2568722 0.068350315 0.47003812 -0.13623217 0.40395468 0.3944568 0.49425653
0.17134641 0.48441404 0.36036867 0.26293528 0.4767994 0.45676437 0.34791094 0.5676649
0.24218029 0.3496395 0.45729282 0.5909271 0.44919538 -0.059406247 -0.04497015 0.20020397
0.44367796 0.37178645 0.2938806 0.45857286 0.4460598 0.36827874 0.45286903 0.12373588
0.4142103 0.12255185 0.32966954 0.5198633 0.51037014 0.42418373 0.34194818 0.21576308
-0.018097868 0.59284204 0.38006362 0.58529675 0.089681014 0.4898982 0.39361438 0.29576963
00000000: b568 73bd 681a 213e 9c2c 4c3e 2d28 183f
00000010: e5b6 cd3e 0cfd 98bc b4cc 503d 7edc c53e
00000020: f48a ca3e e2b3 bd3e 21e7 893e f029 a63e
00000030: 6e89 e73e b768 d93e 1e82 ec3e c734 e13e
00000040: 1304 903e c184 833e 40fb 8b3d d6a8 f03e
00000050: 7280 0bbe 26d3 ce3e 3ef6 c93e 310f fd3e
00000060: 6f75 2f3e 1e05 f83e 3e82 b83e 749f 863e
00000070: 0d1f f43e 05dd e93e 6221 b23e 7d52 113f
00000080: 1cfe 773e f303 b33e 4922 ea3e 0047 173f
00000090: f0fc e53e f753 73bd 9f32 38bd 4502 4d3e
000000a0: c229 e33e cb5a be3e 8577 963e 10ca ea3e
000000b0: f361 e43e 088f bc3e 73de e73e 3d69 fd3d
000000c0: 5f13 d43e 77fc fa3d 72ca a83e c315 053f
000000d0: 9ea7 023f 9c2e d93e d513 af3e fff0 5c3e
000000e0: fb41 94bc 7fc4 173f b397 c23e 02d6 153f
000000f0: aeaa b73d f0d3 fa3e d387 c93e 1e6f 973e
