2_Party/shadow_model_data/shadow_plus_F_client1_bottom_inter.pt (torch, 21928 bytes, 4 tensors)

net.0.weight f4 [64, 10]
-0.21027347 -0.2816246 0.18742602 -0.10454592 0.11516114 0.026958272 0.13899012 -0.092061564
-0.28619596 -0.29475504 -1.0578911 -1.1550578 -0.9161252 -0.30113497 -0.3732491 -0.57348734
-0.56914365 -0.4650828 -0.14446744 0.85414135 -0.08441604 -0.3848357 -0.050579816 -0.7577391
-0.36448163 -0.92658365 0.3361986 0.5842032 0.28056902 0.7348138 1.395501 1.1786982
1.5865926 -1.7881209 -1.5212394 -1.4805847 0.07222662 0.07876363 -0.22707188 0.29695427
0.5853428 0.6320269 0.6495658 0.41885704 0.20682149 0.637189 -0.19945693 -0.40890852
-0.4601775 -0.97663814 0.20852195 0.22373554 0.046610434 0.15559755 -0.14515713 0.05468734
0.0194996 -0.23627125 -0.2612441 -0.23018989 0.44079378 0.743003 0.52830297 1.1616259
0.92512834 1.224497 1.3891786 0.94672316 1.4751579 -0.26521602 1.0682925 1.0221107
0.7924783 0.55341953 0.88073564 0.92982525 -0.12983218 -0.4916671 -0.19573627 -0.7770484
0.24291997 -0.13128 -0.061837688 0.029371502 -0.19901468 0.087520964 0.017532934 0.12281859
-0.26763284 0.18893024 0.20008932 0.31094718 -0.05700908 0.15327814 -0.14140652 0.017552234
0.014137463 0.26100132 -0.06646021 0.067114405 2.0652761 1.7979275 1.9771764 -0.9786695
-1.2380542 -1.0461779 1.0228399 1.2532927 1.0279148 -1.7529038 0.9679096 1.4926298
1.2367516 -0.45625973 -0.23609605 0.116503306 0.6483548 0.86044955 0.4866345 -0.8315555
-0.0032165507 0.41926622 0.27176586 0.5644538 0.71895957 0.8932012 -0.41012862 -0.32565
-0.749347 0.032125067 0.11208565 -0.25311935 -0.18506986 0.04477024 0.29443482 0.1832178
-0.21900247 -0.18783219 0.23102665 0.026159806 -0.061435502 0.22622082 0.23967986 -0.838536
-0.86712956 -0.6710774 0.5518986 0.07835803 0.60927933 0.6986487 -0.6304272 -0.68909514
-1.1411269 0.29939094 -0.17655283 0.20840625 -0.6559313 -0.5255332 -0.39739138 1.1485611
-0.85836434 -0.91788656 -0.5680828 0.28196898 -0.032523196 0.1045099 -0.45559525 -0.6785324
-0.5505499 1.2330353 0.5451623 0.5883569 0.5051921 0.43347445 0.8673276 0.53868115
-0.66162235 -0.5934273 -0.36263794 -0.30253634 1.2874017 1.1796346 0.7500174 -1.1488228
-0.71862876 -1.1193601 0.46140102 0.74138445 0.6164875 0.42970133 1.5092952 1.3458303
1.4961456 -0.0611929 -0.2167568 -0.5721626 0.98761314 0.5276654 0.62932473 -1.1765163
-0.010914495 0.29517457 0.10820871 -0.16966154 0.07264923 -0.1721721 0.1612973 -0.19937424
-0.142991 0.22384118 -0.13953447 -0.03306949 -0.070140176 -0.02581563 -0.24384965 -0.29763344
0.27290815 -0.015886277 0.0047992417 0.091809556 0.8396928 0.63155985 0.3907578 -0.97157526
-0.73140824 -0.9351678 0.29832268 0.42369458 0.7830632 0.549354 -0.95451015 -0.5313906
-0.5777065 0.17488442 -0.1436499 0.3306743 -0.58861446 -0.40423995 -0.37474766 1.2810203
0.1832458 0.031553384 0.14983866 0.13639294 0.04199851 -0.14783055 0.3117009 0.2167637
0.25383064 -0.28928947 -0.09622278 0.008617864 -0.09661287 0.11685533 0.2771122 0.24743173
00000000: ee51 57be 1931 90be 9bec 3f3e 2c1c d6bd
00000010: 9bd9 eb3d 98d7 dc3c 6d53 0e3e c68a bcbd
00000020: 4788 92be 22ea 96be fa68 87bf efd8 93bf
00000030: 2e87 6abf 5d2e 9abe 821a bfbe 11d0 12bf
00000040: 66b3 11bf 551f eebe 46ef 13be 02a9 5a3f
00000050: 51e2 acbd 2f09 c5be c82c 4fbd 31fb 41bf
00000060: 569d babe 9634 6dbf 3922 ac3e 578e 153f
00000070: bea6 8f3e c21c 3c3f c79f b23f 95df 963f
00000080: 7715 cb3f 25e1 e4bf f9b7 c2bf cd83 bdbf
00000090: 8deb 933d d34e a13d 8885 68be 640a 983e
000000a0: 07d9 153f 84cc 213f f249 263f 6e74 d63e
000000b0: 03c9 533e d11e 233f 703e 4cbe 755c d1be
000000c0: 639c ebbe f504 7abf c786 553e ee1a 653e
000000d0: 95ea 3e3d f754 1f3e 12a4 14be d5ff 5f3d
000000e0: a0bd 9f3c 17f1 71be c9c1 85be e6b6 6bbe
000000f0: b9af e13e 7235 3e3f dd3e 073f 28b0 943f
00000100: 36d5 6c3f 51bc 9c3f 9bd0 b13f 735c 723f
00000110: f9d1 bc3f 65ca 87be cfbd 883f 86d4 823f
00000120: dcdf 4a3f e7ac 0d3f e477 613f 0709 6e3f
00000130: baf2 04be cabb fbbe 176f 48be a5ec 46bf
00000140: 03c0 783e 446e 06be 8449 7dbd 819c f03c
00000150: 81ca 4bbe 313e b33d 3aa1 8f3c 5088 fb3d
00000160: 2c07 89be ee76 413e 37e4 4c3e 7834 9f3e
00000170: 5a82 69bd f2f4 1c3e dfcc 10be b4c9 8f3c
00000180: d1a0 673c f7a1 853e 4a1c 88bd 4773 893d
00000190: 7c2d 0440 7d22 e63f 1e14 fd3f 168a 7abf
000001a0: 8f78 9ebf 28e9 85bf 6bec 823f e56b a03f
000001b0: b692 833f 275f e0bf ecc8 773f 7e0e bf3f
000001c0: e04d 9e3f e09a e9be 2ac3 71be 4999 ee3d
000001d0: 95fa 253f 6c46 5c3f 2828 f93e d2e0 54bf
000001e0: c4cc 52bb 10aa d63e e524 8b3e 0b80 103f
000001f0: bc0d 383f d5a8 643f 61fc d1be 99bb a6be
00000200: 34d5 3fbf 9395 033d 298d e53d dc98 81be
00000210: f482 3dbe 0061 373d 29c0 963e 729d 3b3e
00000220: 2f42 60be 1557 40be 4092 6c3e 174d d63c
00000230: cba3 7bbd 6ea6 673e a36e 753e 4caa 56bf
00000240: 34fc 5dbf bacb 2bbf 3a49 0d3f 2d7a a03d
00000250: bbf9 1b3f a4da 323f ad63 21bf 8a68 30bf
00000260: 7210 92bf c549 993e 44ca 34be 7368 553e
00000270: 1deb 27bf 5889 06bf e276 cbbe 0d04 933f
00000280: c4bd 5bbf 9dfa 6abf e06d 11bf 3d5e 903e
00000290: 0b37 05bd 4909 d63d c843 e9be 4db4 2dbf
000002a0: d7f0 0cbf 1ad4 9d3f c28f 0b3f 8f9e 163f
000002b0: 4554 013f 5df0 dd3e 2e09 5e3f 02e7 093f
000002c0: 1560 29bf daea 17bf aeab b9be 0be6 9abe
000002d0: 94c9 a43f 44fe 963f 2401 403f a00c 93bf
000002e0: 0ef8 37bf 3147 8fbf c13c ec3e 5fcb 3d3f
000002f0: 20d2 1d3f d001 dc3e 9630 c13f 2b44 ac3f
00000300: b381 bf3f 68a5 7abd 7ff5 5dbe 4079 12bf
00000310: 37d4 7c3f 1415 073f 6d1b 213f 1698 96bf
00000320: b6d2 32bc 1f21 973e 879c dd3d c1bb 2dbe
00000330: 1fc9 943d e24d 30be 1f2b 253e c328 4cbe
00000340: 3c6c 12be 9f36 653e 20e2 0ebe e073 07bd
00000350: a7a5 8fbd 4d7b d3bc b9b3 79be 6963 98be
00000360: 9eba 8b3e f023 82bc f542 9d3b a606 bc3d
00000370: 1bf6 563f e8ad 213f 6811 c83e 28b9 78bf
00000380: 923d 3bbf 2867 6fbf c0bd 983e 7fee d83e
00000390: d476 483f 77a2 0c3f c75a 74bf 3709 08bf
000003a0: 93e4 13bf e714 333e f618 13be 244e a93e
000003b0: 70af 16bf 8af8 cebe edde bfbe 79f8 a33f
000003c0: c9a4 3b3e 1f3e 013d 4e6f 193e 97aa 0b3e
000003d0: a106 2c3d e460 17be 4397 9f3e 4ef7 5d3e
000003e0: 17f6 813e c01d 94be 7310 c5bd f131 0d3c
000003f0: f8dc c5bd d951 ef3d a6e1 8d3e be5e 7d3e

net.0.bias f4 [64]
-0.22049423 -0.052451324 0.15975681 0.042177986 -0.03144332 -0.18276829 0.2036753 -0.034599636
-0.07315166 -0.24121001 -0.014634863 -0.065607205 0.01024256 -0.16784705 0.15009503 0.062021174
0.06544296 -0.013072936 0.049482092 -0.08284418 -0.15974316 -0.28348488 0.07167072 0.056001954
-0.1352383 -0.14881904 0.29860517 -0.036962096 -0.07998339 0.26046914 -0.3013032 0.0070249075
0.0060895314 0.05590804 -0.30709654 0.006430479 -0.07472177 -0.10812679 -0.034662444 -0.074100256
-0.023343997 0.047782503 -0.29230657 0.009370728 0.013933006 -0.015435175 0.007936355 0.0108605465
-0.26439536 -0.0782523 -0.05597315 -0.029799253 0.035225935 0.10131783 -0.023899447 -0.2973145
0.057541743 -0.027457582 -0.294917 -0.0034737654 0.009683005 0.0390768 -0.24872708 -0.20085254
00000000: 3dc9 61be 33d7 56bd 4a97 233e d3c2 2c3d
00000010: b6ca 00bd 9c27 3bbe 4290 503e 59b8 0dbd
00000020: 8ad0 95bd c2ff 76be 10c7 6fbc 125d 86bd
00000030: 69d0 273c 19e0 2bbe 83b2 193e ea09 7e3d
00000040: f506 863d de2f 56bc bcad 4a3d 36aa a9bd
00000050: b693 23be ee24 91be 19c8 923d 4e62 653d
00000060: e97b 0abe 0564 18be c7e2 983e 9165 17bd
00000070: 55ce a3bd 365c 853e 6a44 9abe 3231 e63b
00000080: b18a c73b d4ff 643d c23b 9dbe c5b6 d23b
00000090: ba07 99bd 9471 ddbd 35fa 0dbd e0c1 97bd
000000a0: e93b bfbc 96b7 433d 35a9 95be af87 193c
000000b0: 4347 643c d1e3 7cbc 7c07 023c 6ff0 313c
000000c0: d45e 87be be42 a0bd 1a44 65bd 901d f4bc
000000d0: 1249 103d b97f cf3d c6c8 c3bc 9b39 98be
000000e0: e4b0 6b3d b9ee e0bc 5cff 96be 1da8 63bb
000000f0: 77a5 1e3c ff0e 203d 50b2 7ebe 4aac 4dbe

net.3.weight f4 [64, 64]
-0.06525569 -0.82881624 0.049954493 0.1838813 0.50552934 -0.0431837 -0.10555291 0.5063491
0.03736946 -0.08581513 0.0065046623 0.13363793 0.5082385 0.07303706 0.08242202 -0.06799545
-0.07941941 0.5507004 0.16624962 0.34197474 0.022206202 -0.09211445 0.08799178 -0.18761635
0.09113559 0.015406042 -0.027402984 0.41836625 0.050184608 -0.0011726773 -0.025409222 0.4987513
-0.77929246 -0.14015163 0.017125666 0.4654594 -0.49297914 0.021235883 0.08210045 -0.5179148
-0.6951348 -0.33018237 0.11387718 0.47540522 0.37047887 0.026120719 0.5638209 -0.023020681
0.042478785 0.1326226 0.22010744 0.07855068 0.027413528 0.091518864 0.2793934 -0.0008980781
-0.30106694 0.4558328 -0.037898347 -0.8824454 0.3551132 0.33129048 -0.09684491 0.009603322
-0.040872946 0.12710638 0.1621579 0.3536522 -0.32502693 0.0922001 0.0008574261 -0.17291832
0.11602457 -0.100876346 0.33694187 0.019770822 -0.0075211944 -0.008640379 0.2336636 0.060658634
0.11229951 -0.20805527 0.5642771 0.14778163 -0.0623648 0.034875497 0.31147984 0.15338258
0.07008645 -0.019362256 0.01630267 -0.24517894 -0.020465434 0.01861045 0.06701514 -0.026900118
0.17487706 0.23258047 -0.104450345 -0.11929447 0.6586857 0.009060174 0.2905357 0.21296537
0.16975282 0.05188896 -0.0077170134 -0.0601644 -0.020544758 0.7610502 -0.13258396 0.27125892
-0.07800318 0.09727451 0.07108798 -0.054373085 0.47693065 0.27351284 -0.10804374 0.054007083
0.12595364 -0.22256705 0.09403087 0.097545244 -0.0964325 -0.0026004761 0.079420075 -0.07089178
-0.08628932 0.79065245 0.2998733 0.09227122 -0.30373293 -0.124585 0.09966873 -0.046994973
-0.060983047 -0.032616287 0.09141622 -0.074483454 -0.019341722 -0.0036771 0.2267455 0.4621635
0.45430982 -0.11455719 0.15782833 -0.26220298 -0.058853105 0.09269808 0.23385412 0.5450848
0.09638336 0.058055833 0.24631603 -0.098600134 0.0042234063 0.20239776 -0.08495368 0.08705782
0.8177393 0.3933828 -0.002729237 -0.03467655 0.31899595 -0.036514297 0.060977492 0.5337269
0.3916343 0.65311694 0.1232931 0.043862313 0.10476975 -0.19181909 0.045565233 0.15644635
-0.026361361 -0.14299613 -0.058634046 -0.06779656 0.05678382 0.10693028 0.06418593 0.009496227
0.531454 -0.20429729 0.081355095 0.6714032 -0.009376904 0.18692932 -0.041677535 0.00152722
-0.103989154 1.1387917 0.02709779 0.020509815 -1.2582707 -0.08977789 0.25547785 -0.7528927
-0.060872108 0.09988752 0.02938357 -0.49510255 -1.2142986 -0.005065143 0.039550044 0.06593659
0.13137144 -1.3280084 -0.22494899 -0.7549124 0.10160057 0.083412126 -0.09028554 0.22799702
-0.0031435937 0.06528072 0.012213178 -0.71416205 -0.04289882 0.09177711 0.08106327 -1.2167728
0.8617695 0.32900217 -0.036679834 -1.2081784 0.20030639 -0.051641002 0.07178755 0.5630643
0.7296094 0.087218456 -0.085452974 -1.1390297 -0.9676445 -0.463091 -1.1492665 0.09275688
0.08998175 -0.5032778 -0.2725836 -0.07807723 0.05606929 0.009957814 -0.12523353 0.1173221
0.032310348 -1.3128022 -0.06969887 0.85384524 -1.110613 -0.49291965 -0.060448796 -0.047607347
00000000: c6a4 85bd 4d2d 54bf 159d 4c3d 614b 3c3e
00000010: 5f6a 013f 64e1 30bd 202c d8bd 18a0 013f
00000020: b810 193d d8bf afbd 1025 d53b 62d8 083e
00000030: eb1b 023f 7494 953d e0cc a83d 3341 8bbd
00000040: a5a6 a2bd b4fa 0c3f 573d 2a3e 5017 af3e
00000050: c8e9 b53c 80a6 bcbd 0935 b43d 801e 40be
00000060: 4ca5 ba3d a069 7c3c 397c e0bc 1a34 d63e
00000070: 608e 4d3d 85b4 99ba 0027 d0bc 555c ff3e
00000080: b67f 47bf e983 0fbe 204b 8c3c b250 ee3e
00000090: c367 fcbe e0f6 ad3c 4824 a83d 1096 04bf
000000a0: 5bf4 31bf aa0d a9be 7038 e93d 5068 f33e
000000b0: 68af bd3e 1efb d53c 9156 103f de95 bcbc
000000c0: 3cfe 2d3d 38ce 073e d863 613e 2edf a03d
000000d0: 5692 e03c 3e6e bb3d a70c 8f3e 006d 6bba
000000e0: 7225 9abe eb62 e93e 4c3b 1bbd f1e7 61bf
000000f0: 66d1 b53e e89e a93e a056 c6bd 4057 1d3c
00000100: 646a 27bd 2d28 023e b80c 263e e711 b53e
00000110: ee69 a6be 68d3 bc3d e4c4 603a 8011 31be
00000120: 4a9e ed3d 4298 cebd a583 ac3e 6bf6 a13c
00000130: 5a74 f6bb 6090 0dbc 8345 6f3e 3075 783d
00000140: 49fd e53d 710c 55be 7774 103f 1154 173e
00000150: 3c72 7fbd 9cd9 0e3d 497a 9f3e 5310 1d3e
00000160: 7c89 8f3d 989d 9ebc 2d8d 853c 3010 7bbe
00000170: 20a7 a7bc f174 983c 3c3f 893d a35d dcbc
00000180: f912 333e 9329 6e3e 10ea d5bd a950 f4bd
00000190: a09f 283f 2071 143c 18c1 943e 9813 5a3e
000001a0: afd3 2d3e 8589 543d 00df fcbb f26e 76bd
000001b0: 7b4d a8bc 30d4 423f 17c4 07be 73e2 8a3e
000001c0: 22c0 9fbd dc37 c73d 9396 913d 50b6 5ebd
000001d0: 4130 f43e e009 8c3e 0946 ddbd 8836 5d3d
000001e0: fef9 003e 9ee8 63be 4293 c03d cdc5 c73d
000001f0: 677e c5bd c06c 2abb fea6 a23d b62f 91bd
00000200: 74b8 b0bd 3368 4a3f fe88 993e b2f8 bc3d
00000210: e282 9bbe 6c26 ffbd 1e1f cc3d cd7d 40bd
00000220: 5cc9 79bd a898 05bd 6d38 bb3d c88a 98bd
00000230: 8872 9ebc 80fb 70bb f92f 683e b2a0 ec3e
00000240: 4c9b e83e f69c eabd c09d 213e 783f 86be
00000250: f40f 71bd 7ed8 bd3d 7477 6f3e ad8a 0b3f
00000260: a464 c53d f4cb 6d3d 453a 7c3e deee c9bd
00000270: 8064 8a3b 5c41 4f3e 32fc adbd 5f4b b23d
00000280: 5d57 513f 7869 c93e 00dd 32bb 0009 0ebd
00000290: 7053 a33e 0490 15bd 89c3 793d 53a2 083f
000002a0: 4a84 c83e ac32 273f 1881 fc3d f8a8 333d
000002b0: 8691 d63d 396c 44be 9ca2 3a3d 7933 203e
000002c0: c8f3 d7bc 946d 12be 412a 70bd ecd8 8abd
000002d0: 2796 683d 43fe da3d ea73 833d 1096 1b3c
000002e0: 5f0d 083f 4f33 51be 809d a63d 15e1 2b3f
000002f0: 96a1 19bc 666a 3f3e 10b6 2abd 002d c83a
00000300: 44f8 d4bd edc3 913f 2ffc dd3c 3304 a83c
00000310: 040f a1bf 78dd b7bd fecd 823e 93bd 40bf
00000320: 0855 79bd d491 cc3d d0b5 f03c 157e fdbe
00000330: 236e 9bbf 80f9 a5bb 3aff 213d c309 873d
00000340: 3c86 063e 2efc a9bf 0759 66be f041 41bf
00000350: f613 d03d fad3 aa3d a0e7 b8bd 0d78 693e
00000360: c004 4ebb e6b1 853d c819 483c 53d3 36bf
00000370: acb6 2fbd a3f5 bb3d 8004 a63d 36bf 9bbf
00000380: ed9c 5c3f f972 a83e 983d 16bd 97a5 9abf
00000390: 1e1d 4d3e 8485 53bd 5a05 933d fb24 103f
000003a0: aec7 3a3f 979f b23d f801 afbd bacb 91bf
000003b0: 8db7 77bf 431a edbe 2a1b 93bf 52f7 bd3d
000003c0: 5a48 b83d d0d6 00bf 1490 8bbe f4e6 9fbd
000003d0: e9a8 653d 1926 233c 383d 00be 9246 f03d
000003e0: db57 043d e709 a8bf 48be 8ebd 9a95 5a3f
000003f0: 9128 8ebf f75f fcbe 2899 77bd ecff 42bd

net.3.bias f4 [64]
0.15293568 0.13823624 0.100792736 0.30691272 0.041162048 0.06768407 0.10718742 0.119184606
0.06455147 0.21093374 0.037218314 0.08142547 0.11846615 0.13605937 0.21671164 0.18330403
0.21015218 0.2730987 0.13060854 0.056768633 0.045886993 0.17502132 0.2197814 0.13555437
0.102811575 0.25075763 0.23365729 0.08052472 -0.077595964 0.05549224 0.02718682 0.17273803
0.08660521 0.18530937 0.2686064 0.11595133 0.117130846 0.25432646 0.07166303 0.25778842
-0.004398344 0.19475818 0.21145828 0.3052919 -0.025857091 0.28660053 0.19589736 0.18951637
0.18936379 0.15673235 0.29772994 0.18593253 0.19720127 0.05970423 -0.019483054 0.26084274
0.17364217 0.08035765 0.14614305 0.23115557 0.07993709 0.24836718 0.15998445 0.29753676
00000000: 2c9b 1c3e cd8d 0d3e 6c6c ce3d aa23 9d3e
00000010: 8999 283d f29d 8a3d 1485 db3d 0f17 f43d
00000020: 9033 843d 04ff 573e 3b72 183d 66c2 a63d
00000030: 619e f23d 2653 0b3e a8e9 5d3e 0db4 3b3e
00000040: 2232 573e 98d3 8b3e 3fbe 053e 3a86 683d
00000050: 00f4 3b3d ca38 333e 600e 613e c4ce 0a3e
00000060: e08e d23d 4e63 803e db43 6f3e 25ea a43d
00000070: a2ea 9ebd d54b 633d e5b6 de3c 3de2 303e
00000080: 135e b13d bdc1 3d3e c786 893e e477 ed3d
00000090: 4ce2 ef3d 1437 823e 11c4 923d d8fc 833e
000000a0: fc1f 90bb b06e 473e 8588 583e 384f 9c3e
000000b0: 40d2 d3bc 4ebd 923e 5199 483e 9410 423e
000000c0: 95e8 413e 727e 203e 0f70 983e 1965 3e3e
000000d0: 21ef 493e 6c8c 743d ed9a 9fbc 2e8d 853e
000000e0: 41cf 313e 8d92 a43d 86a6 153e 0cb4 6c3e
000000f0: 0fb6 a33d f753 7e3e f7d2 233e bd56 983e
