2_Party/shadow_model_data/shadow_minus_F_client1_bottom.pt (torch, 21888 bytes, 4 tensors)

net.0.weight f4 [64, 10]
000000 6f a3 c8 bd 61 af fd 3b 7c 15 f5 3c 09 59 47 3d
       -0.097967975 0.007741854 0.029917471 0.048668895
000010 82 87 b5 bd e5 77 fc b9 5d 1e 5a 3e 9a da 53 bd
       -0.08863737 -0.00048154514 0.21300645 -0.051722147
000020 39 d9 ba bd 3c fa c1 3d 70 57 95 3f fe 5f 7f 3f
       -0.09123463 0.094715565 1.1667309 0.9975585
000030 91 79 5b 3f f8 00 00 c0 a8 01 e2 bf e3 07 bf bf
       0.8573237 -2.0000591 -1.7656755 -1.4924282
000040 8d cd 97 3e c8 38 db bd e4 7d c5 3e de 68 2b bf
       0.2964901 -0.107041895 0.3857261 -0.6695689
000050 ec 25 2d be 4a e6 5a bd 64 52 b3 bc ed b2 39 3e
       -0.16908997 -0.053442277 -0.021889873 0.18134661
000060 4e ae 57 be ea e4 5a be 48 9f 9e bd 47 10 fa bd
       -0.21062586 -0.21376386 -0.07745224 -0.12210136
000070 f0 9b 24 be e2 d7 1a be ee da a4 3f f8 51 b0 3f
       -0.1607511 -0.15121415 1.2879312 1.3775015
000080 1b 5c 9f 3f 22 7f 82 be 79 02 3c be c7 0c 3e be
       1.2449983 -0.2548762 -0.18360318 -0.18559562
000090 0e 8b 13 3f 39 b7 80 3f 8f 10 17 3f ef bd 2f bf
       0.57634056 1.0055915 0.5900964 -0.6864919
0000a0 ac 67 3c bf 7d f5 21 bf 26 3b 84 bf a9 88 08 bf
       -0.7359569 -0.6326521 -1.0330551 -0.53333527
0000b0 65 33 e1 bd 27 be b3 be ba 58 4e bf be a4 52 bf
       -0.10996131 -0.35106012 -0.80604136 -0.82282627
0000c0 58 e8 4e bf d9 75 8a 3e b6 71 82 3f 94 b2 4e 3f
       -0.8082328 0.27043036 1.0190952 0.8074124
0000d0 1b b8 74 3f c7 a0 03 be 94 e8 d2 be 34 09 d0 be
       0.9559342 -0.128543 -0.41193068 -0.4063202
0000e0 32 a9 34 3f 72 c1 48 3e 78 31 13 3f 7f fd 48 bd
       0.7057067 0.19605044 0.5749736 -0.049069878
0000f0 24 b8 22 be b8 2a 3f 3e 0e 77 f4 bd ac 8f cf bd
       -0.15890557 0.1866864 -0.119367704 -0.10134825
000100 cf 25 01 3e 94 e3 f0 bd 43 8b c8 3b 1c e1 d7 3d
       0.12612079 -0.11762157 0.006120117 0.10540983
000110 12 fd 86 be 52 f3 75 3e b4 29 81 bd 0e 1b 9a be
       -0.26364952 0.240186 -0.06306782 -0.30098766
000120 87 cf 48 bd db e9 45 bc 31 c6 79 3e 45 29 21 be
       -0.04902604 -0.012079681 0.2439201 -0.157384
000130 be 31 27 be cf d5 ce 3b 9c 91 5f 3e 30 74 1e be
       -0.16327569 0.006312109 0.2183289 -0.1547401
000140 4a ed 4c 3f 62 a1 9c 3f 17 b3 91 3f 9d c1 82 bf
       0.80049574 1.223675 1.1382779 -1.0215336
000150 a5 64 7d bf fd 45 80 bf 44 f1 53 3f a6 2c 42 3f
       -0.98981696 -1.0021359 0.8279002 0.7584938
000160 02 64 00 3f ab b7 1c 3e 6c 5a 25 bf c7 7c 8b bf
       0.501526 0.15304439 -0.645911 -1.0897454
000170 71 49 2e bf e9 45 08 3f e3 df 85 bd b7 c1 4f 3c
       -0.6808081 0.53231674 -0.06536844 0.012680463
000180 34 ee 53 bf 1e f9 f1 be e1 06 ca be dd 90 da 3f
       -0.82785344 -0.47260374 -0.39458373 1.7075459
000190 d8 5a 43 bf 2f 3e 58 bf 45 fc 5f bf 6d 5f c5 3e
       -0.7631049 -0.84469885 -0.8749431 0.38549367
0001a0 23 90 2b bd 8a 93 2f 3e 18 ef f4 be 18 1a 3b bf
       -0.041885506 0.17146125 -0.47838664 -0.7308669
0001b0 f5 19 db be 9c d2 e2 3f b3 1f 3a 3d d6 c3 ea 3d
       -0.4279324 1.7720523 0.045440387 0.11463134
0001c0 2f 78 5f 3e e7 7c 97 3e 75 8b 8e be bc 9d 90 3c
       0.2182319 0.2958748 -0.27840772 0.017653339
0001d0 a1 68 1d bd 3e 8d 22 3e b0 91 ec bd 45 53 85 3e
       -0.03842986 0.15874192 -0.11551225 0.26040092
0001e0 36 f4 43 3f 95 c5 42 3f 55 9a 11 3f cb c1 5f 3f
       0.7654451 0.76082736 0.56876117 0.8740508
0001f0 32 5b de 3e 22 95 53 3f 9c 59 d6 be f3 00 5e bd
       0.43428952 0.82649434 -0.41865242 -0.054200124
000200 e3 71 57 be 84 b9 8e 3d d8 8b 1e 3f 2c 42 ea 3e
       -0.21039538 0.06968978 0.61932135 0.4575361
000210 f6 36 4e 3f cc 9c 4d 3f 45 82 2a 3f e8 62 50 3f
       0.80552614 0.8031738 0.66605026 0.8140092
000220 0f 5e cd be 38 76 aa be 75 90 74 be 85 93 a7 3d
       -0.40110824 -0.3329332 -0.23883231 0.08182434
000230 3a ba 2c 3f 9f fd 72 3f ff 5f 9b 3f 21 98 94 bf
       0.6747166 0.94918245 1.2138671 -1.1608926
000240 e8 28 81 bf 5f e8 1f bf 02 c1 ea 3e 24 4e 46 3f
       -1.0090609 -0.62463945 0.45850378 0.77462983
000250 0b f8 25 3f 0a 78 70 be 1e c9 ca bd 03 1c 35 bd
       0.6483161 -0.23483291 -0.09901641 -0.044216167
000260 42 4b 0a 3e 31 55 0a 3e 61 56 93 be ee 23 eb bc
       0.13505271 0.1350906 -0.2877684 -0.028703656
000270 0c e5 91 3e 39 f7 f0 3d 46 cc 0f 3d f7 ae 9e be
       0.2849506 0.11765904 0.03510692 -0.30992863
000280 d2 c3 4b 3f d2 4c 61 3f b1 9c 71 3f 9a c5 41 3f
       0.79595673 0.88007843 0.9437972 0.7569214
000290 13 62 54 3e c4 49 c7 3e c7 7f 17 be f8 62 a2 be
       0.20740537 0.38923466 -0.14794837 -0.31716132
0002a0 ff 29 b7 3d c2 ac 5f bf 76 b8 cf 3e 1e 94 9f 3e
       0.08943557 -0.8737298 0.4057042 0.31167692
0002b0 70 79 bf 3e 19 62 ea 3e fb 66 4f 3f 3e e9 50 3f
       0.37397337 0.45777968 0.8101651 0.816059
0002c0 2c 81 ce be 17 d1 46 bd 8d c0 cb bd 25 20 f7 3e
       -0.40332925 -0.048539247 -0.099488355 0.48266712
0002d0 3d 41 7d 3f 2a ad 83 3f f4 9d 26 3f c1 00 fd bf
       0.9892767 1.028722 0.6508477 -1.9765855
0002e0 d4 4c 0a c0 cd 3b d3 bf e7 22 76 bd 9f 05 e2 3e
       -2.1609392 -1.6502625 -0.06009188 0.44144914
0002f0 d2 cb af 3e b7 b0 aa be 35 24 94 bd 12 f0 40 be
       0.3433519 -0.33337948 -0.072334684 -0.1884158
000300 f9 ef d4 3c 34 15 52 3e 98 64 0b be ac 88 f5 bd
       0.025993334 0.20515901 -0.13612592 -0.11988959
000310 9e 69 51 bd da 9d 3a be 2b 62 66 be b0 5a 61 3e
       -0.051126115 -0.18224278 -0.22498386 0.22007251
000320 f7 f3 0c 3f 2e 83 9c 3e 72 2b 0b 3f 51 1d 45 3f
       0.5505976 0.30568832 0.5436317 0.7699786
000330 b2 3c 12 3f 8e 50 32 3f 00 75 e5 be 17 14 ea bd
       0.57123864 0.69654167 -0.44815826 -0.11429613
000340 24 4e 8d bd a5 de 4d bb 46 3f a9 3f 18 68 73 3f
       -0.0689967 -0.0031413224 1.3222435 0.9508071
000350 45 8f aa 3f ba ff d0 bf 1b c4 90 bf ce 38 bc bf
       1.3324972 -1.6328042 -1.1309847 -1.4704835
000360 54 9b 5b 3c 55 93 6b 3e 83 1f 95 bd 76 c8 44 be
       0.013403732 0.23005421 -0.07281401 -0.19217095
000370 7a 8b a4 bf 51 a9 67 bf f3 23 ac bf 0e 09 ff be
       -1.2855065 -0.9049273 -1.3448471 -0.49811596
000380 f2 8a 36 be 35 76 f4 be 2f 8c 03 bf 01 66 2f bf
       -0.17826441 -0.47746435 -0.5138578 -0.6851502
000390 fd 98 40 bf 4c be 0e 3f a9 d6 68 3f 41 4d ef 3e
       -0.7523344 0.5575912 0.90952545 0.46738628
0003a0 c4 1a 13 3f 0b 0f 47 3f 8d 62 12 3f a0 57 2d 3f
       0.57462716 0.7775733 0.57181627 0.6771183
0003b0 85 40 23 bf 35 f5 9e be 8e 69 1d bf 73 57 69 be
       -0.63770324 -0.31046453 -0.6148919 -0.22787265
0003c0 54 26 77 3f 01 c9 6c 3f 37 97 a4 3f 1f 68 20 3f
       0.9654286 0.9249421 1.2858647 0.62658876
0003d0 ea 5f c9 3e f0 38 09 3f 6c 83 6f be fb ec 9a 3d
       0.3933099 0.53602505 -0.23389977 0.07564732
0003e0 cc 2d f2 3d 2a e5 b0 bf b1 d6 89 3d ca 04 a5 3d
       0.11825141 -1.3819935 0.06730402 0.08057554
0003f0 32 bc 51 bd 4d 1b 5c 3e 2f 5a ee bd cc 2c 11 be
       -0.051204868 0.2149479 -0.11638295 -0.14177245

net.0.bias f4 [64]
000000 27 9c da bd c4 a0 98 bc 09 f4 1a be a7 99 94 bd
       -0.10674315 -0.018631347 -0.15132155 -0.07255869
000010 e9 ce 88 bc ca aa 90 bd 3c e3 6f bd fa 12 28 be
       -0.016700225 -0.070638254 -0.058566317 -0.16413489
000020 fb 95 e8 3c 8d 31 47 3d e6 91 57 3d 74 86 3c be
       0.028391829 0.04863124 0.052629374 -0.18410665
000030 5e 0a aa bd 86 e0 75 bc 82 27 44 3d 5d 3d 4d be
       -0.08302759 -0.015007144 0.04788924 -0.2004294
000040 0f e4 53 bd e1 65 06 3c b6 73 07 bd 7c 7e 40 be
       -0.051731165 0.008203001 -0.033069335 -0.1879825
000050 2a ea a3 3a 37 0d f8 3c 00 04 79 bd 3f 3b 82 bc
       0.0012505699 0.030279739 -0.06079483 -0.015897391
000060 9a ad 6c bd 61 91 dd bc ab fa c3 3c a6 bf 29 3d
       -0.057782747 -0.027046861 0.023923239 0.041442536
000070 f1 aa e8 bc 84 c7 39 39 e6 fa a8 bd e7 99 6e bd
       -0.028401824 0.000177173 -0.0825098 -0.05825224
000080 58 4b 17 bd fa 66 79 bd 3c d2 40 be c9 22 91 be
       -0.036937088 -0.06088922 -0.18830198 -0.2834685
000090 3b 66 2e bd ea 9d 5a 3d b5 1a 43 3d 1b 6c 87 be
       -0.042577963 0.053373255 0.04763289 -0.26449665
0000a0 57 c0 d0 bc 55 3b b0 bd 55 f2 f3 bc 8c 9d eb 3d
       -0.02548234 -0.08605067 -0.029778639 0.11504659
0000b0 02 6e 15 bc 8d 4a 65 bd 05 49 85 3d 29 db 88 bd
       -0.009120466 -0.0559793 0.06508068 -0.066824265
0000c0 da 49 4d be 4d 8f 60 3d 16 3d b1 bd 93 fa 22 bd
       -0.20047703 0.054824162 -0.08654229 -0.039789747
0000d0 5f d7 e2 bd fc 64 82 bc 8c 92 e8 bc 7f c2 98 be
       -0.11076235 -0.015917294 -0.028390191 -0.2983589
0000e0 ce 7f 52 bd ee 9d 03 bd 07 81 89 be df f2 9e be
       -0.051391415 -0.032133035 -0.26856253 -0.3104467
0000f0 5f bb d7 bd 06 5e 2e 3d 19 a6 e4 3c e1 bc 06 be
       -0.10533785 0.042570136 0.027911233 -0.13157989

net.3.weight f4 [64, 64]
000000 7c 3d 36 3d 06 12 12 3f b0 a5 52 3d 8b 58 27 3e
       0.04449223 0.5705875 0.051427543 0.1634237
000010 71 1c d1 3d 93 ee c6 3e e0 d1 f5 bc 10 71 6a 3c
       0.10210503 0.38853893 -0.030007303 0.014309183
000020 31 d2 0a 3f ba 53 27 bf ef 5b 06 bf d8 e6 96 3d
       0.54226977 -0.6536213 -0.5248403 0.07368249
000030 b9 57 a5 be 33 d5 24 be fa a0 0f 3f 36 f1 ea 3d
       -0.3229349 -0.16096954 0.56105006 0.114717886
000040 f3 51 39 be 22 87 50 be 57 f0 58 3f 68 9c f4 bd
       -0.18097667 -0.20364049 0.8474173 -0.119438946
000050 81 6b 0d be 96 42 18 3f 65 ae 3a 3e 7d 5c 2c be
       -0.1381054 0.594766 0.18230589 -0.16832156
000060 35 c7 01 bb b8 b7 e5 bd b2 3b 24 3f d8 20 22 3f
       -0.0019802575 -0.11216682 0.6415359 0.63331366
000070 79 dd 8f be 4d 0b 04 be 58 d6 6c 3d 88 91 e5 3e
       -0.28098658 -0.12894936 0.0578216 0.44837594
000080 cc 6a 63 bf 18 b1 8b 3d 10 57 d3 3c e0 db 44 bc
       -0.88834834 0.06820887 0.02579835 -0.012015313
000090 de 46 0b be ba 61 3a bf 47 35 25 bf 84 53 d8 bd
       -0.13601252 -0.7280537 -0.6453442 -0.10562804
0000a0 fe 39 8d 3d 36 53 7f 3e 6e 30 84 3f f4 8f 8c 3d
       0.06895827 0.24934086 1.032728 0.068633944
0000b0 5a 46 26 be 48 6b d8 3d a2 88 07 3e ea bd 26 bd
       -0.16237774 0.10567337 0.13235715 -0.04070846
0000c0 8e c2 9d bd f4 24 68 3e a7 66 8b bd 85 8d 01 3f
       -0.07703124 0.22670346 -0.06806689 0.50606567
0000d0 e4 47 16 bd 33 1e 50 be 35 7c 07 be 08 2d 58 3d
       -0.036689654 -0.2032402 -0.13230975 0.05277732
0000e0 4c 84 2b 3e 83 0a 2a 3e 00 09 82 3c 40 77 5a 3b
       0.16749686 0.16605572 0.015873432 0.0033335239
0000f0 9d a4 92 3e 27 95 0b 3f 77 e2 eb 3e f0 a3 3b bd
       0.28641215 0.54524463 0.46071216 -0.04581064
000100 4a 90 ab 3d 78 48 74 3e 6c 6b 6e 3d 21 59 d7 3d
       0.0837713 0.2385577 0.058207914 0.10515047
000110 11 f7 8a 3e 90 ac 15 bb 20 2b 6e 3d 38 b4 27 bd
       0.27141622 -0.002283845 0.058146596 -0.040943354
000120 0d d5 09 3f 66 60 8e be 0c 7b bc be 72 9a ea 3d
       0.53840715 -0.2780792 -0.36812627 0.11455239
000130 e0 89 79 be 49 5b f1 3c 91 df c0 3e 9c 2f 5e bd
       -0.24369001 0.029462473 0.37670568 -0.054244623
000140 f1 aa 8d be 5a 54 b5 3c db b3 03 3f 00 5f 39 bd
       -0.2766948 0.022134949 0.5144631 -0.045256615
000150 da 38 32 3c dc b5 98 3e f5 9b 95 3e 34 74 b3 bd
       0.010877812 0.29826248 0.29220548 -0.08762398
000160 bd 09 32 be f8 1b ce 3c 9c d3 c1 3e 15 26 05 3f
       -0.17386527 0.02515982 0.37856758 0.52011234
000170 b0 23 11 be fa c4 55 3c ed b1 30 3e 40 ca 8f 3d
       -0.1417377 0.013047451 0.17255373 0.07020998
000180 b0 42 ec be 70 f4 aa 3d 40 7c 52 bb 22 64 8d 3d
       -0.4614463 0.08347404 -0.0032117516 0.069038644
000190 e1 2d 45 be f8 2d bb be e2 4d 31 be 2a 9b d7 bd
       -0.19255783 -0.3655851 -0.17314866 -0.10527642
0001a0 c5 84 27 bd 22 30 0c 3e 92 9f 16 3f f6 74 0c 3e
       -0.040898103 0.13690236 0.58837235 0.13716492
0001b0 7b 06 82 3d 3b 85 9c be 73 30 c0 3d 26 b1 f7 3d
       0.06348892 -0.30570397 0.09384241 0.12094335
0001c0 d0 c4 87 bd 6b b8 a4 3e 4d 9f 81 3e 98 cd a2 3e
       -0.06629336 0.3217195 0.2531685 0.3179748
0001d0 71 b0 10 3e 56 48 05 3d 24 d7 cf bd be 5c b0 3d
       0.14129807 0.032539688 -0.10148457 0.08611439
0001e0 ee c4 98 3b 0d 89 13 3e 10 6f 96 bd b8 9e 17 3d
       0.0046621477 0.1440775 -0.07345402 0.0370166
0001f0 90 26 0c 3e 86 81 09 3f 29 24 93 3e a4 a3 a4 3d
       0.13686585 0.5371326 0.28738526 0.080390245
000200 56 c5 ab bd 22 1f 77 3d 22 79 c6 3d cf 2a 2e be
       -0.08387248 0.060332425 0.09691073 -0.17008518
000210 53 f9 6c 3f b4 2a 0d bf 0e 42 b0 3d e0 20 6d bc
       0.9256794 -0.55143285 0.08606349 -0.01447317
000220 d5 12 2c 3e 77 a8 5f 3f 44 65 79 3f 14 4f ce bd
       0.16804059 0.8736643 0.97420144 -0.10073677
000230 df 8f 8e bd e5 a3 7e bd f0 9f 99 3e 72 01 f0 3d
       -0.06961035 -0.06216802 0.30004835 0.11719026
000240 fb ba 05 3d 16 c1 1e 3d 1a b5 03 3e 34 90 e5 3d
       0.03264902 0.03875836 0.12862054 0.11209145
000250 e5 31 d6 3c c0 46 c5 3d 3c 44 66 3f 94 64 a7 bd
       0.026146838 0.09632635 0.8994787 -0.08173481
000260 dc f2 b7 bd 72 04 af bd a4 10 15 3e b2 24 33 3e
       -0.089818686 -0.0854577 0.14557129 0.17494467
000270 df 84 63 3d 87 c3 89 3f ac 35 80 bd da 3e c8 be
       0.055546638 1.0762795 -0.06260237 -0.39110452
000280 56 23 57 bd da 4c c6 bd 0c 1d 58 3d e0 8c 23 3c
       -0.052523933 -0.09682627 0.052762076 0.009982318
000290 f7 74 8e bd 98 1d 6f 3f c6 61 84 3f 78 92 21 3d
       -0.06955903 0.9340453 1.0342338 0.039446324
0002a0 f3 ce 87 3f c5 dd 72 be 79 5e 20 3d be a7 46 3e
       1.0610031 -0.23717411 0.039152596 0.19399926
0002b0 8d 82 16 3c 0f 1b b6 be e7 35 cc 3e cd fc b7 3d
       0.009186399 -0.3556752 0.39884874 0.08983765
0002c0 d8 90 98 bc 95 0e a7 3e 85 63 66 3e ab 35 d1 bd
       -0.018623754 0.32628313 0.22498901 -0.102153145
0002d0 56 23 68 3d 98 cd e9 3d 14 83 04 be d8 de c3 3d
       0.056674324 0.11416167 -0.12940627 0.095639884
0002e0 fa bb f2 3d 4a 97 8a 3f 78 72 92 3c 86 44 8b bd
       0.1185226 1.082742 0.017876849 -0.06800179
0002f0 6e 8f 8f be 92 72 a7 3e 37 88 96 3c 6e 1c b5 bd
       -0.28039116 0.32704598 0.0183755 -0.08843313
000300 e0 04 95 bd e9 32 39 3e 56 d0 e2 3d e5 e4 3c bd
       -0.072763205 0.18085827 0.11074893 -0.04611673
000310 c6 4f 60 3e ff 28 05 be 90 9f 5f bd e0 bf 78 3c
       0.21905431 -0.1300392 -0.05459553 0.015182465
000320 af 20 b8 3d fb e8 ac bd ca 12 93 bd 5a 85 98 3d
       0.08990609 -0.08442875 -0.07181318 0.0744731
000330 a8 c8 6c bf b1 31 ee be ec ac 2c 3e 60 24 20 bd
       -0.9249368 -0.46522287 0.1686284 -0.03909719
000340 11 28 cd be 76 52 18 bf 12 32 6f 3e c4 1e 99 3d
       -0.4006963 -0.59500825 0.23358944 0.07476571
000350 97 d6 dd be 24 c7 83 3e 25 16 1d 3f 4b 20 36 bf
       -0.43327782 0.2573787 0.61361915 -0.71143025
000360 e8 5d 9f be 30 65 2f bd d2 ba 32 3e c7 0a 98 bb
       -0.31126332 -0.04282111 0.17454079 -0.0046399566
000370 42 5a 29 bf 78 94 b4 3e b8 fa 0f 3d c7 a9 17 bd
       -0.6615335 0.35269523 0.035151213 -0.037027147
000380 c2 8e 1a bf 9c 29 da 3d e8 16 19 bd 8e a8 e2 bd
       -0.6037408 0.106524676 -0.03737536 -0.110673055
000390 38 d8 0b bf 6a 63 38 be 0a af 2f 3c 80 e0 fb ba
       -0.546268 -0.18006673 0.010722885 -0.0019216686
0003a0 b3 f0 b8 3e 8e 3a 19 3d df c5 04 3e 53 c6 27 3d
       0.3612114 0.037409358 0.12966107 0.04096062
0003b0 16 5a 0a bf c9 10 a5 be dc 4e 37 3d 1b c4 3a bc
       -0.5404371 -0.3223937 0.04475294 -0.011399294
0003c0 94 2a 4d 3d 0e 5a 24 3c 0b d4 be bd d1 7c a0 3e
       0.050089434 0.010031236 -0.09317788 0.31345227
0003d0 57 af a4 bd 54 ab 39 bf 48 ea 4d bf 6a ef c3 3d
       -0.08041256 -0.7252705 -0.8043561 0.09567149
0003e0 87 f0 e6 3d 9b 4f ae 3e a0 b1 06 3c e0 aa 6c 3d
       0.11276346 0.3404511 0.00822106 0.057780147
0003f0 7a 56 3f bd 65 5f f3 bc bb aa e1 3d 30 54 ee bc
       -0.04671333 -0.029708574 0.110188924 -0.029092878

net.3.bias f4 [64]
000000 2b 40 9c 3e d9 a7 22 3e 75 a7 65 3e a1 01 7c 3e
       0.30517706 0.15884341 0.22427161 0.24609996
000010 11 37 42 3e ee 59 df 3d 00 75 21 3e 17 3e 6b 3e
       0.18966319 0.109058246 0.15767288 0.22972904
000020 25 7b 12 3e c4 8f 45 3d 81 e5 a2 3e d4 d2 3a 3e
       0.14304788 0.04823281 0.31815723 0.18244487
000030 a4 92 4e 3e 57 a9 2f 3e 54 a9 30 3e e3 ea c0 3e
       0.20173126 0.17154442 0.17252094 0.37679204
000040 31 c7 95 3e 12 06 b0 3e a1 cc d1 3d 97 15 63 3e
       0.29253533 0.3437963 0.10244108 0.22176205
000050 c6 09 50 3e 50 f3 84 3e f9 11 01 be 25 39 d6 3d
       0.20316228 0.25966883 -0.12604512 0.10460118
000060 2d b9 32 3e bf d5 15 3c 94 8f 4b 3d cf 1b b9 3d
       0.17453451 0.009145199 0.049697474 0.09038507
000070 1a b9 4e 3e 5f ae b0 3e db 7b e4 3d f0 e6 b8 3e
       0.20187798 0.34508035 0.11156436 0.3611369
000080 ca a2 13 3e a4 db 92 3e ee 9b 8d bd 1f 76 17 3e
       0.14417568 0.28683197 -0.06914507 0.14791153
000090 96 e9 8a 3e 50 9a 7c 3d fb a0 7f 3e 58 f9 6d 3e
       0.27131337 0.0616706 0.24963753 0.23239648
0000a0 3c ee 89 3c 8c 97 32 3e 0e 1b 67 3e 7d c1 30 3e
       0.016837232 0.17440623 0.22568914 0.1726131
0000b0 08 ba 3b 3e 8e fd 1d 3e b6 e9 c4 3d d3 89 ba 3e
       0.18332684 0.15428755 0.09614889 0.36433277
0000c0 f8 b4 54 3e 91 f3 af 3d 01 29 4f 3e fe 26 a6 3e
       0.20772159 0.085913785 0.20230485 0.32451624
0000d0 52 55 b1 3d b1 07 18 3e ce f9 2e 3e 7c d0 6e 3e
       0.08658852 0.14846684 0.1708748 0.23321718
0000e0 69 15 d2 3d ff 1d 7a 3e 79 87 2b 3e f6 7f c4 3d
       0.1025799 0.24425505 0.16750897 0.09594719
0000f0 d2 50 03 3e 01 06 e1 3d 85 82 76 3e 7d ed 61 bd
       0.12823799 0.10987473 0.24073227 -0.055158127
