2_Party/shadow_model_data/shadow_plus_F_client1_bottom_inter.pt (torch, 21928 bytes, 4 tensors)

net.0.weight f4 [64, 10]
000000 26 b6 9b bd 9c 4f 46 be 1b ee 57 be d0 bd 9d be
       -0.076031014 -0.19366306 -0.21086924 -0.30808878
000010 a8 7e 99 3e 6d c6 70 3e c6 0b 03 bd 80 ff 82 bd
       0.29979444 0.23513193 -0.03199365 -0.06396389
000020 41 b6 6b be c1 15 67 be 6d fc 80 3c ac f5 6a be
       -0.23018743 -0.22566892 0.015745366 -0.22945279
000030 11 07 e6 3c 85 3e 4f bd 61 48 19 be b3 7c 2c bd
       0.028079541 -0.050596733 -0.14969017 -0.04211111
000040 b7 da 08 3c fc b7 39 be b3 c0 8d 3d 86 d3 dc bd
       0.008352927 -0.1813659 0.0692152 -0.107825324
000050 f0 2c d8 bf 0f 5a c7 bf 81 48 81 3e 3e 71 83 be
       -1.6888714 -1.5574359 0.2525063 -0.25672334
000060 b7 7c 36 3e 7f c4 88 3e 8d 9c bb bd de b5 8f 3e
       0.17821012 0.26712415 -0.09160719 0.2806844
000070 a1 64 52 be 0e ee 87 3e 3a 77 73 3b ea 62 ea bd
       -0.205462 0.2654881 0.0037149922 -0.114446476
000080 95 ce 64 be a7 e5 40 be 1a 1c 59 3e 30 ad a3 bd
       -0.2234443 -0.18837605 0.21202126 -0.07992017
000090 b0 44 86 3e 98 d3 87 3d 53 73 d8 bc dd b0 d0 3c
       0.2622428 0.06632155 -0.026422178 0.02547496
0000a0 41 d2 33 be 18 02 b7 3c c6 df e8 3d 67 eb b3 3d
       -0.17560674 0.022339866 0.113708064 0.08785134
0000b0 d8 a7 7f 3e f4 18 a3 3d 1c d6 94 be 5d 58 81 be
       0.24966371 0.07963744 -0.29069602 -0.25262728
0000c0 5c 6f 31 be 53 e3 aa 3d 4b fd 90 bd de 03 e7 bd
       -0.17327636 0.0834414 -0.07079562 -0.112800345
0000d0 e9 7f f1 3d 48 49 84 3e 80 0b b7 bd f8 f9 88 3e
       0.11791975 0.2583716 -0.0893774 0.2675321
0000e0 41 6c 08 3e 2c 7e 9d bd b8 fe 57 3d 32 f1 ea 3d
       0.13322546 -0.07690081 0.052733153 0.114717856
0000f0 5b e1 c0 bf 0a 3a be bf 62 f1 82 3c d8 69 6a bf
       -1.5068773 -1.4861462 0.01598424 -0.91567755
000100 29 c1 9c 3e 25 91 53 bc 84 d9 e5 bd cd a6 41 3d
       0.3061612 -0.012913023 -0.112231284 0.047278214
000110 c3 62 f4 3d d6 44 86 3e a3 a8 79 bc f0 7a a8 bd
       0.119329 0.26224393 -0.01523796 -0.082265735
000120 6a 7a 42 be 3b 96 d8 3d 62 90 32 bd 8d 79 56 3e
       -0.1899201 0.10575529 -0.043594725 0.20944805
000130 61 19 92 3e b7 3d d3 bd c6 f9 9f be fc 49 69 bd
       0.28534988 -0.103145055 -0.3124525 -0.056955323
000140 a9 7e 14 3f 65 ca 33 3f db 26 a6 bf 63 92 b1 bf
       0.5800577 0.70230705 -1.2980608 -1.3872799
000150 ae 76 81 3e 89 7b 48 3e a9 36 f6 3d d0 86 c6 3e
       0.25285858 0.19578375 0.12022144 0.3877473
000160 9a f3 f8 bc 41 c4 8b 3e a3 72 eb 3d ec 8b ca 3e
       -0.030389596 0.27298167 0.114964746 0.39559877
000170 6f 72 16 bf c5 37 57 bf a6 d8 70 be bf 9f a4 3d
       -0.5876836 -0.8406947 -0.23520145 0.08038282
000180 67 42 48 3d 28 9f 21 3e 00 76 8b 3d 5a 45 64 bd
       0.04889145 0.1578337 0.06809616 -0.0557302
000190 06 25 15 3f c3 14 1b 3f 5d fa ea 3f c2 37 3a 3f
       0.5825962 0.60578555 1.8357655 0.7274133
0001a0 98 bc 81 bd 68 74 d5 be ac 23 a2 be a7 1b ce be
       -0.063347995 -0.41690373 -0.3166784 -0.40255472
0001b0 a7 a6 b7 be 7f 0a 04 be 8b 1b 0c 3e b4 0f 46 3e
       -0.35869333 -0.12894629 0.13682382 0.19341928
0001c0 71 2c 33 3d 05 94 f2 bd 2b 16 da bd 94 07 46 3d
       0.043743555 -0.11844639 -0.106487595 0.04834707
0001d0 8f 89 4b 3d 1e 85 52 be 2b 9f cf 3d cb 45 12 bb
       0.049691733 -0.20558593 0.10137781 -0.0022319432
0001e0 cf 1d a8 3c 1e fb 7a 3e ba ab ad bb e4 d8 17 3e
       0.020522026 0.24509856 -0.0053000124 0.14828831
0001f0 41 28 30 bd ec 9f 36 3e 94 97 32 bc 07 08 88 be
       -0.04300714 0.17834443 -0.010900397 -0.26568624
000200 d0 1a 6d bc cd 9e ba 3d e7 66 2c 3e 89 62 7d 3d
       -0.014471725 0.0911232 0.16836129 0.06186155
000210 69 24 e5 bc 88 14 00 be 1d fa 2f 3e 2e 9a 46 3e
       -0.027971463 -0.12507832 0.17185254 0.19394752
000220 3f 43 64 3e 01 3b 17 3e 6e 4d 1e be 62 b0 44 be
       0.22291277 0.14768602 -0.15459225 -0.1920791
000230 ff aa 58 bf 37 cb 4e bf fc 33 28 c0 da c5 3f c0
       -0.8463592 -0.8077883 -2.6281729 -2.996451
000240 16 af 3f be be 1f 51 3e 47 83 c6 3e f7 26 5e 3e
       -0.18719134 0.20422265 0.38772032 0.21694551
000250 10 48 09 3e f7 17 af 3e 11 97 3f 3e 74 d6 2e be
       0.13406396 0.3419797 0.18709971 -0.17073995
000260 3b 2c 1a 3c eb 2c f7 bd c5 4a 8a 3e 8e fa 1e bd
       0.009409959 -0.12069114 0.2701017 -0.038813166
000270 73 b0 7a 3e 3f e3 57 bd f9 6a 19 be 98 d2 8a be
       0.24481373 -0.052706953 -0.14982213 -0.27113795
000280 dd 0a 40 bf bd a1 3e bf d7 ab c6 3d cd cf df bc
       -0.75016576 -0.74465543 0.097007446 -0.027320767
000290 cc 17 24 be fa f3 29 be c7 73 a3 ba ae 08 8e bd
       -0.16024703 -0.16596976 -0.0012470417 -0.06935249
0002a0 fc 60 c3 3d bf 10 61 be ee ec 11 bf c4 4c 05 bf
       0.09539983 -0.21979044 -0.5700215 -0.5207026
0002b0 95 d9 08 bf 37 c2 a8 bf f0 d1 ba 3e 38 04 2b be
       -0.53457004 -1.318427 0.36488295 -0.16700828
0002c0 2b 13 bd 3d 01 ed 6c 3e 25 8a 2b bd a6 d5 ca 3e
       0.092321716 0.23137285 -0.04187979 0.39616126
0002d0 da 1b 72 bd 20 3b 46 bd 9e be 80 be 84 d9 8b be
       -0.059108593 -0.04839623 -0.2514543 -0.2731439
0002e0 9c b6 8a 3e 33 35 bd 3d 68 43 33 bd 8a 8e 66 3e
       0.27092445 0.092386626 -0.043765455 0.22515312
0002f0 4c 6e da 3d e4 39 9b bc e4 37 d4 bf 94 92 d1 bf
       0.10665569 -0.018948503 -1.6579556 -1.6372857
000300 f3 fd ac 3f 6c bd 1c 3f 40 86 9b be f1 4f b8 be
       1.3514999 0.61226535 -0.30375862 -0.3599849
000310 80 4d 03 be c2 54 b3 be ef 49 26 be bb 82 2e be
       -0.12822533 -0.35025603 -0.16239141 -0.17042057
000320 84 3e 68 3e 68 3b 8f 3e 0c 42 6c 3e 60 25 ce bd
       0.22680098 0.2797501 0.2307207 -0.100657225
000330 9b 10 df 3d 4a a4 9b 3e ca 57 86 be a8 16 d9 bc
       0.10891839 0.3039878 -0.26238853 -0.026500061
000340 5e 31 79 be da 74 90 be 7d 98 69 be 04 b1 85 bc
       -0.24335238 -0.2821415 -0.22812076 -0.01631976
000350 40 35 ef 3d 61 83 52 be 66 0c 77 be 13 2e 98 3c
       0.116800785 -0.2055793 -0.24125823 0.018576657
000360 3d 04 66 3e d4 c1 29 be 5a 2d 7a be f1 a4 88 3e
       0.22462554 -0.16577846 -0.24431363 0.2668834
000370 84 55 f7 3d ff 94 4d bc 34 74 11 be ae 3c 0b 3d
       0.12076858 -0.0125477305 -0.14204484 0.033993416
000380 74 14 0f 3e db 3e 92 3d 21 41 82 3d ae ad 55 be
       0.13972646 0.07140895 0.063600786 -0.20867035
000390 ea 1f ea bc c2 cd 85 be c3 81 be be ae 0b 10 bf
       -0.028579671 -0.26133543 -0.37208375 -0.5626782
0003a0 b1 08 d1 3e ba ab 78 be 5d 3d 3a 3e fc ac 6b be
       0.40826944 -0.24284258 0.1818747 -0.23015207
0003b0 7c a6 ba bd 63 7d 2f 3d ea 52 87 be 13 97 ae 3d
       -0.091137856 0.042844187 -0.26430446 0.08524909
0003c0 38 91 2d c0 1f 4e 0a c0 bb fd 74 3f 3c d8 9e 3e
       -2.7119884 -2.1610181 0.9569966 0.3102435
0003d0 ba d2 44 be 81 48 7e be 36 d8 96 3e 42 bf a6 3d
       -0.19221011 -0.24832346 0.2946183 0.08141948
0003e0 7d 1a 20 3e 4c 58 b5 be 95 ef c9 be 7e b3 0d be
       0.15635104 -0.35418928 -0.394406 -0.13838002
0003f0 dd 6a b7 bf 22 45 c1 bf 43 9e 7c 3e 83 bd 82 3e
       -1.4329487 -1.5099223 0.24669747 0.2553521

net.0.bias f4 [64]
000000 78 6d 2a bd de 84 03 be 02 d2 14 3e 56 2b a0 3d
       -0.041608304 -0.12843654 0.14533237 0.07820766
000010 d1 5b 26 bc 04 ca 92 bd 98 44 64 be 5f 5b 94 3e
       -0.010153727 -0.07167438 -0.22291791 0.2897596
000020 56 7b 87 3d fc 22 b3 be b9 60 8c 3d c2 50 23 be
       0.06615321 -0.34987628 0.06854386 -0.15948775
000030 ec f2 94 3e f4 b8 6e bd 5e 48 7e be 45 bd 7c be
       0.29091585 -0.058281854 -0.24832293 -0.24681576
000040 b8 c3 85 3e 23 05 94 be f6 29 88 be ff 20 52 be
       0.26125884 -0.2891017 -0.26594514 -0.205204
000050 e1 b7 c0 bd f9 38 93 be ca 39 a4 bd 03 74 eb 3d
       -0.09410072 -0.28754404 -0.08018835 0.11496737
000060 0b 17 9a 3d 52 30 d7 3a 0f 64 65 3e 5e 84 2f be
       0.07523926 0.0016417599 0.2240145 -0.17140338
000070 e3 52 d7 3d e9 c1 ef bc 40 a4 94 be 0e a4 6f 3d
       0.10513856 -0.029267268 -0.29031563 0.058506064
000080 8e 18 0f be d4 99 3a be f3 6e 77 3e 2a 3f ae 3e
       -0.1397421 -0.18222743 0.24163418 0.34032565
000090 ff ca cf be b2 c5 9d 3e 03 2d 37 3e 10 94 49 bd
       -0.4058456 0.30814892 0.17888264 -0.04921347
0000a0 e5 a5 dd bd 06 b4 99 3e 68 0a 8e be 57 45 32 3e
       -0.108226575 0.3002016 -0.27742314 0.17409264
0000b0 83 cc 39 3e d8 86 4c be 5f 08 90 3e 0f 4a a0 be
       0.18144421 -0.19973314 0.28131387 -0.31306502
0000c0 fd 4e b3 3d 87 86 e5 be 2d 74 75 3e f0 1c 8e 3a
       0.087553 -0.448292 0.23970099 0.0010842364
0000d0 28 a7 0f bd ca cf 97 be b3 2d 83 3e 5b ef 27 be
       -0.035071522 -0.29650718 0.25620803 -0.163999
0000e0 f8 5d 48 3e 53 df 1c 3e f1 22 c6 be c9 0c 94 3d
       0.19567096 0.15319566 -0.38698533 0.07229001
0000f0 74 ab 1c be 87 b2 e7 3d cf 7e 90 3e b7 04 8c bd
       -0.15299779 0.11313348 0.28221747 -0.06836837

net.3.weight f4 [64, 64]
000000 54 17 47 bd 5c c2 1d 3d 6b 0b 33 bd cc 58 18 bd
       -0.04860623 0.038515434 -0.04371206 -0.03719406
000010 c0 b2 43 3c ee 01 eb 3d 08 21 a7 3d c2 6c e0 3d
       0.011944473 0.114749774 0.08160597 0.10958244
000020 49 a3 44 bd 8c 18 6c 3d aa 19 ed 3d cc e8 85 bd
       -0.048007283 0.057640597 0.11577161 -0.06538543
000030 70 cc 9b bc e0 6f e3 bc 80 37 74 be a0 c7 48 bc
       -0.019018382 -0.027763307 -0.23849297 -0.012254626
000040 49 aa 4f bc 36 83 87 bd 58 45 54 3d aa 0d eb 3d
       -0.0126748765 -0.066168234 0.051823944 0.114772156
000050 f8 72 e9 bd 90 8c df bc 70 37 9f bd 88 7e 79 3c
       -0.11398882 -0.027288705 -0.07774246 0.015227921
000060 e0 11 a1 3c b0 d4 97 bc 8c cb 19 bd 9c b5 45 3d
       0.019661844 -0.018534034 -0.037547633 0.0482689
000070 a0 56 c8 bb ea 31 c9 3d 12 70 96 3d db 6a 03 bd
       -0.006113842 0.098239735 0.073455945 -0.032084327
000080 58 75 13 3e 8d 11 25 3e db 94 36 bd 6b 24 d1 3d
       0.14400232 0.16119976 -0.044575553 0.10212024
000090 45 4d 94 3d d5 36 44 bc 25 b8 fd bc ee 4a a1 3d
       0.072413005 -0.011975964 -0.030971596 0.0787562
0000a0 30 f2 92 3c 70 f0 8a bd 7c 52 fb bd c0 01 b2 3d
       0.01793775 -0.06784141 -0.12271592 0.0869174
0000b0 a9 5a be 3c 83 2b 68 3d 96 8d 98 bd c0 00 4e bc
       0.02323659 0.05668212 -0.074488804 -0.012573421
0000c0 ec 61 06 bd cf e0 2d 3d 98 4f bf bd ed ea 9e bc
       -0.03280823 0.042450722 -0.09341353 -0.01939913
0000d0 2a ad c0 3d ea 70 60 3d 4c 3b c4 3d 4d f4 63 ba
       0.094080284 0.054795183 0.095816225 -0.00086957664
0000e0 df 40 01 3e 80 59 75 3c e2 5d 59 3d 08 3b b7 bc
       0.12622403 0.014974952 0.05306805 -0.022367015
0000f0 76 75 c9 bd 58 c0 9d bc f4 98 31 3d ee 78 a3 3d
       -0.09836857 -0.019256756 0.043358758 0.0798205
000100 88 53 ac bc 08 48 26 3d a0 7d 21 3e 30 63 ff bd
       -0.021035925 0.040596038 0.15770578 -0.124700904
000110 8c af e5 3d 0a 8c b4 3d 37 75 27 bd 3a 33 d7 bd
       0.112151235 0.08815773 -0.04088327 -0.105078176
000120 ee 97 fc bc c9 33 d9 bc 09 2b 80 3e 00 5e d0 b9
       -0.030834164 -0.02651395 0.25032833 -0.00039742887
000130 46 a7 cd bd 10 20 5d bd d6 1c fc bb 6c ee b7 3d
       -0.100416705 -0.053985655 -0.007693867 0.08981022
000140 dc 61 2f 3d 49 d3 0b 3d d0 33 d0 3c 10 f3 57 3e
       0.042817935 0.034137044 0.025415331 0.21088815
000150 30 e4 cc bd 38 64 8b bd 88 a4 86 bd 8e 00 98 3d
       -0.10004461 -0.068062246 -0.065743506 0.07421981
000160 47 4b ad 3d c0 a1 c9 3d f7 fd 36 3d 68 ae d3 bd
       0.08461624 0.098453045 0.044675793 -0.10336
000170 fc 5a 3b 3d 46 8e 17 3e f8 7e ae 3c 93 ad 3e bd
       0.045741066 0.14800367 0.021300778 -0.046552252
000180 e4 83 e2 3d 91 e8 7a 3e 67 96 44 3e e5 16 df 3d
       0.110603124 0.2450278 0.19197999 0.10893039
000190 e5 89 21 3e e6 cf 39 3e 28 5f 74 3d 44 c8 25 3d
       0.15775259 0.18145713 0.05966106 0.04047419
0001a0 60 9a 2a bc cd 8c cf bd 2e 0d d6 3d c8 8a 28 3d
       -0.010412782 -0.101342775 0.104517326 0.041147977
0001b0 ce 02 5d 3d 13 a1 e1 3c 18 fe 94 bd 9c 45 af bd
       0.053957753 0.027542626 -0.07275027 -0.08558199
0001c0 5c 6d 3d 3d 40 78 d2 3d 56 4a e4 3d 69 9c 05 3c
       0.04624687 0.10276842 0.11146991 0.008154967
0001d0 f8 d1 83 3c b0 5e 16 bc 00 fe 48 3d 64 59 39 3e
       0.016091332 -0.009177849 0.04907036 0.18100506
0001e0 a2 c2 81 3e 06 1c 8e 3d 6d 8b 56 bc 98 f4 d1 bc
       0.25343806 0.06938939 -0.013094765 -0.025629327
0001f0 cc b3 4b bd 90 b5 cb bd d6 fd 6a 3d bb 67 bb 3c
       -0.049732015 -0.0994674 0.057370983 0.022876611
000200 e0 e5 a0 bb ea f6 9e bd 75 41 60 bd 70 ee 8a bc
       -0.0049102157 -0.07761939 -0.054749925 -0.016959399
000210 58 85 8b 3d 10 aa fe bc 2f 5f 37 bd 7c a1 c2 bd
       0.06812543 -0.031086951 -0.04476851 -0.09503457
000220 78 5d 7f 3b d0 8e e6 bc cf 59 d4 be 48 2f b6 3c
       0.0038965624 -0.02814427 -0.4147477 0.022239342
000230 34 f5 bd bd 66 5d 9c 3d 8a 58 de 3d c8 43 93 bc
       -0.092752844 0.07635002 0.10856731 -0.017976657
000240 84 1e 48 3d 0d da 63 be 44 eb 4c bd b1 aa 51 be
       0.048857227 -0.22251149 -0.050029054 -0.2047527
000250 10 0c 6d 3c 26 39 8b 3d 34 32 ba 3d 52 1a 36 3e
       0.014468208 0.067980096 0.09091607 0.17783478
000260 cc 3d 6b 3d 5e ee f6 bd 6a fb 81 bd 48 08 f1 bc
       0.05743198 -0.12057184 -0.063467816 -0.029422894
000270 ec c2 ee 3d d7 1f f8 be c4 0c 64 bd d1 e8 fb 3c
       0.11658272 -0.48461792 -0.055676237 0.030750664
000280 f9 d9 fd 3d 41 8e c2 3d f5 29 49 be 0f fd 19 be
       0.123950906 0.09499789 -0.19644912 -0.1503794
000290 db 03 aa 3d a2 93 0a be 2d ed 5a bd 1c a7 11 bd
       0.083015166 -0.1353288 -0.053448845 -0.03555976
0002a0 a0 0d 96 bb 16 db 03 3e 04 86 5c 3d a1 a5 02 be
       -0.004579261 0.12876543 0.053838745 -0.12758495
0002b0 d4 1a 24 be 2b 06 24 3d 56 36 b0 3d 6c e4 06 3d
       -0.16025859 0.040044945 0.08604114 0.032932684
0002c0 a8 79 d8 bc 9d 66 2d be 68 cf 1d 3d 39 72 84 3d
       -0.026425198 -0.16933675 0.038527876 0.06467099
0002d0 10 1e d9 bd 14 30 d7 3d 6c bf d3 bd d4 98 d8 bc
       -0.10601437 0.10507217 -0.10339245 -0.026440062
0002e0 36 00 19 bf ac 06 07 3d 87 b0 55 3c c6 86 ac bd
       -0.59765947 0.032965347 0.013042576 -0.084241435
0002f0 e8 0a c8 bd be 6a c4 3d 8a 53 14 3d 2e 94 24 3d
       -0.09767705 0.09590672 0.03621248 0.040180378
000300 60 5a d7 bb 80 dc 4c bd 24 71 95 3c 7a 48 ca 3d
       -0.006572053 -0.050014973 0.018242426 0.09877105
000310 90 fb 09 3d b0 a5 0c bd d4 29 08 be 10 83 bc 3d
       0.033687174 -0.0343377 -0.13297206 0.09204686
000320 ce d9 81 bd d7 e8 e9 bc c6 27 bc 3d 70 8a e9 bd
       -0.06340371 -0.02855341 0.09187274 -0.11403358
000330 16 92 a7 bd 28 d7 80 3d e1 a0 97 bd 60 71 39 bd
       -0.081821606 0.06291038 -0.07403732 -0.04527414
000340 fc 21 2e 3e 9e d6 c9 bc 38 ab b2 3c 96 d8 25 bd
       0.17005152 -0.02463847 0.02181016 -0.040489756
000350 00 40 a0 b8 e4 6f 46 bd 9e 25 d4 3d 17 20 7a bd
       -7.6413155e-05 -0.04844655 0.103587374 -0.06106576
000360 14 9b 49 3d 81 88 e6 3c 0f 25 19 3d 00 6e 3c bb
       0.04922016 0.028141262 0.037388857 -0.0028752089
000370 ba 0a ed bd 3d d4 48 3e b4 f4 59 bd 30 76 f2 3d
       -0.115743116 0.19612212 -0.053211883 0.11838949
000380 7d 94 d5 bd 8b 59 c8 39 ef 3d a1 3d ef d6 9b 3c
       -0.104287125 0.00038213687 0.07873141 0.019023387
000390 ca 30 97 3b b5 5f cb 3d c1 aa 72 bd 18 3c 4e 3d
       0.0046139704 0.09930364 -0.059244875 0.05035028
0003a0 78 1e 95 3c 76 b8 c6 3a e4 49 ab 3d e1 ec 1d 3e
       0.018203005 0.0015161175 0.08363703 0.15422393
0003b0 b1 03 01 3e 89 2a 4c bd 58 24 d0 bc 30 2a 62 bd
       0.12599064 -0.049845252 -0.025407955 -0.055216014
0003c0 a0 d4 c8 bc a9 31 3e 3d 44 af c5 3d c8 f0 38 bd
       -0.02451545 0.04643408 0.0965257 -0.045151502
0003d0 78 8b 82 bc 55 61 e5 3d f4 2e 61 bd ae 83 b2 bd
       -0.015935645 0.11200205 -0.05497642 -0.08716522
0003e0 47 c6 c2 3c 78 a9 95 3d 25 c4 b1 bd c8 28 14 3d
       0.023776187 0.07307714 -0.0867999 0.036171705
0003f0 b0 d8 37 bd d4 e4 23 bd a7 fd a7 bc 47 a7 e2 bd
       -0.044884384 -0.04001315 -0.020506693 -0.11067062

net.3.bias f4 [64]
000000 ab 05 1d 3f 6d c6 17 3f 5a be 91 3e 1d fd 17 3f
       0.61336774 0.5928715 0.2846554 0.59370595
000010 19 93 fa 3c 85 8f 1e 3f 38 55 bf 3e f6 d1 7f 3c
       0.03058772 0.61937743 0.37369704 0.015614023
000020 db 55 ae 3e 46 e9 e4 3e 27 dc 8b 3e b9 35 c0 3e
       0.34049878 0.44709224 0.273164 0.37540987
000030 8f 2e c4 3d 8e f7 44 3e 39 5a c9 bd 00 90 a4 3e
       0.09579193 0.1923506 -0.09831662 0.32141113
000040 7e 10 15 3e db 5c 82 3e d9 6e 12 3f ef 2d c9 3e
       0.14557073 0.25461468 0.5720039 0.39292857
000050 c7 b1 e6 3e cf 7b 24 3d a8 b4 58 3e d4 d5 9a be
       0.45057508 0.040157136 0.21162665 -0.30241263
000060 da da cc 3e 22 72 a0 3e 1c 42 82 3e ef fe a5 bd
       0.4001072 0.31337076 0.25441062 -0.08105265
000070 dc f4 e3 3e 1a 3f ca 3e 00 6c 81 3e df 4c cb 3e
       0.4452275 0.39501268 0.2527771 0.39707085
000080 7e 0d aa 3e 9c 0e dc 3e c4 05 2d 3f dd 70 02 3f
       0.3321342 0.42979896 0.6758692 0.50953466
000090 7c d7 ca 3e 48 b3 a2 3e 44 33 cd 3e 5d 7c 93 3e
       0.39617527 0.31777406 0.40078175 0.2880582
0000a0 5f dc 19 3e 25 5d 93 3e 3f 1d 81 bd 8d 6b 32 3f
       0.15025471 0.28782 -0.063044064 0.6969536
0000b0 4d 9f f1 3e 0e 0f 07 3f ee 10 3b 3e dc 1c 1e 3f
       0.4719185 0.52757347 0.18268177 0.61762786
0000c0 0c 13 db 3e b1 46 b0 bd dd 3c af 3e 41 7d ee 3e
       0.4278797 -0.08607233 0.34226122 0.46579936
0000d0 58 2c 2c 3e e6 75 04 3f d2 4a cd 3e 06 d9 db 3e
       0.16813791 0.517424 0.40096146 0.42939013
0000e0 c9 d4 09 3f 5e 6d 91 3e 9d ae 00 3f 38 88 32 3f
       0.5384031 0.28403753 0.5026644 0.69739103
0000f0 44 2a e3 bd cc 93 14 3f d2 14 60 3e 20 5f 16 3f
       -0.11092046 0.5803802 0.21882942 0.587389
