2_Party/shadow_model_data/shadow_minus_F_client1_bottom_inter.pt (torch, 21936 bytes, 4 tensors)

net.0.weight f4 [64, 10]
0	0xbf686cd7	-0.90791076
1	0xbf3a66e2	-0.72813237
2	0xbf8d5b73	-1.1043533
3	0x3e534359	0.2063116
4	0x3da2ecb0	0.07955301
5	0x3e1f5a42	0.15561774
6	0xbf0b506d	-0.54419595
7	0xbf59a3d2	-0.85015595
8	0xbed3a809	-0.41339138
9	0x3fa91487	1.320939
10	0x3ccc8089	0.024963634
11	0x3e83a8d7	0.25714752
12	0x3e22c5f4	0.15895826
13	0xbe23d575	-0.15999396
14	0xbdc8d051	-0.09805358
15	0x3e6ccfde	0.2312617
16	0x3e9f0ab1	0.31062844
17	0x3dca8d7d	0.09890268
18	0x3e1f1c59	0.15538158
19	0xbe1a4015	-0.15063508
20	0x3e2207ea	0.15823331
21	0xbe75c58b	-0.24001138
22	0xbe69ac9a	-0.22819749
23	0xbf944292	-1.1582816
24	0xbf8e438d	-1.1114365
25	0xbf543952	-0.82899964
26	0x3e4db311	0.2008784
27	0x3f37503d	0.7160681
28	0x3f40676b	0.75157803
29	0x3f5e1ba7	0.86760944
30	0xbe302149	-0.17200197
31	0x3e8c27c5	0.27374092
32	0xbe5884fa	-0.21144477
33	0x3dd54d7b	0.10415169
34	0xbe61524e	-0.22004053
35	0xbe554acb	-0.20829313
36	0xbe5e655a	-0.2171835
37	0x3e81cf51	0.25353482
38	0x3e4be55b	0.19911711
39	0x3e82387e	0.25433725
40	0x3e3456f6	0.17611298
41	0x3df1b8a8	0.118027985
42	0xbdd91949	-0.10600526
43	0x3e232280	0.1593113
44	0xbcbe9c14	-0.023267783
45	0x3e78f76b	0.24313132
46	0xbd35cd37	-0.04438516
47	0xbe015a07	-0.12631999
48	0xbe5473e2	-0.20747331
49	0xbdd0ff5e	-0.102049574
50	0xbe9582d9	-0.2920139
51	0xbe8c6513	-0.27420864
52	0xbede8096	-0.43457478
53	0xbf453d96	-0.770471
54	0xbf39ce74	-0.7258065
55	0xbf34ffce	-0.70702827
56	0x3f052484	0.52008843
57	0x3f53315b	0.82497185
58	0x3f21d520	0.6321583
59	0x3f5dceb3	0.8664352
60	0x3d316596	0.04330977
61	0xbdacf479	-0.08445067
62	0x3e927ec4	0.2861234
63	0x3d5a85b8	0.05335018
64	0x3e7cfad0	0.24705052
65	0x3e89b639	0.26896837
66	0xbe1ee544	-0.15517145
67	0xbe526e96	-0.20549998
68	0x3e91de2e	0.28489822
69	0x3d550e7e	0.052015774
70	0x3ea08fa3	0.31359586
71	0xbe1f5a18	-0.15561712
72	0x3dbfe4ea	0.09369834
73	0xbe8ff484	-0.28116238
74	0x3c87b0d4	0.01656381
75	0x3e976831	0.2957168
76	0x3e98cd64	0.298442
77	0x3dbbd945	0.091723
78	0xbdeb19d0	-0.11479533
79	0x3e4a9127	0.19781934
80	0xbe300846	-0.17190656
81	0xbd6baf31	-0.057540122
82	0x3e7624f0	0.24037528
83	0x3e6473d6	0.22309813
84	0xbe0e1a5e	-0.13877246
85	0x3e3a098b	0.18167703
86	0xbe685222	-0.22687581
87	0xbd19a36c	-0.037509367
88	0xbd21348e	-0.03935676
89	0x3e8bf2f5	0.273338
90	0x3e55e57a	0.2088832
91	0xbe63f3fb	-0.2226104
92	0x3df9a4a0	0.12189603
93	0xbe0c5594	-0.1370452
94	0x3deab0fc	0.11459538
95	0x3e55c36a	0.20875326
96	0x3e907091	0.2821088
97	0x3e33fe9b	0.17577593
98	0x3e76ee3d	0.24114318
99	0x3e6eb70e	0.23312017
100	0xbe25a8c1	-0.16177656
101	0x3dffd626	0.124920174
102	0xbd7446e9	-0.059637938
103	0xbe1a69e0	-0.1507945
104	0xbe18aee1	-0.14910461
105	0xbe625f1f	-0.22106598
106	0xbda620f5	-0.08111755
107	0xbe88b3ca	-0.26699668
108	0x3d698c32	0.057018466
109	0x3e6d6a25	0.23185022
110	0x3de7e5a8	0.113231
111	0x3e1aec0a	0.15129104
112	0xbe86eaf4	-0.2635113
113	0x3e43d556	0.1912435
114	0xbdc3727c	-0.095433205
115	0xbce46970	-0.027882308
116	0x3e5946c6	0.21218404
117	0x3e64adf4	0.22331983
118	0xbe67479a	-0.22585908
119	0x3e866753	0.26250705
120	0xbf556d12	-0.83369553
121	0xbf6cb152	-0.9245807
122	0xbec1791b	-0.3778771
123	0xbed0d441	-0.40786937
124	0xbddab38f	-0.10678779
125	0xbf1721e4	-0.5903609
126	0xbf2481ee	-0.64260757
127	0xbf2fec89	-0.687203
128	0xbf2091b1	-0.6272231
129	0x3f079335	0.52958995
130	0xbe1c7922	-0.15280584
131	0xbdbc6168	-0.09198266
132	0xbe4bf28a	-0.1991674
133	0xbe924902	-0.28571326
134	0x3de122f6	0.109929964
135	0x3e88778f	0.26653716
136	0x3e46f227	0.19428311
137	0x3e6adc7e	0.22935674
138	0x3e93f79c	0.28899848
139	0x3dcae98d	0.099078275
140	0x3e31bc88	0.17357075
141	0xbdd031d1	-0.10165752
142	0xbe5a7294	-0.2133277
143	0x3d7e16a1	0.0620333
144	0x3e0d8970	0.1382196
145	0x3dd26e4f	0.10274946
146	0x3dbd0c8b	0.09230908
147	0x3b1b6b25	0.0023714986
148	0x3e3e8f57	0.18609367
149	0x3c4603a0	0.012085825
150	0xbe866cfd	-0.26255026
151	0xbf443d77	-0.7665629
152	0xbea6f5d3	-0.32609424
153	0x3f843d42	1.0331194
154	0x3f6b520b	0.9192206
155	0x3f869134	1.0513062
156	0xbf00e3bf	-0.5034751
157	0xbe8855ba	-0.26627904
158	0xbe89eff7	-0.2694089
159	0xbdc84494	-0.09778705
160	0xbe10e038	-0.14148033
161	0x3dd5fd71	0.10448731
162	0xbe2a0881	-0.16604806
163	0x3d64caae	0.055857353
164	0xbdb7a526	-0.089670464
165	0xbdb73e5f	-0.08947443
166	0xbe043c09	-0.12913527
167	0x3d5b2b3a	0.05350802
168	0xbc89c8ad	-0.016819322
169	0xbd21e025	-0.0395204
170	0xbf94bb5d	-1.1619679
171	0xbf45a964	-0.77211595
172	0xbf4eb728	-0.80748224
173	0xbdd05b84	-0.10173705
174	0x3e3961d2	0.18103722
175	0x3eb578fc	0.35443866
176	0xbf14e0a5	-0.5815528
177	0xbf2d92fe	-0.6780242
178	0xbf1769f8	-0.5914607
179	0x3f87d911	1.0613118
180	0x3f9c85e4	1.222836
181	0x3fcd06ee	1.601774
182	0x3fbf92c1	1.4966661
183	0x3ec8d05a	0.3922146
184	0x3ebe285e	0.37140173
185	0xbcc1bfa0	-0.023650944
186	0x3fd3f4e5	1.6559111
187	0x3fb6e40a	1.4288342
188	0x3f97e727	1.1867417
189	0xbfabdc4d	-1.3426605
190	0xbe2b32a1	-0.16718532
191	0x3e302d88	0.17204869
192	0xbe6b691e	-0.22989318
193	0x3ea173f9	0.31533793
194	0x3dd6c14e	0.10486089
195	0x3ea1d501	0.31607822
196	0xbd887984	-0.06663802
197	0xbd8a162c	-0.0674251
198	0xbdfa64e4	-0.122262746
199	0x3bdba841	0.006703407
200	0x3eedef16	0.4647147
201	0x3f36d408	0.71417284
202	0x3e50c90f	0.20389198
203	0x3f8100f8	1.0078421
204	0x3fac4cdf	1.3460959
205	0x3f684314	0.90727353
206	0xbf024441	-0.508854
207	0xbf1bcf4d	-0.6086319
208	0xbf70b052	-0.94019043
209	0x3e536e5f	0.20647572
210	0xbe5a93c6	-0.21345434
211	0x3bb9a9aa	0.0056659775
212	0x3e5ec438	0.21754539
213	0xbd94647b	-0.07245728
214	0x3d024aa3	0.03180946
215	0xbe6f83dd	-0.23390146
216	0x3e24e028	0.16101134
217	0xbd0978b6	-0.033562385
218	0x3e2edb5b	0.17075865
219	0xbde85f90	-0.11346352
220	0x3e40668d	0.1878912
221	0x3eabf377	0.33584186
222	0x38d3cca0	0.000100993784
223	0x3fb68917	1.4260587
224	0x3fb02562	1.3761408
225	0x3fd25139	1.6431037
226	0x3f9d11a6	1.2271011
227	0x3f8805c8	1.0626764
228	0x3f85e856	1.0461528
229	0xc005e5dd	-2.0921547
230	0xbf68920f	-0.9084787
231	0xbf4a712a	-0.79078925
232	0xbf4cc008	-0.79980516
233	0x3f87513c	1.0571666
234	0x3f1b4e28	0.6066613
235	0x3f52a2d3	0.822797
236	0xbe89d18a	-0.26917678
237	0xbe948ed5	-0.29015222
238	0xbe5a1e5a	-0.2130064
239	0xbe0818d1	-0.13290717
240	0x3fa3be84	1.2792516
241	0x3f88567c	1.0651393
242	0x3fa1db2f	1.2645015
243	0xbfdaacd4	-1.7083993
244	0xbfcf17a7	-1.6179093
245	0xbfdb4adc	-1.713222
246	0x3f5debb5	0.86687785
247	0x3f4e4c49	0.8058515
248	0x3f638af0	0.88883877
249	0xbf32f3d9	-0.6990333
250	0x3cad84b3	0.02118144
251	0xbda045d7	-0.07825821
252	0xbd6661fc	-0.05624579
253	0xbf8dd83b	-1.1081613
254	0xbf94ef8e	-1.1635606
255	0xbf447601	-0.7674256

net.0.bias f4 [64]
0	0x3d95dca1	0.07317472
1	0xbe32a360	-0.17445135
2	0x3e0dc736	0.13845524
3	0xbe7756ae	-0.2415416
4	0xbe5e829f	-0.21729515
5	0x3e1e3d31	0.1545303
6	0xbe3d5688	-0.1849004
7	0xbdfc0f62	-0.123076215
8	0xbea0cc01	-0.31405643
9	0xbe90b9eb	-0.28266844
10	0xbe765cd0	-0.24058843
11	0xbe4c1543	-0.19929986
12	0xbcb12cad	-0.021627748
13	0xbe310560	-0.17287207
14	0xbe08cdcf	-0.1335976
15	0x3d185978	0.0371947
16	0xbd51e687	-0.05124524
17	0x3d9c6bd0	0.07637751
18	0x3e2ed991	0.17075182
19	0xbdc60afb	-0.09670063
20	0x3c926aa1	0.01787311
21	0xbe4f800a	-0.20263687
22	0x3e416340	0.18885517
23	0x39221e8d	0.00015460905
24	0x3e37149c	0.17878956
25	0x3dfe0056	0.12402408
26	0xbd2cdbce	-0.04220181
27	0x3dedf698	0.116193
28	0xbe9ee00d	-0.31030312
29	0xbd71acad	-0.059002567
30	0x3d8be1ec	0.068302006
31	0x3ddf61b5	0.10907308
32	0x3d94e554	0.07270303
33	0x3d921931	0.07133711
34	0x3c8dd6b8	0.0173143
35	0x3d1b754b	0.037953656
36	0x3d534241	0.051576857
37	0xbe9e1d94	-0.3088194
38	0x3d70edc3	0.058820497
39	0x3e18fc37	0.14939962
40	0xbe897639	-0.2684801
41	0x3db04a31	0.08607901
42	0x3d88de46	0.0668302
43	0x3d766588	0.06015542
44	0xbcea8d73	-0.028631901
45	0x3d61f5b6	0.05516597
46	0xbe9f074a	-0.3106025
47	0xbe670a64	-0.22562557
48	0x3c3ccd6f	0.011523589
49	0x3e27f984	0.16403776
50	0xbd254ce9	-0.04035655
51	0xbe709bd0	-0.23496938
52	0xbe7dd15b	-0.24786894
53	0xbd7a5fa7	-0.061126377
54	0xbcdaf2eb	-0.02672716
55	0x3d21c60a	0.039495505
56	0xbe344c4a	-0.17607227
57	0x3d8e5850	0.06950438
58	0x3deabdc9	0.1146198
59	0x3e096749	0.13418306
60	0x3d0bdbbf	0.034145113
61	0x3dbc889d	0.092057444
62	0xbe729d5b	-0.23692839
63	0xbe4de807	-0.20108043

net.3.weight f4 [64, 64]
0	0x3f7baa1f	0.9830646
1	0x3d3d229c	0.046175584
2	0xbd26d870	-0.040733755
3	0xbd85b5d6	-0.06528823
4	0x3d976b4c	0.07393512
5	0x3e124e83	0.14287762
6	0xbd5149a4	-0.05109562
7	0x3de56db8	0.11202568
8	0x3c863918	0.016384646
9	0x3c04e6c0	0.008111656
10	0x3d26448c	0.040592715
11	0x3ccdf418	0.025140807
12	0x3e8ca47c	0.27469242
13	0xbd49e7c4	-0.049293295
14	0xbd652bc0	-0.055949926
15	0x3f8207fb	1.0158685
16	0xbd2fc498	-0.042912096
17	0x3f9ad67e	1.2096708
18	0x3df65a1f	0.12028908
19	0xbde26ef0	-0.11056316
20	0x3f1bf3c5	0.6091884
21	0x3d8f94fe	0.0701084
22	0x3e17ee0c	0.14836901
23	0x3ff2ce08	1.8969126
24	0xba85b3a4	-0.0010200632
25	0xbd541869	-0.05178109
26	0xbbbf6740	-0.005841166
27	0xbe28c2f1	-0.16480614
28	0xbdcdb4bc	-0.10044238
29	0x3e407b0a	0.18796936
30	0x3f866b06	1.0501411
31	0x3f1e917b	0.61940736
32	0x3f6347db	0.8878152
33	0x3f8eb935	1.1150271
34	0x3f3f92d7	0.74833435
35	0x3f769d76	0.96334016
36	0x3f82c590	1.0216541
37	0x3dbe3d9c	0.09289095
38	0x3f0d2e57	0.55148834
39	0xbde40996	-0.11134641
40	0x3c201920	0.009771615
41	0xbe89126e	-0.26771873
42	0x3f44d14d	0.7688187
43	0x3f6687f9	0.9005123
44	0x3ed1ce53	0.40977725
45	0x3f60cd5c	0.87813354
46	0x3d9aa53c	0.07551047
47	0xbdac45c2	-0.08411743
48	0x3f2c239c	0.67241836
49	0x3e27d2e4	0.16389042
50	0x3c104a18	0.008806728
51	0xbce60858	-0.02808015
52	0x3d22c020	0.039734006
53	0x3b8fecc0	0.0043922365
54	0x3f01618a	0.5053946
55	0x3f9100ab	1.1328329
56	0x3dc6b8cc	0.09703216
57	0x3f4d650e	0.8023232
58	0x3f2fbd10	0.6864786
59	0x3ecb1fa2	0.3967257
60	0x3f8b6884	1.0891271
61	0x3f2112b9	0.62919194
62	0x3d773070	0.060348928
63	0xbda89528	-0.08231574
64	0xbd67fedc	-0.056639537
65	0x3d6074c4	0.054798856
66	0x3db017bf	0.08598279
67	0xbda20582	-0.07911207
68	0xbc8834b0	-0.016626686
69	0x3e03d083	0.1287251
70	0xbce447a0	-0.027866185
71	0xbdfdcc0c	-0.123924345
72	0x3dd28e1c	0.102810115
73	0xbd651db0	-0.055936515
74	0xbc3531b0	-0.01105921
75	0x3d9ec228	0.07751876
76	0xbdf04feb	-0.11733993
77	0x3d2f78a4	0.04283966
78	0xbdd239f6	-0.102649614
79	0x3f13a39e	0.57671535
80	0x3ce217b0	0.027599186
81	0xbdc87bd1	-0.09789241
82	0x3e804193	0.2505003
83	0x3d9f8110	0.077882886
84	0x3f05a58a	0.5220572
85	0x3c5e0710	0.0135514885
86	0x3eb1f965	0.34760585
87	0x3f3f073e	0.74620426
88	0x3d3b0c99	0.04566631
89	0x3df22085	0.11822609
90	0xbdd04488	-0.10169321
91	0x3df9bbb8	0.12194008
92	0xbdab1afe	-0.08354758
93	0xbd1d4ded	-0.038404394
94	0xbe0f7287	-0.14008532
95	0x3d3b834f	0.045779523
96	0x3d3a4476	0.045475446
97	0xbe726ad2	-0.23673561
98	0x3f2f3622	0.68441975
99	0x3f11e0e8	0.56983805
100	0x3eeb0924	0.4590541
101	0xbddc201c	-0.10748312
102	0x3e07d407	0.13264476
103	0x3d1d3c75	0.038387734
104	0xbdad28aa	-0.08455022
105	0xbc7d87ac	-0.015474241
106	0xbd31a60c	-0.043371245
107	0x3d9e0bbd	0.07717083
108	0xbcbd50e7	-0.023109866
109	0x3f185392	0.5950252
110	0xbdad4020	-0.084594965
111	0xbdbb49ca	-0.091449335
112	0x3f1540a5	0.58301765
113	0x3d195ea5	0.037443776
114	0xbe3597c1	-0.17733671
115	0x3cc26f08	0.023734584
116	0x3d5b5fbc	0.053558096
117	0x3c44e270	0.0120168775
118	0x3d1fc996	0.039010607
119	0x3f143407	0.5789189
120	0x3bf700a0	0.0075379163
121	0xbce0e489	-0.027452724
122	0xbd03b922	-0.03215898
123	0x3ea5aa46	0.3235647
124	0x3f001866	0.5003723
125	0x3d2d48da	0.042305805
126	0xbd84a7ae	-0.06477295
127	0x3ce93370	0.02846691
128	0x3e6160cd	0.22009583
129	0xbdb66ffe	-0.089080796
130	0x3e3442c9	0.17603602
131	0xbd5e13b4	-0.05421801
132	0x3bf3f560	0.0074450225
133	0x3d80d93f	0.062914364
134	0xbc463de0	-0.012099713
135	0xbc837548	-0.016047135
136	0x3be238c0	0.006903738
137	0x3de81ab0	0.11333215
138	0xbda89bb8	-0.08232826
139	0xbd97c2b4	-0.074101835
140	0x3e9ba7b5	0.30401388
141	0x3c523c20	0.012831718
142	0x3d168b88	0.03675416
143	0x3b90e58d	0.004421896
144	0x3dae8de2	0.08523156
145	0x3e628699	0.22121657
146	0x3deb29bf	0.11482572
147	0x3da4672a	0.080274895
148	0xbd5d12c5	-0.05397298
149	0xbd929b6e	-0.07158552
150	0x3ce5d385	0.028054962
151	0xbde106ff	-0.109876625
152	0x3e16fc0e	0.14744589
153	0x3e10ac62	0.14128259
154	0x3d080c60	0.033214927
155	0x3ea381ba	0.3193491
156	0x3d152628	0.03641334
157	0x3ec2407c	0.37939823
158	0x3e33602a	0.17517152
159	0x3e95728f	0.29188964
160	0x3e80f2f3	0.25185356
161	0x3e7a0c2b	0.24418704
162	0xbd48f2e6	-0.04905977
163	0xbdab1295	-0.083531536
164	0x3cae4465	0.021272847
165	0x3dd3c866	0.10340957
166	0x3eb838d1	0.35980847
167	0x3e321f6f	0.17394803
168	0x3d02cec8	0.031935483
169	0x3eb35f4b	0.3503364
170	0x3ecf08b4	0.40436327
171	0x3ec9e145	0.3942968
172	0x3ed95f6f	0.42455623
173	0x3c0f361d	0.008740929
174	0x3dda2b7e	0.10652827
175	0xbccabca8	-0.024748161
176	0xbcffa168	-0.031204894
177	0x3e19b1d5	0.15009244
178	0x3eb262db	0.34841046
179	0x3b5d3540	0.0033753663
180	0x3daad040	0.08340502
181	0x3d3cd6c8	0.04610327
182	0x3ec3c19c	0.3823365
183	0xbda26db5	-0.07931081
184	0x3c5113b0	0.0127610415
185	0x3e89fba1	0.2694979
186	0x3e93ac2b	0.2884229
187	0x3dc00ea1	0.0937779
188	0xbd42754f	-0.047475155
189	0x3e060c36	0.13090596
190	0x3c54f350	0.012997463
191	0x3dc3bcc2	0.09557487
192	0x3d3771db	0.044786315
193	0xbc900ea0	-0.017585099
194	0x3e1bf170	0.1522882
195	0xbc718050	-0.014740065
196	0xbcd46670	-0.025927752
197	0x3e220fad	0.15826292
198	0xbcfd7ab8	-0.030942306
199	0xbbc62480	-0.0060468316
200	0xbdba1b26	-0.090872094
201	0x3d2be9ec	0.041971132
202	0xbdc6462a	-0.096813515
203	0x3c966240	0.018357396
204	0x3ebd9cb3	0.37033615
205	0xbd87aed6	-0.06625144
206	0xbdf4a746	-0.119459674
207	0xbde7f22f	-0.1132549
208	0xbdc6b7f0	-0.09703052
209	0x3de62239	0.11236996
210	0x3dafd0de	0.0858476
211	0x3df688fe	0.12037848
212	0x3c6ae245	0.014336173
213	0x3da294d0	0.0793854
214	0x3d90db99	0.07073135
215	0xbe9e9e4f	-0.30980155
216	0x3e250c56	0.16117987
217	0x3e28093c	0.16409773
218	0xbd603230	-0.054735363
219	0x3d43796e	0.047723226
220	0xbda21fc0	-0.07916212
221	0x3e914d7f	0.28379437
222	0x3ded9934	0.11601487
223	0x3d5a0a2e	0.053232364
224	0x3ddad1cc	0.10684547
225	0x3e84c205	0.25929275
226	0xbce7d0d0	-0.028297812
227	0xbe09f480	-0.13472176
228	0xbd712f7c	-0.058883175
229	0xbd620d7c	-0.05518864
230	0x3da953d0	0.08267939
231	0x3d949d43	0.07256558
232	0x3c8ef9c0	0.017453074
233	0x3e29ad3e	0.16569993
234	0x3ea12b8e	0.31478542
235	0x3e5d04a0	0.21583796
236	0x3e3ca6bb	0.18422978
237	0x39e6b382	0.00044002762
238	0xbdb2f0fa	-0.08737369
239	0xbd29b6a4	-0.041433945
240	0xbdb8942f	-0.09012639
241	0x3df40082	0.11914159
242	0x3eac39d2	0.33637863
243	0xbd94ccc0	-0.072656155
244	0xbd9640fa	-0.07336612
245	0x3c0380a0	0.008026272
246	0x3e2e5116	0.1702312
247	0xbcc0b3e4	-0.023523279
248	0xbccc3d68	-0.024931625
249	0x3d8df6d7	0.069318466
250	0x3db0e6e0	0.08637786
251	0x3dc912d6	0.09818046
252	0xbdfbc64f	-0.12293684
253	0x3e0d843a	0.13819972
254	0x3d332230	0.043733776
255	0x3d4c3524	0.049855366

net.3.bias f4 [64]
0	0x3de70858	0.11280888
1	0x3dc99979	0.09843726
2	0x3dd680e6	0.10473804
3	0x3e5e2ae6	0.21696052
4	0x3e0dbc55	0.13841374
5	0x3e206668	0.15664065
6	0x3e0845e5	0.13307913
7	0x3e309f2a	0.17248216
8	0x3d64c15f	0.055848476
9	0x3db784f7	0.08960908
10	0x3e8a1929	0.2697232
11	0x3ea48544	0.32132924
12	0x3e52d371	0.20588471
13	0x3e3dd8a4	0.18539673
14	0x3db83280	0.08994007
15	0x3d6e99d3	0.058252167
16	0x3e40fd8a	0.18846717
17	0x3d0927cf	0.03348523
18	0x3cea85c7	0.028628243
19	0x3d92d979	0.07170386
20	0x3d9756c0	0.07389593
21	0x3dcf2585	0.10114578
22	0x3e198bd6	0.1499475
23	0x3ec02d36	0.37534493
24	0x3d906733	0.07050934
25	0x3e70886f	0.23489545
26	0x3d8abb5a	0.06774016
27	0x3d9b9f7d	0.07598779
28	0x3e7c5c41	0.24644567
29	0x3dedbf8e	0.11608802
30	0xbcfc8589	-0.030825393
31	0x3e93b912	0.28852135
32	0x3e4b8253	0.19873933
33	0x3d57c05b	0.05267368
34	0xbb2524ce	-0.002519894
35	0x3e86aa26	0.26301688
36	0x3dd834d0	0.10556948
37	0x3e03ef81	0.12884332
38	0x3e8b737e	0.2723655
39	0x3dbb0028	0.09130889
40	0x3e121e80	0.14269447
41	0x3d01063e	0.031500094
42	0x3e130cd8	0.14360368
43	0x3e1f40a1	0.15551998
44	0x3e43e0b4	0.19128686
45	0x3e381e70	0.17980361
46	0x3e13a15e	0.14417025
47	0x3e75398f	0.23947738
48	0x3e870a99	0.26375273
49	0x3e4cf613	0.20015745
50	0x3da45509	0.08024032
51	0x3cce14c4	0.025156386
52	0x3e8ce5a3	0.2751895
53	0x3e0131f9	0.1261672
54	0x3e37a56e	0.179342
55	0xbd2c5980	-0.04207754
56	0x3de91e39	0.11382718
57	0x3e4570a8	0.19281256
58	0x3e8c84d0	0.27445078
59	0x3e551664	0.20809323
60	0x3e473b1d	0.19456144
61	0x3e1898d0	0.14902043
62	0x3deb92e9	0.1150263
63	0x3d9e1e80	0.07720661
