2_Party/shadow_model_data/shadow_plus_F_client2_bottom_inter.pt (torch, 21928 bytes, 4 tensors)

net.0.weight f4 [64, 10]
0	0x3e28441c	0.16432232
1	0x3e9067c7	0.28204176
2	0xbe455bfd	-0.19273372
3	0xbda22f8a	-0.079192236
4	0x3e72e927	0.23721753
5	0x3e86cf71	0.2633014
6	0xbad4277c	-0.0016186084
7	0xbe4df121	-0.20111515
8	0xbe283954	-0.16428119
9	0x3e1c1f3a	0.15246287
10	0x3e9e0830	0.30865622
11	0xbe992026	-0.2990734
12	0x3e649d7f	0.22325705
13	0xbdbdde43	-0.09270909
14	0xbdaacc15	-0.08339707
15	0x3cc0731a	0.023492385
16	0xbb8f8265	-0.004379558
17	0x3dbebf84	0.093138725
18	0xbe0cabc0	-0.13737392
19	0xbe5e7dde	-0.21727702
20	0x3f54303e	0.8288611
21	0x3f5f16c2	0.871441
22	0x3f537390	0.8259821
23	0xbf485543	-0.782551
24	0xbf879e9b	-1.0595278
25	0xbf8d4430	-1.1036434
26	0x3f5ca8f8	0.86195326
27	0x3f192105	0.5981601
28	0x3f0940ad	0.5361431
29	0x3e29a2d9	0.16566028
30	0x3f70e01d	0.9409197
31	0x3fa7875f	1.3088187
32	0x3fabb114	1.3413415
33	0xbf9a1d1c	-1.2040133
34	0xbf7d19aa	-0.98867285
35	0xbf8fa827	-1.1223191
36	0x3f032f75	0.5124429
37	0x3f280289	0.6562887
38	0x3ef4d568	0.47819066
39	0xbdd9dab7	-0.1063742
40	0x3f7425ba	0.95370066
41	0x3fa7502d	1.3071343
42	0x3f99c4c7	1.2013177
43	0xbfbe8bfb	-1.4886469
44	0xbfc847f0	-1.5646954
45	0xbf7b9ba3	-0.9828436
46	0xbc726e5e	-0.014796821
47	0x3e549e13	0.20763426
48	0x3edb7d3c	0.42868984
49	0x3d779bd1	0.060451332
50	0xbe9a3fac	-0.30126703
51	0xbc012b4e	-0.00788386
52	0xbe9536ef	-0.29143474
53	0xbdcfa06a	-0.101380184
54	0x3e99d1f7	0.30043003
55	0x3d2f0076	0.04272505
56	0xbdc23415	-0.0948259
57	0xbe946335	-0.2898194
58	0xbe8a0fea	-0.26965266
59	0x3d14e1b5	0.036348063
60	0xbf97826b	-1.1836675
61	0xbf6d4e86	-0.9269794
62	0xbf5a9a72	-0.85391915
63	0xbf561df9	-0.83639485
64	0xbe924288	-0.28566384
65	0xbeb75b4f	-0.3581185
66	0xbf780637	-0.96884483
67	0xbf08420f	-0.532258
68	0xbec3b723	-0.3822566
69	0x3f38963a	0.7210423
70	0x3f70e0dd	0.94093114
71	0x3f9f42dc	1.2442279
72	0x3fa4dcbc	1.2879863
73	0xbed10db2	-0.4083076
74	0x3b35d541	0.0027745517
75	0xbe4b4547	-0.19850646
76	0x3f0a9acf	0.5414247
77	0x3f47c708	0.7803807
78	0x3f1aa572	0.604087
79	0xbfdb3000	-1.7124023
80	0x3ed15782	0.40887076
81	0xbd129300	-0.03578472
82	0x3ea2b4f0	0.3177867
83	0x3f85cc88	1.0453043
84	0x3f855347	1.0416039
85	0x3f189985	0.5960925
86	0xbee82d2e	-0.4534697
87	0xbe657dd7	-0.22411285
88	0xbebe764d	-0.3719963
89	0x3d2194dd	0.039448608
90	0xbf40459f	-0.75106233
91	0xbf526cb0	-0.82197094
92	0xbf85e962	-1.0461848
93	0xbee8ac38	-0.45443892
94	0xbecc5da9	-0.39915207
95	0xbe875123	-0.2642909
96	0xbe0d3558	-0.1378988
97	0xbcc30d4a	-0.023810048
98	0xbecbb4f7	-0.39786503
99	0x3ea90838	0.33014083
100	0xbf0be382	-0.54644024
101	0xbe919d3b	-0.2844027
102	0xbec7fe35	-0.39061132
103	0x3f5cc311	0.8623515
104	0x3efe15a7	0.49625894
105	0x3f6b50c8	0.9192014
106	0x3d474692	0.048651285
107	0xbe412e60	-0.18865347
108	0xbdfa7207	-0.1222878
109	0xbde73761	-0.112898596
110	0xbdd18bb1	-0.10231722
111	0x3e926c9f	0.28598496
112	0x3e6fdac1	0.23423292
113	0x3e92df09	0.28685787
114	0x3ddef6bc	0.108869046
115	0x3d86a2c0	0.06574011
116	0x3e73e4ca	0.23817745
117	0xbd607907	-0.05480292
118	0x3e8ed224	0.278947
119	0xbe6dc040	-0.23217869
120	0x3e6cacd1	0.23112799
121	0xbe8aa2c0	-0.27077293
122	0xbd7fd3b8	-0.06245777
123	0xbe714dca	-0.2356483
124	0x3e3bc0f6	0.18335328
125	0x3e5180a5	0.2045923
126	0x3e552a91	0.20817019
127	0xbd63a292	-0.05557496
128	0xbe8adef8	-0.27123237
129	0x3e82fbb1	0.2558265
130	0x3fb122c3	1.3838733
131	0x3f82b728	1.0212145
132	0x3f9becd9	1.2181655
133	0x3e027dfc	0.12743372
134	0x3dec2a6e	0.1153153
135	0xbeb296ad	-0.34880581
136	0x3e8b46a3	0.2720233
137	0x3f02138d	0.5081108
138	0x3f2baa96	0.6705717
139	0xbf93329e	-1.1499822
140	0x3fbd5954	1.4792886
141	0x3ff65c17	1.9246854
142	0x3fe24450	1.7677097
143	0xbdb8efde	-0.09030126
144	0xbf05f425	-0.5232566
145	0xbe04e318	-0.12977254
146	0x3f5f3aec	0.8719928
147	0x3f63f20c	0.8904121
148	0x3f93f2f0	1.1558514
149	0xc00c1740	-2.188919
150	0xbf9cb716	-1.2243373
151	0xbf988a8b	-1.191728
152	0xbf767b21	-0.9628163
153	0xbeaa1db8	-0.332258
154	0xbe9acd93	-0.30234966
155	0xbe7c6a51	-0.24649931
156	0xbeeb4633	-0.45951995
157	0xbec916aa	-0.39275104
158	0xbe57f49f	-0.2108941
159	0x3f1b6734	0.6070435
160	0xbe806fd2	-0.25085312
161	0xbe9abcca	-0.3022216
162	0xbe2a84df	-0.16652249
163	0x3e35d7b6	0.17758068
164	0xbe2a4e09	-0.1663133
165	0xbc86195f	-0.01636952
166	0x3e71a7fe	0.2359924
167	0x3d69ff94	0.057128504
168	0x3dd45efc	0.10369679
169	0x3e205bb6	0.15659985
170	0x3cfc2663	0.030780023
171	0x3e783e2b	0.24242465
172	0xbd7fee99	-0.062483404
173	0x3e2ab48d	0.16670437
174	0x3e1064d2	0.1410096
175	0xbe4c6716	-0.19961199
176	0x3b67e2e9	0.0035383052
177	0x3e7745a2	0.24147657
178	0x3d684a65	0.056711573
179	0x3e9083fa	0.2822569
180	0x3de871f5	0.113498606
181	0x3e6e2d49	0.23259462
182	0xbe8cfe5e	-0.27537817
183	0xbe3a9565	-0.18221052
184	0x3d138bb2	0.036021896
185	0x3d2f2504	0.04275991
186	0xbe906d70	-0.28208494
187	0x3dd01188	0.10159594
188	0x3ea0a97e	0.31379312
189	0xbdd59d88	-0.10430437
190	0xbce3c149	-0.027802126
191	0xbe09aac4	-0.13444048
192	0x3e3948df	0.18094204
193	0xbd3614d8	-0.044453472
194	0x3e6d92e4	0.23200566
195	0x388d099f	6.725196e-05
196	0x3e13393b	0.143773
197	0xbd9337a1	-0.07188345
198	0xbdb89d5e	-0.090143904
199	0x3ce2b914	0.027676143
200	0x3e122099	0.14270248
201	0xbe92065b	-0.28520474
202	0xbcb31190	-0.02185896
203	0x3d791c82	0.060818203
204	0x3e94fb59	0.29098013
205	0xbe8bfbee	-0.27340645
206	0xbe240940	-0.16019154
207	0x3e20454c	0.15651435
208	0xbb8bd3b8	-0.004267182
209	0x3e7c0bc1	0.24613859
210	0xbe51e0de	-0.20495936
211	0x3e1e5085	0.15460403
212	0x3e3d0cf1	0.18461968
213	0xbddbd20e	-0.10733424
214	0x3b4f4c14	0.003163104
215	0x3e8115cd	0.25211945
216	0xbdec757c	-0.11545846
217	0xbcfdd87d	-0.030987019
218	0xbd08f82a	-0.033439793
219	0xbe1912a6	-0.1494852
220	0x3fdb4399	1.7130004
221	0x3fbae70e	1.4601762
222	0x3fb3d6fa	1.4049981
223	0xbecde055	-0.40210214
224	0xbe1afd04	-0.1513558
225	0xbe24bc21	-0.1608739
226	0x3f8ed971	1.1160108
227	0x3f1a6341	0.603077
228	0x3f373117	0.7155928
229	0xbf91edae	-1.1400659
230	0x3ea176eb	0.3153604
231	0x3f3ea60a	0.74472106
232	0x3f1835a9	0.5945688
233	0x3f462871	0.7740546
234	0x3f6828af	0.9068708
235	0x3f7ad9fd	0.97988874
236	0xbe9c6a91	-0.30550054
237	0xbe5fbb81	-0.21848871
238	0xbf252b2c	-0.64519
239	0xbe1e71f6	-0.1547316
240	0x3e1c293d	0.15250106
241	0x3ce35bc7	0.027753724
242	0xbe5ffc0c	-0.21873492
243	0x3e8f10c6	0.27942485
244	0xbc140d7b	-0.009036417
245	0x3e3de37e	0.18543813
246	0x3e2910ee	0.16510364
247	0x3dd6dfc8	0.10491902
248	0xbe04c6c0	-0.12966442
249	0x3b5b1628	0.0033429954
250	0xbde08c47	-0.10964256
251	0x3d19ea42	0.03757692
252	0xbde7c631	-0.11317099
253	0xbe8e4e16	-0.2779395
254	0x3dd475b1	0.1037401
255	0x3e8c86e5	0.27446666

net.0.bias f4 [64]
0	0xbe9e66a9	-0.30937698
1	0xbe95c8d7	-0.2925479
2	0x3d89d2c7	0.06729656
3	0x3d5f0fd5	0.054458458
4	0x3d02378f	0.031791266
5	0xbe949eb6	-0.29027337
6	0xbcb47bca	-0.022031683
7	0xbd2998c5	-0.041405458
8	0x3c9a90d9	0.018867897
9	0xbccef3e4	-0.02526278
10	0x3cdce1d4	0.026963152
11	0xbe52a3bb	-0.2057027
12	0xbdfe2f28	-0.12411338
13	0xbd3cc398	-0.04608497
14	0xbd27e94a	-0.040993966
15	0xbd5798de	-0.05263602
16	0xbe4e3b3e	-0.20139787
17	0xbe921ce3	-0.28537664
18	0xbcf46aee	-0.029836144
19	0xbe79f06b	-0.24408118
20	0xbe9ac850	-0.3023095
21	0xbd46b0b9	-0.04850838
22	0xbda0e537	-0.07856219
23	0xbb2084a0	-0.0024493113
24	0xbe2f20c2	-0.1710234
25	0xbd8fa98c	-0.070147604
26	0xbcf8e29b	-0.030381491
27	0xbd38e3c2	-0.04513908
28	0xbd8432fb	-0.06455036
29	0xbd59e793	-0.053199362
30	0xbe0002c6	-0.12501058
31	0xbbcdc07f	-0.006279051
32	0xbe82a28c	-0.25514638
33	0x3d99fe11	0.075191624
34	0xbe5b1f08	-0.21398556
35	0xbe8610cb	-0.26184687
36	0xbd22b22b	-0.039720695
37	0xbe070301	-0.1318474
38	0xbda2e314	-0.07953468
39	0xbbe737f1	-0.0070562293
40	0xbdac1e77	-0.08404248
41	0xbe6b83c7	-0.22999488
42	0xbd8303ed	-0.06397233
43	0xbe2c28da	-0.16812459
44	0xbe64eb91	-0.22355486
45	0x3cb1c540	0.021700501
46	0xbe8a2148	-0.26978517
47	0xbd246768	-0.04013768
48	0xbe801e63	-0.25023183
49	0x3c041406	0.008061415
50	0xbe45c62b	-0.19313876
51	0xbe70a73a	-0.23501292
52	0x3d264176	0.040589772
53	0xbd6e61e4	-0.058198825
54	0x3d662120	0.056183934
55	0x3c077530	0.008267686
56	0xbcfee828	-0.03111656
57	0xbcda4c29	-0.026647644
58	0xbea0da8c	-0.31416738
59	0xbd18b75f	-0.03728425
60	0xbd318f40	-0.043349504
61	0xbdb5966e	-0.08866583
62	0xbd70fd29	-0.058835182
63	0x3d8ba5b9	0.068187185

net.3.weight f4 [64, 64]
0	0xbda357ba	-0.07975717
1	0xbde82acc	-0.11336288
2	0x3e2b3978	0.16721141
3	0x3df1170d	0.11771975
4	0x3e3557b2	0.17709234
5	0x3dcbf9c2	0.09959747
6	0xbecddb90	-0.40206575
7	0x3f4e9e12	0.80709946
8	0x3d97ef0c	0.074186414
9	0xbf43a203	-0.76419085
10	0x3e7b6039	0.24548425
11	0x3ce4cc48	0.02792944
12	0x3d8d2e28	0.06893569
13	0x3f5b764e	0.85727394
14	0x3eb1aefd	0.34703818
15	0xbf423cec	-0.7587421
16	0xbda91fcc	-0.08258018
17	0x3c90e048	0.01768507
18	0xbdcb34a7	-0.09922152
19	0xbd0f81a8	-0.03503576
20	0xbdb2d4e4	-0.08732012
21	0xbda7dc6a	-0.081963375
22	0x3f616969	0.8805147
23	0x3e19b251	0.15009429
24	0xbd2db530	-0.042409122
25	0x3ce3ce08	0.027808204
26	0x3f6e99f5	0.9320367
27	0x3e9e9ef3	0.30980644
28	0x3f7a48f0	0.97767544
29	0x3f014a61	0.5050412
30	0x3d943524	0.07236698
31	0x3e46f91c	0.19430965
32	0xbc577250	-0.013149813
33	0x3dc9307b	0.098237
34	0xbd0ff3d4	-0.035144642
35	0x3d1e8cc0	0.03870845
36	0x3f554e41	0.8332253
37	0xbdb363f2	-0.087592974
38	0xbc786f00	-0.015163183
39	0x3e0dd9f2	0.13852671
40	0x3d4777bc	0.048698172
41	0xbd90d21c	-0.07071325
42	0x3d9cc300	0.07654381
43	0x3da15ab8	0.07878631
44	0xbdf3c222	-0.11902262
45	0x3e677260	0.22602224
46	0x3d88202c	0.06646761
47	0xbf477641	-0.77914816
48	0x3cd53940	0.026028275
49	0x3db979e6	0.090564534
50	0xbbf73760	-0.007544443
51	0x3da88de8	0.082301915
52	0x3de9819c	0.11401674
53	0xbf39ff54	-0.72655225
54	0x3e420654	0.18947726
55	0x3d8ac4df	0.067758314
56	0x3f17b336	0.5925783
57	0x3ee9813a	0.45606405
58	0x3d9e3684	0.07725242
59	0x3cc14ca4	0.023596115
60	0xbd337aac	-0.04381816
61	0x3d78d260	0.060747504
62	0x3e52bce2	0.20579866
63	0x3e6701ee	0.2255933
64	0xbdf1b0be	-0.11801289
65	0x3c5b04c0	0.013367832
66	0x3e8ee6b4	0.27910388
67	0x3efd2494	0.4944197
68	0x3f0d6d5c	0.55244994
69	0xbde602e0	-0.11231017
70	0x3ebeedf0	0.37290907
71	0x3ed3753b	0.41300377
72	0xbd86493a	-0.065569356
73	0x3e8a1c2f	0.26974627
74	0xbe7923b6	-0.24330029
75	0xbd9746e6	-0.0738657
76	0x3dfe5afa	0.12419696
77	0x3d9ea31a	0.07745953
78	0x3e9ee4b5	0.31033865
79	0x3e819310	0.25307512
80	0xbdd538aa	-0.104111984
81	0x3d5b0798	0.05347404
82	0xbd1e9a94	-0.038721636
83	0xbdd367f8	-0.10322565
84	0x3d86b378	0.065772
85	0xbdcf5d56	-0.10125224
86	0x3e92d549	0.2867835
87	0xbdea30ec	-0.11435112
88	0xbdabeb22	-0.083944574
89	0x3da3c77a	0.079970315
90	0x3e7a5fb9	0.24450578
91	0xbe124a9b	-0.14286272
92	0x3de6bdc2	0.11266662
93	0xbe955649	-0.29167393
94	0xbccba260	-0.0248577
95	0xbd5da556	-0.054112755
96	0x3dc02776	0.093825266
97	0x3e925822	0.28582865
98	0x3da8a50c	0.08234605
99	0xbc974210	-0.018464118
100	0x3eba77bd	0.36419478
101	0x3dbfe87a	0.09370513
102	0xbda2e342	-0.07953502
103	0xbdc3b347	-0.09555679
104	0x3d147614	0.03624542
105	0xbd082b20	-0.033244252
106	0x3d3a5ae0	0.04549682
107	0x3d3f8a00	0.046762466
108	0x3b7dd8c0	0.003873393
109	0xbd715dda	-0.058927394
110	0x3dcd95be	0.10038327
111	0x3e9e58b5	0.30927053
112	0xbbe18680	-0.0068824887
113	0x3f1f4210	0.6221018
114	0x3c373520	0.0111821
115	0x3d806d4a	0.06270845
116	0xbdf2f6de	-0.118634924
117	0x3e9dc444	0.308138
118	0x3ead4843	0.33844194
119	0xbd9f3e50	-0.07775557
120	0x3e2ef1e6	0.17084464
121	0x3e470d5b	0.19438688
122	0x3d90e5dc	0.07075092
123	0xbd9fe420	-0.07807183
124	0xbde80846	-0.11329703
125	0xbdbdd588	-0.092692435
126	0xbe096876	-0.13418755
127	0x3ecd00e9	0.40039757
128	0xbdddd51e	-0.108316645
129	0x3d016efc	0.031599984
130	0x3d4f29de	0.050577037
131	0x3e644e81	0.22295572
132	0x3ea6660f	0.3249974
133	0xbd6511e0	-0.05592525
134	0x3d9a6482	0.075387016
135	0x3f823156	1.0171306
136	0xbfd05843	-1.6276935
137	0x3ebdf1fa	0.37098676
138	0xc026ac53	-2.6042678
139	0xba7c6a00	-0.00096288323
140	0xbdc376da	-0.095441535
141	0x3f5a14c6	0.8518795
142	0x3f0dae77	0.5534434
143	0x3f0ca9fc	0.54946876
144	0x3c9f5e98	0.019454286
145	0x3dc8b874	0.09800807
146	0x3df44fb2	0.11929263
147	0x3dfcb7a0	0.12339711
148	0xbcacd970	-0.021099776
149	0xbcbc48e0	-0.022983968
150	0x3f8198cb	1.0124754
151	0xbf99613f	-1.1982802
152	0x3db4258a	0.087962225
153	0xbdf610fc	-0.12014958
154	0x3f6386f7	0.88877815
155	0xbea7a394	-0.32741988
156	0x3f64af82	0.89330304
157	0xbea110ea	-0.31458217
158	0x3d3b4538	0.04572031
159	0xbf8f8667	-1.1212891
160	0xbdcd9338	-0.100378454
161	0x3da6e21d	0.081485964
162	0x3c901980	0.017590284
163	0xbda7ed42	-0.0819955
164	0x3f753511	0.957841
165	0xbd12c63c	-0.035833582
166	0xbdc93924	-0.09825352
167	0xbfb08036	-1.3789127
168	0x3debcbfa	0.11513515
169	0xbd0e36a8	-0.034720093
170	0x3d82e734	0.06391755
171	0xbde81a0e	-0.113330945
172	0x3dfe22b4	0.12408963
173	0xbfb760f6	-1.4326465
174	0xbd585ca0	-0.05282271
175	0x3e52f2fe	0.20600507
176	0x3c8cd0d0	0.017189413
177	0x3ed4d4e2	0.41568667
178	0xbd901410	-0.070350766
179	0xbdbfcf40	-0.09365702
180	0xc0169e44	-2.3534098
181	0x3efb97c3	0.49139223
182	0x3e9b8be5	0.3038017
183	0xbfa9b9ce	-1.3259828
184	0x3f45d817	0.7728285
185	0x3ef33884	0.47504056
186	0x3c136c70	0.0089980215
187	0x3cf56a00	0.029957771
188	0x3dbde498	0.092721164
189	0x3ca59030	0.020210356
190	0xbf947d0f	-1.1600665
191	0x3c908e1a	0.017645884
192	0xbd754064	-0.05987586
193	0x3d0bf070	0.034164846
194	0x3e5de30c	0.21668643
195	0x3dfb7715	0.122785725
196	0x3e8c456b	0.27396712
197	0x3c9216c8	0.017833129
198	0xbeb792c8	-0.35854173
199	0x3f2d1bf5	0.67620784
200	0x3e89ddb5	0.26926962
201	0xbf382040	-0.7192421
202	0x3e3c480b	0.18386857
203	0x3d84f8fc	0.064928025
204	0x3ce1d5b8	0.02756773
205	0x3f338652	0.7012683
206	0x3ea767e3	0.32696447
207	0xbf257a1e	-0.6463946
208	0x3de6e6d0	0.11274493
209	0xbdee1e80	-0.11626911
210	0xbd9d45aa	-0.07679303
211	0xbdb71e02	-0.089412704
212	0xbdb6ad3e	-0.08919762
213	0xbdcc2fc2	-0.099700466
214	0x3f59a484	0.85016656
215	0x3e4ce41d	0.20008893
216	0xbd1e1e5c	-0.03860317
217	0xbdeaf3a2	-0.114722505
218	0x3f24ac45	0.6432536
219	0x3f0ba366	0.545462
220	0x3f69f375	0.9138711
221	0x3ebd5063	0.36975393
222	0xbae0ae00	-0.00171417
223	0x3ebf9e0b	0.37425265
224	0x3d78ff90	0.0607906
225	0x3e7635a5	0.24043901
226	0x3d95292a	0.07283242
227	0xbc593cb0	-0.013259098
228	0x3f3b9b8a	0.7328421
229	0xbd92a6dc	-0.07160732
230	0x3dc46cba	0.095910504
231	0x3e1bc156	0.1521047
232	0xbd48e4b8	-0.04904625
233	0xbdc36010	-0.09539807
234	0xbd17b3c0	-0.037036657
235	0x3d6cbb14	0.0577956
236	0x3def9d82	0.11699964
237	0x3d991687	0.07475
238	0xbcdf8a78	-0.027287707
239	0xbf21b4fd	-0.6316679
240	0x3d375d80	0.044766903
241	0x3e91a924	0.28449357
242	0xbdada25c	-0.08478233
243	0xbdc8ec40	-0.09810686
244	0x3d8a154d	0.06742344
245	0xbf0db478	-0.553535
246	0x3e52ac75	0.205736
247	0x3e35cbae	0.17753479
248	0x3f004626	0.5010704
249	0x3ee92978	0.4553945
250	0x3cae4d18	0.021276996
251	0x3d8d64ab	0.069039665
252	0x3de56804	0.1120148
253	0xbdf732b0	-0.12070215
254	0x3e7485f3	0.23879223
255	0x3dfecb12	0.12441076

net.3.bias f4 [64]
0	0xbc51eedf	-0.012813299
1	0x3e0c4244	0.13697153
2	0x3defc6e6	0.11707859
3	0xbd0f9eac	-0.03506343
4	0x3b936924	0.0044986177
5	0x3e5d7541	0.2162676
6	0xbdca9079	-0.09890837
7	0x3e8e14d4	0.27750266
8	0x3e36f44a	0.17866626
9	0x3d233534	0.03984566
10	0x3e7ce8ce	0.24698183
11	0x3e4742b7	0.19459043
12	0x3df432dd	0.11923764
13	0x3caa3494	0.020777024
14	0x3c112f6f	0.008861407
15	0x3e6d2157	0.2315725
16	0x3e829f6a	0.25512248
17	0x3e3bb2a6	0.18329868
18	0x3e4cb8b7	0.19992338
19	0x3cb06212	0.021531139
20	0x3d2a4a93	0.041575026
21	0x3e87d0bf	0.26526448
22	0x3e1d378c	0.1535322
23	0x3c91f435	0.017816642
24	0x3b2c3b2c	0.0026280386
25	0x3cf5ebf5	0.03001974
26	0x3e856f24	0.26061356
27	0x3dfd2641	0.12360812
28	0x3c933022	0.017967287
29	0x3d32da97	0.043665495
30	0x3cb6f4dc	0.022333555
31	0x3e0f9644	0.14022166
32	0x3ddfff25	0.10937337
33	0x3e5a8c62	0.21342614
34	0x3e2b5a8a	0.16733757
35	0x3c1091cc	0.008823823
36	0x3ebcfb06	0.36910266
37	0x3e0e76df	0.13912533
38	0x3edf05a7	0.43559
39	0x3ebb34a5	0.36563602
40	0x3e09f659	0.1347288
41	0x3db29090	0.08718979
42	0x3e5fd370	0.21858001
43	0x3e657b79	0.22410382
44	0x3e64529f	0.22297142
45	0x3e143c90	0.14476228
46	0x3d66c92d	0.0563442
47	0x3deb7a32	0.11497916
48	0x3e127977	0.14304148
49	0x3e03fd1b	0.12889521
50	0x3e80c6f8	0.251518
51	0x3d435020	0.047683835
52	0x3e8d24a0	0.27567005
53	0x3e315722	0.17318395
54	0x3dda86a5	0.10670213
55	0x3e8928d6	0.26788968
56	0x3e612ca6	0.21989688
57	0x3e3d0722	0.18459752
58	0x3de6d2f4	0.11270705
59	0x3e82e339	0.25563982
60	0x3e00f391	0.12592913
61	0x3ea4321e	0.32069486
62	0x3de766b4	0.11298886
63	0x3e103789	0.14083685
