2_Party/shadow_model_data/shadow_minus_F_client2_bottom.pt (torch, 20288 bytes, 4 tensors)

net.0.weight f4 [64, 4]
-0.8938219 -0.59718424 -0.3747485 0.55709 -1.1050246 0.74075735 0.81693244 0.053973846
-1.0004071 0.35411775 1.0243856 -0.85673106 -0.89526075 0.8094723 -0.12529679 -0.71766573
-1.0545201 0.85151166 0.83498055 -0.5308729 -0.647833 0.48000565 0.70008516 -0.5498048
0.9025242 0.059968807 -0.18593612 0.33205903 -0.8409563 0.2759425 0.19183668 -0.08297459
-0.96012896 0.30478603 0.32489666 0.102141485 1.180958 -0.56682956 -0.22261398 -0.13642041
-0.2330638 1.1401395 1.0525649 -2.0122619 -1.1274372 0.8655324 0.76690567 -0.16438137
0.80704886 -0.07079093 -0.06885181 0.07050055 -1.0217217 0.50303006 -0.33013183 0.14640817
-0.9235989 0.772895 0.40272877 -0.49094546 -0.87281466 0.10752286 0.37854132 0.23344688
-0.76888 0.80588686 1.0871881 -0.7893029 0.7075917 -0.24416499 0.008928142 -0.13033189
0.7890916 -0.064045385 -0.8118788 0.29936785 -0.62901044 -0.25259638 -0.51137626 1.0096567
-0.9890664 0.58865523 0.63246775 -0.6115692 -1.0648032 0.7635613 -0.030749438 -0.58326364
-0.7878476 -0.12562096 0.09291131 -0.6704878 -1.0747327 0.10609089 -0.28439504 0.005144299
-0.9375361 0.18123233 -0.28436443 -0.02941973 -1.1739281 0.50569355 0.84983677 -0.3370422
-1.2093786 0.021079311 0.4613272 -0.46003994 0.9042931 -0.5828852 -0.43779722 -0.16431335
-1.0282992 0.74228776 0.12698941 -0.6116923 -0.9602947 0.6891208 0.043036357 0.15326871
0.53921664 -0.09424529 -0.080203176 0.091106884 0.8373746 -0.64409304 -0.8042698 0.17258711
-0.6599091 0.5963268 0.7996614 -0.5848087 -1.1547396 0.19490373 0.30656454 -0.7317897
-1.1031225 -0.1758475 0.21218221 -0.6388843 0.83515877 -0.11643628 -0.09696973 0.42411062
0.9853111 -0.6447731 0.12944803 0.3987513 -1.072714 -0.3248098 -0.35138145 0.21980995
0.40063596 1.2239392 0.95334244 -3.255223 0.76718605 -0.6725959 -0.57381994 0.9143425
1.0807502 -0.668261 0.104683466 -0.040921364 -0.27760774 1.7054158 1.6147295 -1.873661
-1.1131752 0.030533781 0.70629996 -0.93712276 -0.9678175 -0.17385985 0.12884425 0.08675425
-0.8782942 0.8450483 0.93140006 -0.986287 0.7451396 -0.3304687 -0.5076261 0.65721554
1.1255283 -0.38205102 -0.2900408 0.48667264 0.81122535 0.11184771 -0.2180527 0.41910687
1.1630259 -0.43646136 -0.59674084 0.1214291 -0.52437097 1.0221018 0.37308598 -1.2583275
-1.0268308 0.040289328 0.14581981 -0.6059819 1.090626 -0.393828 -0.25525215 0.6208016
-1.1458979 0.67485046 0.46058792 -0.73169494 -0.9136704 0.57030064 0.17269544 -0.3615286
0.12847318 -0.87751067 -0.6017327 2.289127 -1.149193 0.8168667 0.7549631 -0.71181595
-1.1059701 -0.11139248 0.42617646 -0.32691753 -1.1405984 0.07583381 0.03256657 0.21986867
-0.83295155 0.5094531 0.03295079 0.014804086 -0.84479254 0.15387855 0.08242641 0.013913268
0.72748107 -0.5487258 0.1705546 -0.3434602 0.7504237 0.12988597 0.3085842 -0.25880238
1.0264791 -0.22115326 -0.6251641 0.41636437 0.8714115 0.22640847 -0.014101999 -0.41483322
00000000: 83d1 64bf 11e1 18bf 09df bfbe 739d 0e3f
00000010: 7271 8dbf 46a2 3d3f 7c22 513f ae13 5d3d
00000020: 570d 80bf ec4e b53e 111f 833f ba52 5bbf
00000030: cf2f 65bf 9439 4f3f cd4d 00be f1b8 37bf
00000040: 84fa 86bf abfc 593f 49c1 553f 49e7 07bf
00000050: 62d8 25bf 4dc3 f53e c838 333f 02c0 0cbf
00000060: d30b 673f daa1 753d 0a66 3ebe a403 aa3e
00000070: e948 57bf 5648 8d3e d670 443e 95ee a9bd
00000080: 03cb 75bf ea0c 9c3e db58 a63e 8e2f d13d
00000090: a229 973f be1b 11bf ebf4 63be cbb1 0bbe
000000a0: 47a8 6ebe 17f0 913f 72ba 863f e6c8 00c0
000000b0: dd4f 90bf 8893 5d3f ee53 443f 9753 28be
000000c0: c19a 4e3f d6fa 90bd 2e02 8dbd 9862 903d
000000d0: c7c7 82bf 94c6 003f 0a07 a9be 06ec 153e
000000e0: fa70 6cbf 72dc 453f 7732 ce3e 345d fbbe
000000f0: c870 5fbf f234 dc3d 2bd0 c13e b30c 6f3e
00000100: 52d5 44bf 9a4e 4e3f fb28 8b3f c10f 4abf
00000110: bb24 353f 6306 7abe 5747 123c b975 05be
00000120: e801 4a3f 3a2a 83bd 4ad7 4fbf be46 993e
00000130: d406 21bf 5054 81be 8ee9 02bf 6e3c 813f
00000140: 7533 7dbf 1cb2 163f 68e9 213f cd8f 1cbf
00000150: 794b 88bf c178 433f 3fe6 fbbc c450 15bf
00000160: 61b0 49bf c8a2 00be 4948 be3d 17a5 2bbf
00000170: d790 89bf 2e46 d93d 3a9c 91be 8291 a83b
00000180: 5e02 70bf f894 393e 3798 91be a501 f1bc
00000190: 4743 96bf 2275 013f e78e 593f cc90 acbe
000001a0: ebcc 9abf 85ae ac3c 1433 ec3e 5b8a ebbe
000001b0: c17f 673f f737 15bf f526 e0be c241 28be
000001c0: 4f9f 83bf 9206 3e3f 8309 023e de97 1cbf
000001d0: e0d5 75bf 396a 303f e446 303d 79f2 1c3e
000001e0: 1a0a 0a3f ad03 c1bd 9041 a4bd 3f96 ba3d
000001f0: 2f5e 563f 48e3 24bf a0e4 4dbf adba 303e
00000200: ceef 28bf e0a8 183f 9cb6 4c3f 06b6 15bf
00000210: 82ce 93bf d894 473e 07f6 9c3e 9256 3bbf
00000220: 1e33 8dbf 5e11 34be 4b46 593e ec8d 23bf
00000230: f7cc 553f 2576 eebd 1198 c6bd 0725 d93e
00000240: 593d 7c3f da0f 25bf 068e 043e 2129 cc3e
00000250: b14e 89bf 784d a6be 45e8 b3be dc15 613e
00000260: 2820 cd3e 0aaa 9c3f 400e 743f 9355 50c0
00000270: 4e66 443f 3f2f 2cbf dde5 12bf 5a12 6a3f
00000280: 0656 8a3f 2713 2bbf 4964 d63d 299d 27bd
00000290: 9a22 8ebe 114b da3f 75af ce3f 20d4 efbf
000002a0: 867c 8ebf fb21 fa3c 13d0 343f 47e7 6fbf
000002b0: e3c2 77bf 5108 32be bfef 033e 36ac b13d
000002c0: e4d7 60bf 1655 583f 3c70 6e3f 4e7d 7cbf
000002d0: 78c1 3e3f 3233 a9be c9f3 01bf 473f 283f
000002e0: 5011 903f 319c c3be 3a80 94be 282d f93e
000002f0: 77ac 4f3f 6a10 e53d 3549 5fbe 2d95 d63e
00000300: 08de 943f dd77 dfbe 02c4 18bf d2af f83d
00000310: 2d3d 06bf 3bd4 823f 2005 bf3e e010 a1bf
00000320: 316f 83bf 6c06 253d ca51 153e a121 1bbf
00000330: a299 8b3f d3a3 c9be 69b0 82be dbec 1e3f
00000340: c8ac 92bf 00c3 2c3f 2ed2 eb3e 5c50 3bbf
00000350: 4ee6 69bf 39ff 113f 13d7 303e 471a b9be
00000360: 798e 033e 8aa4 60bf 270b 1abf 0f81 1240
00000370: c218 93bf 2d1e 513f 4345 413f 9239 36bf
00000380: 6e90 8dbf be21 e4bd cd33 da3e bc61 a7be
00000390: 21ff 91bf c24e 9b3d 8664 053d 4125 613e
000003a0: 503c 55bf 856b 023f 68f7 063d d68c 723c
000003b0: 5344 58bf 5792 1d3e 2dcf a83d 7af4 633c
000003c0: 333c 3a3f 4b79 0cbf dda5 2e3e 04da afbe
000003d0: c51b 403f d400 053e c0fe 9d3e bf81 84be
000003e0: ab63 833f 0076 62be c10a 20bf b62d d53e
000003f0: d314 5f3f 9fd7 673e 120c 67bc 0565 d4be

net.0.bias f4 [64]
-0.19559711 -0.13389857 -0.4158134 -0.47267005 0.40032187 0.41861564 0.30551922 0.4203334
0.2098524 -0.28953135 0.39439502 0.06009888 0.14068006 -0.40697956 -0.09186203 0.26426953
0.16946954 -0.42817152 0.44445872 -0.458374 -0.3615077 0.11837066 0.025570571 0.3401277
0.3354034 -0.037280496 -0.12168653 -0.38884008 -0.14156833 -0.3077048 0.42246953 0.28053087
0.24474426 0.051719215 -0.25766915 -0.4496046 0.18875958 -0.450968 -0.2512946 -0.09457102
0.117912054 0.2581099 -0.22036856 -0.26632735 0.14816138 -0.2585474 -0.240495 -0.38882342
-0.31958494 0.19440566 -0.019670492 -0.24282762 -0.3537032 0.3554363 0.42940587 -0.31105077
0.0035748724 -0.46258068 0.38577536 0.23093784 0.1262367 -0.343048 0.23605944 -0.1056639
00000000: 9c4a 48be b51c 09be 7ee5 d4be cf01 f2be
00000010: fdf6 cc3e ca54 d63e 046d 9c3e f035 d73e
00000020: 8ce3 563e 743d 94be 25ee c93e 3e2a 763d
00000030: 6f0e 103e a05f d0be 2922 bcbd 564e 873e
00000040: 6c89 2d3e 4c39 dbbe 1890 e33e ffaf eabe
00000050: 8a17 b9be 516c f23d 6079 d13c 3825 ae3e
00000060: ffb9 ab3e 6fb3 18bd ca36 f9bd 0c16 c7be
00000070: 4af7 10be 7c8b 9dbe ed4d d83e bea1 8f3e
00000080: 3d9e 7a3e 87d7 533d 36ed 83be 9332 e6be
00000090: 314a 413e 47e5 e6be b0a9 80be 73ae c1bd
000000a0: e07b f13d fb26 843e 4ca8 61be 0f5c 88be
000000b0: 9eb7 173e 5360 84be 5244 76be dd13 c7be
000000c0: a3a0 a3be 4712 473e 0324 a1bc cea7 78be
000000d0: 9618 b5be bffb b53e 16db db3e 0c42 9fbe
000000e0: 6848 6a3b 60d7 ecbe 5984 c53e f87a 6c3e
000000f0: 3244 013e fda3 afbe 91b9 713e 5166 d8bd

net.1.weight f4 [64, 64]
-0.0035219658 -0.06511285 -0.12324566 0.065438524 -0.0058580027 0.002857965 0.11538147 -0.17806952
-0.017798427 0.20654228 -0.115992695 -0.12755364 0.07811023 -0.03289597 -0.05848936 -0.022861812
-0.14801335 0.17471105 -0.093374066 -0.076292716 -0.022267604 -0.11320033 -0.30243617 -0.108664714
-0.12850834 -0.26267886 -0.008253477 0.17660174 0.061264254 -0.12802424 0.032855436 0.11044454
-0.02150535 -0.3347047 -0.083536044 0.084593125 0.17627294 -0.09057718 0.096126206 0.20037355
0.22167583 -0.0693866 0.06498411 -0.014933638 -0.014817799 -0.023666482 0.15520212 0.07570266
0.05961978 -0.13419634 -0.57109475 -0.03542212 -0.14060256 -0.102106065 0.07392854 -0.10367141
-0.699677 0.00472376 -0.12992394 -0.04881931 0.044734996 0.024137562 0.14518128 0.12469663
0.0020011507 0.2417856 0.018231299 -0.040865555 0.06567701 0.15068194 0.012736917 0.05557904
-0.012201089 -0.005353191 0.02665665 0.4506131 -0.18477178 0.11682156 0.24776389 0.02715442
0.18624346 -0.12183182 0.0664267 -0.10052584 0.15499271 0.2033534 0.42342675 -0.013765635
0.07864999 0.4579543 0.3603439 -0.06758765 0.052278172 0.107369065 -0.12854125 -0.17878966
0.10321472 0.32262993 0.18860501 0.026828606 -0.19595756 0.18411492 -0.088114075 -0.11438833
-0.20328063 0.088374056 0.24660474 -0.009105564 0.048727777 -0.008698972 -0.23132418 -0.15675531
-0.23477335 0.10915589 0.49437058 -0.2143697 0.09084702 0.17224352 -0.065679386 0.043229744
0.691284 0.035124414 0.0959749 -0.046848852 -0.048372604 -0.0680017 -0.13901791 -0.117186226
0.12819918 -0.0814213 0.16561809 0.15072855 -0.08111964 -0.1152639 -0.14801995 0.027352713
-0.03961411 0.18523687 -0.11462724 -0.22309148 -0.024864905 0.050666604 -0.03433869 -0.057550594
-0.17441571 0.076580256 0.017377095 0.070859976 0.0931354 -0.116588525 -0.11289831 -0.03552271
-0.17661367 -0.003825092 -0.09140373 0.008615863 0.06618763 0.05342031 -0.02337288 0.023075363
-0.07378724 -0.0728108 0.14748308 0.13159718 0.017572498 0.115473375 0.106668465 0.044702005
-0.0140410345 -0.22071396 0.15249519 -0.02615306 -0.112277865 0.012087395 0.20584041 -0.035027664
0.028073499 -0.18364578 -0.07363674 0.13395888 0.121469714 -0.20259592 0.018099522 0.009852285
-0.13983475 0.079172894 -0.007994005 0.016969815 0.04995357 -0.049413346 -0.14288911 0.13873518
-0.05364025 -0.25438386 -0.10975193 -0.023105808 -0.16183135 -0.120648965 0.06405522 -0.15014614
-0.23369381 0.17713597 -0.10232894 -0.35678393 0.1842988 -0.07009173 0.033328276 -0.14520183
0.026591184 0.075031 -0.018827522 0.03141315 0.07613119 -0.09053008 -0.3264968 -0.122706234
-0.20872386 -0.3977627 -0.1994512 0.07110355 -0.20803583 -0.13193144 -0.12720592 -0.007600468
-0.027901765 -0.16749875 -0.20935683 -0.00888185 0.08244553 -0.092786685 -0.04259326 0.20343734
0.23070252 -0.0074418616 -0.03677574 -0.1479625 -0.16654663 -0.033550512 0.1816209 0.06280169
0.10217765 0.08972727 -0.39524722 0.015398451 -0.120648 0.009234455 -0.093906105 -0.14185366
-0.49664968 -0.1626594 -0.059835996 -0.12443578 0.02517801 0.030714974 -0.045267686 0.09491316
00000000: c8d0 66bb e359 85bd 3868 fcbd a204 863d
00000010: 7df4 bfbb b24c 3b3b 1f4d ec3d db57 36be
00000020: 02ce 91bc d27f 533e 948d edbd 6c9d 02be
00000030: 42f8 9f3d edbd 06bd 8a92 6fbd b248 bbbc
00000040: d090 17be 74e7 323e e73a bfbd 5b3f 9cbd
00000050: 8d6a b6bc 93d5 e7bd ead8 9abe 9b8b debd
00000060: b197 03be d87d 86be 9739 07bc 16d7 343e
00000070: 3af0 7a3d c918 03be 6c93 063d bf30 e23d
00000080: fd2b b0bc 6a5e abbe f214 abbd 293f ad3d
00000090: e580 343e 8780 b9bd d1dd c43d b92e 4d3e
000000a0: fdfe 623e 901a 8ebd 6416 853d 38ac 74bc
000000b0: 5bc6 72bc 36e0 c1bc 4eed 1e3e ff09 9b3d
000000c0: df33 743d c46a 09be 4433 12bf c916 11bd
000000d0: 1efa 0fbe fc1c d1bd d967 973d ad51 d4bd
000000e0: 081e 33bf c5c9 9a3b c80a 05be c2f6 47bd
000000f0: 0b3c 373d 23bc c53c 67aa 143e f260 ff3d
00000100: bd25 033b a596 773e ce59 953c a462 27bd
00000110: ab81 863d 5e4c 1a3e 80ae 503c d9a6 633d
00000120: 14e7 47bc d269 afbb 0c5f da3c c3b6 e63e
00000130: d034 3dbe 2440 ef3d d1b5 7d3e f272 de3c
00000140: 9bb6 3e3e f682 f9bd b90a 883d 7ee0 cdbd
00000150: 69b6 1e3e e03b 503e 64cb d83e 4289 61bc
00000160: 3f13 a13d fc78 ea3e ff7e b83e 656b 8abd
00000170: a321 563d 50e4 db3d 51a0 03be a314 37be
00000180: 3d62 d33d c02f a53e ac21 413e aac7 db3c
00000190: 19a9 48be 9f88 3c3e 2775 b4bd 6e44 eabd
000001a0: cc28 50be 75fd b43d f485 7c3e 812f 15bc
000001b0: c796 473d 2286 0ebc 3fe0 6cbe 7784 20be
000001c0: 6d68 70be 208d df3d 241e fd3e bb83 5bbe
000001d0: 010e ba3d 9b60 303e ea82 86bd ac11 313d
000001e0: fdf7 303f 9ede 0f3d 7d8e c43d 95e4 3fbd
000001f0: 5a22 46bd 7a44 8bbd b65a 0ebe 55ff efbd
00000200: a546 033e 36c0 a6bd ca97 293e 9658 1a3e
00000210: 0e22 a6bd 7b0f ecbd 8b92 17be cc12 e03c
00000220: 6842 22bd bcae 3d3e b0c1 eabd 1872 64be
00000230: 7cb1 cbbc c987 4f3d baa6 0cbd 2cba 6bbd
00000240: 089a 32be 1cd6 9c3d 695a 8e3c 091f 913d
00000250: c6bd be3d f7c5 eebd 3b37 e7bd 4380 11bd
00000260: 37da 34be 65ae 7abb e131 bbbd 8c29 0d3c
00000270: 618d 873d 41cf 5a3d 7b78 bfbc 8b08 bd3c
00000280: c41d 97bd d41d 95bd ce05 173e 69c1 063e
00000290: 33f4 8f3c 4e7d ec3d ff74 da3d 7319 373d
000002a0: 5e0c 66bc d702 62be b327 1c3e f13e d6bc
000002b0: f0f1 e5bd 360a 463c d4c7 523e 2b79 0fbd
000002c0: 65fa e53c a40d 3cbe dcce 96bd 842c 093e
000002d0: 1dc5 f83d 4e75 4fbe 7345 943c 7a6b 213c
000002e0: d730 0fbe 6625 a23d 4af9 02bc 4804 8b3c
000002f0: 1d9c 4c3d a665 4abd 8651 12be 9810 0e3e
00000300: e1b5 5bbd 9a3e 82be 9fc5 e0bd 6448 bdbc
00000310: 1eb7 25be ce16 f7bd 622f 833d e9bf 19be
00000320: 6e4d 6fbe 2263 353e d691 d1bd 62ac b6be
00000330: d3b8 3c3e 418c 8fbd 3b83 083d caaf 14be
00000340: c1d5 d93c daa9 993d 2d3c 9abc 13ab 003d
00000350: abea 9b3d d667 b9bd 972a a7be 684d fbbd
00000360: b5bb 55be 8da7 cbbe ef3c 4cbe bd9e 913d
00000370: 5807 55be 0919 07be 4542 02be 590d f9bb
00000380: 3e92 e4bc cb84 2bbe a361 56be 2e85 11bc
00000390: 34d9 a83d f206 bebd 4576 2ebd e151 503e
000003a0: 483d 6c3e dcda f3bb 29a2 16bd 7b83 17be
000003b0: 338b 2abe 436c 09bd d4fa 393e 2c9e 803d
000003c0: 8442 d13d eec2 b73d d85d cabe c949 7c3c
000003d0: 4c16 f7bd 1d4c 173c d851 c0bd 1642 11be
000003e0: de48 febe 3090 26be 9716 75bd 30d8 febd
000003f0: 1d42 ce3c f89d fb3c 9c6a 39bd d561 c23d

net.1.bias f4 [64]
-0.107644506 0.0125005795 -0.036320835 -0.09426671 0.05463239 0.078280985 -0.10340598 -0.0914471
0.056065165 -0.093504906 0.09176506 0.011475085 0.08949512 -0.04849179 0.18161428 0.10127461
-0.072064474 0.055369552 0.081121705 -0.08525949 -0.02041735 0.058668643 0.12968765 -0.14202721
0.09785171 0.08800692 0.11360528 -0.09370802 0.008808058 -0.002456808 0.023538027 0.11607767
0.048649576 -0.0778298 -0.12287872 -0.06929984 0.064806126 0.011753037 -0.09038314 0.0010598707
-0.04429596 -0.1209143 0.14188544 0.09451464 -0.010005971 0.10029479 -0.05272318 0.013854922
-0.121369086 0.13117748 0.10746311 0.014938614 -0.04965112 0.063546434 0.093617156 -0.020042913
0.035656746 0.16987999 -0.17015935 -0.06899034 0.117139585 0.11748394 0.098792195 0.09089971
00000000: b974 dcbd 3bcf 4c3c 28c5 14bd e80e c1bd
00000010: 37c6 5f3d c851 a03d 84c6 d3bd 9e48 bbbd
00000020: 96a4 653d 807f bfbd 52ef bb3d ff01 3c3c
00000030: 3849 b73d 549f 46bd 18f9 393e 1069 cf3d
00000040: 8a96 93bd 2fcb 623d 2323 a63d 879c aebd
00000050: 4942 a7bc 884e 703d d7cc 043e 956f 11be
00000060: 7a66 c83d f93c b43d e3a9 e83d fee9 bfbd
00000070: ac4f 103c 6602 21bb d2d2 c03c 21ba ed3d
00000080: c744 473d 3b65 9fbd d7a7 fbbd 13ed 8dbd
00000090: 13b9 843d cf8f 403c cc1a b9bd 5ceb 8a3a
000000a0: ae6f 35bd eba1 f7bd 6b4a 113e e490 c13d
000000b0: 16f0 23bc 5b67 cd3d 43f4 57bd c1ff 623c
000000c0: 5b90 f8bd 6453 063e 9e15 dc3d 17c1 743c
000000d0: f95e 4bbd a224 823d 5aba bf3d 0931 a4bc
000000e0: cf0c 123d 05f5 2d3e 413e 2ebe cf4a 8dbd
000000f0: e1e6 ef3d 6c9b f03d 9053 ca3d a129 ba3d
