2_Party/shadow_model_data/shadow_plus_F_client1_bottom_inter.pt (torch, 21928 bytes, 4 tensors)

net.0.weight f4 [64, 10]
0.2886856 -0.08765298 -0.28982309 0.12660731 0.19778052 -0.2901918 0.032754157 0.16379355
0.17776027 0.08624943 0.63303566 0.9301956 0.8679786 0.8623238 0.2802544 0.8631545
-0.28017864 -0.5366666 -0.30013406 -0.2689506 -0.9421569 -0.86754805 -0.91701555 0.4330569
0.069730036 0.034611106 -0.47059014 -0.60957474 -0.42610997 1.5058969 -0.20344785 0.13068232
0.20558238 -0.19792105 -0.10475005 0.029299198 0.17890926 -0.037447695 0.25041854 -0.2005548
-0.03838439 0.03648138 -0.050136775 1.428619 1.3900224 0.82046866 0.13342884 0.00195198
0.059600465 -3.5830986 1.0433397 1.1198527 1.233523 -0.10352581 -0.3439262 -0.35270527
0.082423136 0.2891557 -0.008723858 -0.3095049 -0.34077373 -0.6245472 -0.63853997 0.57734996
0.6312591 0.25462046 -0.6375775 -0.5955777 -0.5126232 0.536724 -0.122283265 -0.21182749
0.2354196 -0.14545201 0.088938504 0.023404483 0.43310755 0.40346003 0.6289455 0.59774256
-0.49968547 -0.4624024 -0.407848 -0.7995795 -0.7859014 -0.6582753 -1.0063614 -0.68426824
-0.49455756 0.21896605 -0.057185426 0.054403633 0.060868565 -0.034026664 0.16108616 0.021654528
0.0152174905 -0.29695457 -0.04887099 0.0038330979 0.9513734 0.9949978 1.0691209 -0.51350296
-0.7254563 -0.15039325 0.49510276 0.6295665 0.6391558 0.18472368 0.28395435 -0.2849277
-0.15001953 -0.12632334 0.018248918 -0.014901097 0.095001765 0.14440168 -0.26735014 -0.26655322
0.27571034 0.13239023 -0.15864758 1.1246214 1.1948112 1.2663419 -0.2478333 -0.5672899
-0.33954966 -0.36719945 -1.0529668 -0.6238161 -1.1032956 -0.45908156 -0.4388717 -0.72701806
0.02634042 -0.07360228 -0.11731475 -0.47199446 -0.6942771 -0.18459755 -0.64094853 0.5736767
0.30262664 0.43445674 -0.6238053 -0.5625358 -0.58654267 0.6306365 0.6352209 0.48541528
0.1855107 1.1905396 1.1060622 0.9224995 0.21624593 0.45600814 0.5551665 -1.1434343
1.5048399 1.5348674 1.8060592 -1.606513 -1.5033687 -1.0747795 1.6045407 1.9528983
1.9945098 0.068448566 0.41804367 0.9353762 0.5205608 -1.4961187 -1.4649668 -1.116
1.1464276 1.1247458 1.0629479 1.2463077 1.0657684 0.78214943 1.2452602 0.19133034
0.60516113 0.7165787 -0.10796382 -0.2914332 -0.15704516 -0.61474246 0.72566164 0.7526753
0.8697448 0.6056077 0.4931434 0.50256246 -0.14008187 -0.07875463 -0.5126041 0.5436756
-0.12115923 0.047934815 0.17629841 0.17341933 0.14254211 0.12388429 -0.12658575 0.17383893
-0.12660763 0.113610804 -0.3424917 -0.6246048 -0.7377517 0.42844707 -0.11394505 0.33256656
-0.8406726 -0.78377 -0.59700805 0.0060470435 -0.08443502 0.088547684 -0.2161432 -0.1774129
-0.28221166 -0.10793845 0.25519368 -0.13953635 0.16739224 -0.3006679 0.31356135 0.6816475
0.77080566 0.10621829 -0.08345477 0.29426482 0.3384233 0.24742015 0.44590083 -2.3883545
-0.31321183 0.24219945 0.23952426 0.31279576 -0.0075623775 -0.24457382 -0.18361692 0.30497396
-0.021792727 0.10818703 2.0884298e-05 -0.11040706 -0.2629335 -0.070823215 0.081616096 0.10579706
00000000: 99ce 933e 6883 b3bd b163 94be 59a5 013e
00000010: fa86 4a3e 0594 94be 3929 063d 7fb9 273e
00000020: ca06 363e 8ba3 b03d a00e 223f 4d21 6e3f
00000030: d833 5e3f 41c1 5c3f 817d 8f3e b1f7 5c3f
00000040: 9373 8fbe fb62 09bf 2cab 99be e5b3 89be
00000050: 3231 71bf a117 5ebf 88c1 6abf a2b9 dd3e
00000060: 9fce 8e3d 60c4 0d3d 31f1 f0be 170d 1cbf
00000070: 162b dabe 3bc1 c03f a254 50be 96d1 053e
00000080: 3084 523e d1ab 4abe 3287 d6bd df04 f03c
00000090: fd33 373e c162 19bd dc36 803e 3d5e 4dbe
000000a0: f338 1dbd 806d 153d 385c 4dbd fddc b63f
000000b0: 41ec b13f 3c0a 523f 92a1 083e 95d9 ff3a
000000c0: 9e1f 743d 7d51 65c0 288c 853f 5557 8f3f
000000d0: 15e4 9d3f 5705 d4bd 1817 b0be c995 b4be
000000e0: 76cd a83d 370c 943e 83ee 0ebc 6d77 9ebe
000000f0: e579 aebe 53e2 1fbf 5b77 23bf 35cd 133f
00000100: 329a 213f 9d5d 823e 4738 23bf c877 18bf
00000110: 463b 03bf be66 093f a66f fabd 4ee9 58be
00000120: d611 713e 5ff1 14be 6425 b63d c2ba bf3c
00000130: 46c0 dd3e 5092 ce3e 9302 213f a805 193f
00000140: c6d6 ffbe 02c0 ecbe 74d1 d0be 3eb1 4cbf
00000150: d630 49bf bb84 28bf 73d0 80bf 342c 2fbf
00000160: a636 fdbe a338 603e 443b 6abd 58d6 5e3d
00000170: 5151 793d 8b5f 0bbd c5f3 243e d664 b13c
00000180: c852 793c 6e0a 98be f22c 48bd b634 7b3b
00000190: 358d 733f 2db8 7e3f f4d8 883f ee74 03bf
000001a0: 81b7 39bf b000 1abe 1c7e fd3e 452b 213f
000001b0: b79f 233f 3428 3d3e 7762 913e 0be2 91be
000001c0: b89e 19be e85a 01be c17e 953c bb23 74bc
000001d0: 4990 c23d 09de 133e 1ee2 88be aa79 88be
000001e0: e829 8d3e 4e91 073e 8374 22be 98f3 8f3f
000001f0: 93ef 983f 7e17 a23f 03c8 7dbe e939 11bf
00000200: 74d9 adbe 9101 bcbe 9ec7 86bf 69b2 1fbf
00000210: ca38 8dbf bd0c ebbe cbb3 e0be db1d 3abf
00000220: ddc7 d73c cbbc 96bd b742 f0bd 42a9 f1be
00000230: 25bc 31bf 2407 3dbe 3415 24bf 7adc 123f
00000240: e1f1 9a3e 1d71 de3e b4b1 1fbf 5902 10bf
00000250: a927 16bf 6571 213f d69d 223f 5a88 f83e
00000260: 84f6 3d3e 9a63 983f 7293 8d3f ed28 6c3f
00000270: 936f 5d3e e679 e93e 641f 0e3f 0e5c 92bf
00000280: 989e c03f 8976 c43f f32c e73f 38a2 cdbf
00000290: 636e c0bf 6092 89bf 9761 cd3f 92f8 f93f
000002a0: 194c ff3f c32e 8c3d d209 d63e d174 6f3f
000002b0: 7943 053f d180 bfbf 0884 bbbf 17d9 8ebf
000002c0: 24be 923f acf7 8f3f ad0e 883f 0387 9f3f
000002d0: 196b 883f f23a 483f b064 9f3f 1aec 433e
000002e0: d7eb 1a3f b471 373f 231c ddbd bb36 95be
000002f0: 72d0 20be c35f 1dbf f6c4 393f 54af 403f
00000300: 98a7 5e3f 1b09 1b3f 4b7d fc3e efa7 003f
00000310: 9f71 0fbe 1c4a a1bd 063a 03bf 532e 0b3f
00000320: 5522 f8bd 4c57 443d 9287 343e d694 313e
00000330: 8ff6 113e 0cb7 fd3d b29f 01be d502 323e
00000340: 6ea5 01be c8ac e83d 125b afbe 1ae6 1fbf
00000350: 4cdd 3cbf 6a5d db3e 065c e9bd 2a46 aa3e
00000360: 5236 57bf 27a5 48bf 85d5 18bf 4726 c63b
00000370: 45ec acbd 7d58 b53d a554 5dbe baab 35be
00000380: 0c7e 90be d60e ddbd bfa8 823e 9ee2 0ebe
00000390: df68 2b3e 25f1 99be 1d8b a03e 7380 2e3f
000003a0: 8553 453f fa88 d93d 56ea aabd e1a9 963e
000003b0: d245 ad3e b55b 7d3e 1d4d e43e cdda 18c0
000003c0: 4d5d a0be 2203 783e d945 753e c426 a03e
000003d0: d2cd f7bb 8f71 7abe 1306 3cbe 8c25 9c3e
000003e0: a986 b2bc 2991 dd3d b030 af37 191d e2bd
000003f0: 389f 86be c30b 91bd 5726 a73d 21ac d83d

net.0.bias f4 [64]
-0.13074633 -0.06785662 0.061641023 -0.2977515 0.0786943 -0.09897616 -0.13503604 -0.09436343
-0.112141706 -0.19166568 -0.096077584 -0.10717203 -0.11516101 -0.03479349 -0.15152155 0.031215347
0.061144568 0.12564217 -0.04203233 -0.017395025 -0.22185615 -0.050241664 -0.19091399 -0.0021143872
-0.04703532 -0.31391644 0.118316874 -0.07136203 -0.052207485 -0.2727412 0.027111564 0.03242075
-0.18227498 -0.0028172832 0.07699989 -0.0010681632 0.104139015 0.05563695 -0.29402915 0.094763994
-0.026007297 -0.11900329 -0.24585809 -0.05819408 0.02317972 0.070218906 -0.03695096 0.053686272
-0.0424942 -0.09447189 -0.0955156 0.054031473 -0.048788767 -0.056821395 -0.15016331 -0.037522905
-0.26313496 -0.18978883 -0.0061399676 -0.26582783 0.08736629 0.034133963 -0.24355045 0.030783648
00000000: 5ee2 05be 69f8 8abd 4c7b 7c3d e272 98be
00000010: 7a2a a13d 03b4 cabd e346 0abe 9d41 c1bd
00000020: 8daa e5bd 0244 44be 53c4 c4bd 027d dbbd
00000030: 89d9 ebbd 9e83 0ebd 7728 1bbe 54b7 ff3c
00000040: ba72 7a3d 57a8 003e 182a 2cbd 0380 8ebc
00000050: 422e 63be 34ca 4dbd f57e 43be 8891 0abb
00000060: 1ca8 40bd a8b9 a0be 1e50 f23d 4226 92bd
00000070: 84d7 55bd bca4 8bbe 1219 de3c 9fcb 043d
00000080: 4ba6 3abe 2ba2 38bb 1eb2 9d3d 9c01 8cba
00000090: d646 d53d 92e3 633d fd8a 96be a013 c23d
000000a0: 410d d5bc ffb7 f3bd 39c2 7bbe ea5c 6ebd
000000b0: 65e3 bd3c eece 8f3d e459 17bd 23e6 5b3d
000000c0: 660e 2ebd 7a7a c1bd af9d c3bd 1b50 5d3d
000000d0: bbd6 47bd 8dbd 68bd 69c4 19be 9eb1 19bd
000000e0: a0b9 86be 0158 42be c831 c9bb 961a 88be
000000f0: 19ed b23d 0ed0 0b3d 4a65 79be fd2d fc3c

net.3.weight f4 [64, 64]
-0.010253549 0.5416443 0.06300825 0.03949897 0.330229 -0.6820803 -0.3274847 0.3341258
-0.45501286 -0.0016700625 -0.6060213 0.123343855 0.6486569 -0.050045 -0.4124503 0.34052905
0.12270008 0.11411576 0.614222 0.35643074 0.12451987 -0.48237792 0.06694803 0.40604898
-0.10863496 0.06497426 0.051940244 -0.16249321 -0.17057209 -0.06952505 0.5192917 0.5200104
-0.41288322 0.6164838 0.07313681 0.3379544 0.15469736 0.12605487 -0.09692228 0.030561615
0.23349887 -0.6552543 -0.035201684 0.6007468 0.2847524 0.0719828 0.24150637 0.25745788
-0.04899331 -0.047970057 -0.6585529 0.1510476 0.5842933 -0.108133234 -0.55064684 -0.097888365
-0.11187641 0.11397657 0.32405838 0.11288528 -0.015700616 0.0694885 -0.07689425 0.446209
-0.06111297 -0.22121888 0.31387058 0.09613867 0.045623805 -0.78668284 0.35053113 -0.06291492
0.4938972 -0.03608997 -0.7606716 -0.00039112568 -0.23836651 0.6140329 0.3080722 0.06655157
0.20450969 -0.03362642 -0.010489299 -0.042196125 0.048542395 0.3972363 0.07316728 -0.11332255
-0.12259418 -0.11445862 0.15497996 -0.75517446 1.2004535 0.094903484 -0.12763087 0.005477522
0.4508897 -0.011727919 0.22787574 -0.034775443 0.31486803 0.422272 0.03192091 0.33896384
-0.08316616 0.56946343 -0.026103303 0.033851992 0.0010940789 0.2562445 -0.0555587 0.15948151
0.96670586 -0.11352889 0.31027463 0.24430762 -0.034795262 -0.5975704 0.34593174 0.75231844
0.12349579 0.004801303 0.04448006 0.018586397 0.15182716 0.7282796 0.110006616 0.006087815
0.022017524 -0.27213484 0.38585752 -0.064923525 -0.027767664 -0.57168025 0.44512314 -0.13451865
0.30061573 -0.070787564 -0.48245093 0.029787615 -0.3579927 0.6479789 0.37887362 0.07546727
0.16857968 0.1605708 -0.13246015 -0.12618071 0.009507149 0.33232313 0.100256205 -0.04581697
0.026638389 0.05846612 0.22229657 -0.46890756 0.7590024 0.0795064 -0.05187119 0.108572684
0.36257997 -0.20884319 0.27956715 0.05544236 0.121117294 0.39843944 -0.0864459 0.1331293
-0.08463186 0.41098762 0.11830367 -0.1616368 -0.03199112 0.26915732 0.056897826 0.17681465
0.76813716 0.05870162 0.59685135 0.3229945 -0.018414835 -0.3440322 0.32122654 0.70948875
-0.10368352 -0.12365326 -0.041576095 -0.09325203 0.34134203 0.5775536 0.010009348 -0.047106784
0.12054548 0.6757539 -0.013413684 -0.0548214 0.019487128 0.11638171 -0.3987961 0.03504676
-0.44068784 -0.11557932 0.25191826 -0.091891095 0.31782478 -0.8113777 -0.4543151 0.20314321
0.10374038 0.036109764 0.58504325 0.43464226 0.08334617 -0.40018755 0.038599044 0.32656822
0.07763517 -0.013559505 0.11808037 0.6762079 -1.1333437 0.031468526 0.13644716 0.19576545
-0.36700818 0.08448089 0.11775888 0.29503408 0.022775002 -0.17422995 0.05807741 0.024531666
0.45959687 -0.5658053 0.005883917 0.7849082 0.1758195 0.15917818 0.38588366 0.15242904
-0.82680076 -0.11723535 -0.47312254 0.1521701 0.490085 0.21709792 -0.5224124 -1.0048101
-0.031501696 0.040149838 0.22778045 -0.016102582 0.0061031743 -0.4193691 -0.042227477 0.22225514
00000000: 80fe 27bc 33a9 0a3f 780a 813d acc9 213d
00000010: c713 a93e d19c 2ebf 13ac a7be 8912 ab3e
00000020: 72f7 e8be 00e6 daba 3624 1bbf b49b fc3d
00000030: 610e 263f fcfb 4cbd b02c d3be d359 ae3e
00000040: 2e4a fb3d 86b5 e93d a73d 1d3f 177e b63e
00000050: 4604 ff3d 3dfa f6be 0c1c 893d a7e5 cf3e
00000060: 027c debd 3a11 853d 4bbf 543d 9f64 26be
00000070: 73aa 2ebe 2663 8ebd 4df0 043f 671f 053f
00000080: 6e65 d3be e2d1 1d3f c0c8 953d 5c08 ad3e
00000090: fc68 1e3e 8714 013e 307f c6bd 5a5c fa3c
000000a0: 541a 6f3e bfbe 27bf a42f 10bd 8bca 193f
000000b0: 11cb 913e b86b 933d 724d 773e 85d1 833e
000000c0: 36ad 48bd 407c 44bd ec96 28bf 39ac 1a3e
000000d0: 3f94 153f f574 ddbd 31f7 0cbf b279 c8bd
000000e0: 761f e5bd 8c6c e93d fbea a53e 6630 e73d
000000f0: 949e 80bc fd4f 8e3d bc7a 9dbd 8275 e43e
00000100: 9851 7abd 3487 62be a5b3 a03e 5ae4 c43d
00000110: 07e0 3a3d 0c64 49bf d178 b33e 8ad9 80bd
00000120: 18e0 fc3e 14d3 13bd 60bb 42bf 0010 cdb9
00000130: 5a16 74be 4331 1d3f a4bb 9d3e 314c 883d
00000140: fd6a 513e dbbb 09bd 4fdb 2bbc d8d5 2cbd
00000150: 64d4 463d 8e62 cb3e bad8 953d a715 e8bd
00000160: a812 fbbd 4869 eabd 11b3 1e3e 1d53 41bf
00000170: 76a8 993f c25c c23d abb1 02be c97c b33b
00000180: 04db e63e 7526 40bc 4258 693e b270 0ebd
00000190: 6236 a13e 0934 d83e 80bf 023d ab8c ad3e
000001a0: 0553 aabd 5bc8 113f 98d6 d5bc 63a8 0a3d
000001b0: 3267 8f3a 7b32 833e 8591 63bd 1f4f 233e
000001c0: 097a 773f d681 e8bd 51dc 9e3e c72b 7a3e
000001d0: 7a85 0ebd 60fa 18bf f71d b13e f197 403f
000001e0: 5ceb fc3d 4054 9d3b b930 363d 8042 983c
000001f0: 9478 1b3e 8870 3a3f 264b e13d 4b7c c73b
00000200: 185e b43c 4255 8bbe 1e8f c53e a0f6 84bd
00000210: 0379 e3bc a359 12bf 2ee7 e33e 42bf 09be
00000220: 4eea 993e 12f9 90bd cf03 f7be 2805 f43c
00000230: d24a b7be f2e1 253f b9fb c13e 968e 9a3d
00000240: 27a0 2c3e ac6c 243e a2a3 07be 8435 01be
00000250: e0c3 1b3c 4226 aa3e 2053 cd3d 93aa 3bbd
00000260: c038 da3c 2c7a 6f3d b6a1 633e a714 f0be
00000270: fb4d 423f 40d4 a23d e376 54bd 5b5b de3d
00000280: 15a4 b93e fdda 55be 6d23 8f3e 8717 633d
00000290: 580c f83d 4100 cc3e 8c0a b1bd 0c53 083e
000002a0: 7853 adbd f86c d23e 3249 f23d 1e84 25be
000002b0: 1f09 03bd fdce 893e b20d 693d e60e 353e
000002c0: a3a4 443f 1c71 703d 40cb 183f 895f a53e
000002d0: b5da 96bc fd24 b0be ce77 a43e 0ea1 353f
000002e0: 0658 d4bd ec3d fdbd b24b 2abd ecfa bebd
000002f0: 62c4 ae3e 8dda 133f 40fe 233c 0bf3 40bd
00000300: 8ce0 f63d 35fe 2c3f 12c5 5bbc 688c 60bd
00000310: 78a3 9f3c 8959 ee3d 012f ccbe 318d 0f3d
00000320: d6a1 e1be dab4 ecbd 6efb 803e 6631 bcbd
00000330: eeb9 a23e 73b6 4fbf fd9b e8be c604 503e
00000340: d675 d43d d5e7 133d 65c5 153f 6e89 de3e
00000350: 66b1 aa3d 62e5 ccbe 081a 1e3d f333 a73e
00000360: 30ff 9e3d b028 5ebc 1fd4 f13d f61b 2d3f
00000370: 6811 91bf 24e5 003d ceb8 0b3e bd76 483e
00000380: 7fe8 bbbe 5104 ad3d 912b f13d b50e 973e
00000390: a492 ba3c 5669 32be 94e2 6d3d a2f6 c83c
000003a0: 4850 eb3e 9ed8 10bf e0cd c03b beef 483f
000003b0: 070a 343e 9bff 223e 8b92 c53e 5c16 1c3e
000003c0: 37a9 53bf 1619 f0bd 1e3d f2be 7bd2 1b3e
000003d0: 6cec fa3e eb4e 5e3e d2bc 05bf 9e9d 80bf
000003e0: ec07 01bd 2874 243d 473f 693e 90e9 83bc
000003f0: 23fd c73b 8cb7 d6be b8f6 2cbd da96 633e

net.3.bias f4 [64]
0.06291083 0.26786354 0.30115205 0.069176994 0.05144556 0.16242562 0.06977992 0.25337946
0.15258344 0.24628776 0.15140048 0.2526361 0.17650698 0.063537434 0.29564157 0.30928734
0.20001453 0.122812055 0.3164213 0.22328758 0.24085386 0.29052418 0.11659414 0.26353818
0.28532794 0.19165735 0.30566877 0.17128828 0.19231777 0.18887235 0.24944901 0.07287325
0.09015144 0.2208381 0.31551814 0.30551735 0.20906214 0.20550247 0.15682241 0.15342228
0.16422899 0.18327698 0.17162973 0.42631602 0.18245141 0.3979766 0.4174134 0.27428323
0.11354261 0.2754287 0.2634929 0.21816653 0.011268337 0.22573814 0.013216957 0.27019224
0.27744162 0.14887471 0.017378783 0.2341035 0.2299238 0.27824613 0.06480302 0.026278364
00000000: 65d7 803d 6925 893e 9a30 9a3e abac 8d3d
00000010: 94b8 523d e752 263e c6e8 8e3d f4ba 813e
00000020: d53e 1c3e dc32 7c3e ba08 1b3e 8559 813e
00000030: 3fbe 343e ea1f 823d 555e 973e e95a 9e3e
00000040: 9cd0 4c3e e384 fb3d f901 a23e 80a5 643e
00000050: 65a2 763e 96bf 943e e9c8 ee3d 7aee 863e
00000060: 8116 923e d341 443e 9e80 9c3e 3266 2f3e
00000070: f3ee 443e c167 413e 906f 7f3e 923e 953d
00000080: 51a1 b83d 6223 623e 988b a13e c56c 9c3e
00000090: 6314 563e 3d6f 523e 0e96 203e bb1a 1d3e
000000a0: a52b 283e f6ac 3b3e b4bf 2f3e 1846 da3e
000000b0: 8bd4 3a3e 97c3 cb3e 36b7 d53e da6e 8c3e
000000c0: 0789 e83d fe04 8d3e 8be8 863e 0c67 5f3e
000000d0: d59e 383c e627 673e f08b 583c a356 8a3e
000000e0: d40c 8e3e 9d72 183e f35d 8e3c d4b8 6f3e
000000f0: 2571 6b3e 4776 8e3e 72b7 843d b945 d73c
