2_Party/shadow_model_data/shadow_minus_F_client1_bottom.pt (torch, 21888 bytes, 4 tensors)

net.0.weight f4 [64, 10]
000000 8e b7 8d c0 9b 88 8b c0 bd 8e 91 bc c3 6b 7f be
       -4.4286566 -4.3604255 -0.017768258 -0.24943452
000010 05 1a 37 3e 28 d5 e4 bd c4 16 dd 3c 7b f6 32 3e
       0.1788102 -0.11173469 0.026988395 0.17476837
000020 8b b5 0d be 0f 61 36 bd 8b d6 06 40 12 99 f6 3f
       -0.13838784 -0.044526156 2.1068447 1.9265463
000030 77 22 a9 bf 6e ab bb be 70 56 3c 3d 2f 14 8e bd
       -1.3213643 -0.36654228 0.04598087 -0.069374435
000040 46 50 4c 3c 99 37 65 3e 92 08 85 be 6d 95 02 3e
       0.012470311 0.2238449 -0.259831 0.12752314
000050 03 fb 44 3e 3a 23 97 be 2a cf 30 be e3 ae 77 be
       0.19236378 -0.29519063 -0.17266527 -0.24187808
000060 72 e3 79 be d3 21 22 3e 11 60 f0 3d 34 fe 9a 3c
       -0.2440317 0.15833215 0.11737073 0.018920042
000070 8f 1c 4e be cf 4a f5 3d 37 06 92 be ad 9a 0b 3a
       -0.20128082 0.11977159 -0.28520367 0.00053254777
000080 68 7c 6c 3e 69 e1 a2 3e 4f 6f 06 be ba 39 32 3e
       0.23094332 0.318126 -0.13128398 0.17404833
000090 5c ee 4e be 38 78 4f bd 98 48 9b 3c fd 9d c9 3c
       -0.20208114 -0.05065176 0.018955514 0.024611467
0000a0 f6 87 cb bf a2 8f 91 bf c1 41 59 bf f4 db 89 bf
       -1.5900867 -1.1371958 -0.8486596 -1.0770249
0000b0 01 77 af 3d f2 93 70 3d 92 a0 92 3b 96 9c 69 3e
       0.0856762 0.05873484 0.004474708 0.22813639
0000c0 35 4b 52 3e 27 f4 bb 3d 2d 86 1f be 18 a0 92 be
       0.20536502 0.09177428 -0.15578528 -0.28637767
0000d0 a7 3f f2 bf 00 b2 ce bf 1d b4 1a 3d 90 9d d7 3e
       -1.8925675 -1.6148071 0.037769426 0.42112398
0000e0 22 54 83 bd 54 cb d0 3e 76 4a 04 3e 49 82 94 3e
       -0.064125314 0.40780127 0.1291903 0.2900565
0000f0 f2 a2 36 bd 6b b7 7f 3c c2 e3 52 3e 1c 04 fe bd
       -0.04458899 0.015607695 0.20594695 -0.124031276
000100 61 52 46 3e 86 e8 44 3e e9 bd 64 be 64 d8 1b 3e
       0.19367363 0.19229326 -0.2233807 0.15219265
000110 4b c1 9f be 6c 73 39 be 32 42 48 40 10 dd 2a 40
       -0.31202158 -0.18110436 3.1290402 2.6697426
000120 93 93 ed bf 36 5f 32 bf da 93 20 be 98 e7 55 3e
       -1.8560661 -0.6967653 -0.15681401 0.20889127
000130 fe 4e 44 be 2d f6 a2 bd 86 da 47 bd 47 0e 36 3e
       -0.19170758 -0.079571106 -0.048792385 0.17778884
000140 18 5e 17 c0 22 e1 0f c0 85 46 1c bf 55 60 96 be
       -2.365118 -2.248116 -0.61045104 -0.2937037
000150 ba 31 32 be 25 00 4b 3d ae 66 98 bd 71 9e ce bd
       -0.17401782 0.049560685 -0.074414596 -0.10088814
000160 b5 d6 1d bd 79 82 92 3d df f3 69 3f d8 b9 ee 3e
       -0.03853484 0.07153792 0.9138774 0.46626163
000170 90 50 9a bf bd b6 eb bf 64 c2 c7 3e cd df a3 3d
       -1.2055836 -1.8415142 0.39015496 0.08001671
000180 24 4a e6 3d 4a d5 aa 3e e2 8a 90 3e 3d 79 a0 3e
       0.1124461 0.33365852 0.2823096 0.31342497
000190 58 76 32 be a8 64 79 3e ff 31 c3 3d 06 d9 a3 3d
       -0.17427957 0.24354804 0.095310204 0.08000378
0001a0 35 ca 7b 3d a6 88 80 3e 14 38 93 be dd 74 64 be
       0.061472137 0.25104254 -0.28753722 -0.22310205
0001b0 95 61 7c 3e df 03 37 bd 74 e2 18 3d fc 97 9d 3e
       0.246466 -0.044681426 0.037325338 0.30780017
0001c0 2e d8 a4 be ba d1 0d 3e a2 9c ae bd 31 4f 2c be
       -0.32196182 0.13849536 -0.08525969 -0.16827084
0001d0 bf 1c 41 be 64 a8 cb be a7 61 f8 3b f0 ef 2a be
       -0.18858622 -0.3977691 0.0075800004 -0.16693091
0001e0 21 df 09 3c cf 05 b1 3d ee 3d d9 bd ca 66 81 3e
       0.0084150145 0.08643686 -0.10607515 0.25273734
0001f0 c1 61 11 3e 6a 6b 95 be 11 92 49 3e 96 9e 7b be
       0.14197446 -0.29183513 0.19684626 -0.24572214
000200 9d 9b 81 be 37 aa 3d 3e 16 f8 87 40 ed 5b 91 40
       -0.25314036 0.18521963 4.249034 4.5424714
000210 62 35 b6 bf 05 d6 91 be da 2a 7b be b8 ce cd 3d
       -1.4235041 -0.28483596 -0.24528065 0.10049194
000220 d9 2d b6 3d 42 a1 e6 bd 30 8b 38 3e 1a 94 4e 3d
       0.088954635 -0.11261226 0.18021846 0.05043421
000230 2c 63 37 bc 76 a6 15 3e b5 f6 14 3e df 92 86 3e
       -0.011193078 0.14614281 0.14547236 0.2628393
000240 e3 91 b2 3d a2 68 14 3e 97 ef 82 3e b1 b2 9f be
       0.08719232 0.14493039 0.25573418 -0.31191018
000250 23 db 29 3d 74 99 72 be f0 ad 00 bf eb ca 03 bf
       0.04146875 -0.2369135 -0.5026541 -0.51481503
000260 3d 90 ba bc 20 5e b8 3e ba 9f 62 be 58 3a 88 be
       -0.022773856 0.36009312 -0.22131243 -0.26607013
000270 03 ea aa be 11 70 f4 be 04 a8 50 be 8f d4 b0 bd
       -0.33381662 -0.4774175 -0.20376593 -0.08634292
000280 79 72 91 3f 85 31 89 3f a1 79 7c bf d5 09 92 bf
       1.1363059 1.0718237 -0.9862309 -1.140925
000290 99 c2 e6 3e f5 5e 76 bd 58 cf 3f bc 09 29 5e 3d
       0.4507034 -0.06014915 -0.011707149 0.054238353
0002a0 7f ab 87 3e 03 a7 67 3e f0 31 ea 3e cf de 58 3d
       0.2649803 0.22622304 0.45741224 0.05294686
0002b0 ce 73 e1 bf bc 94 c4 bf ad b2 ea 3e c1 9d f5 bd
       -1.7613466 -1.535789 0.45839444 -0.1199298
0002c0 92 b9 be 3e 4f 28 ce 3e 94 d7 17 3e 75 41 8b 3e
       0.37250954 0.40265128 0.1482833 0.27198377
0002d0 2c 60 44 3e 44 a7 2b be b8 f6 8e 3d 0f 54 21 be
       0.19177312 -0.16763026 0.069806516 -0.15754722
0002e0 ff be 03 3e f5 f1 ab 3d 7b cc 11 be af 7b 53 be
       0.12865828 0.08395759 -0.1423816 -0.2065265
0002f0 56 23 86 be 9a 9b 87 bd 91 e2 50 3f b6 09 55 3f
       -0.26198834 -0.066214755 0.8159571 0.8321794
000300 35 62 84 3f 74 d3 b7 3f da 9f 56 be b7 11 70 be
       1.034247 1.4361405 -0.20959416 -0.23444258
000310 26 c9 69 bd 81 56 a9 be 47 1b 9f bd 72 01 4a bd
       -0.057076596 -0.3307381 -0.077688746 -0.049317785
000320 b4 df 84 be 30 b6 a4 bd 58 a4 52 be 0f e1 00 be
       -0.25951922 -0.08042562 -0.20570505 -0.12585853
000330 5c 6e 3a bb 6d 90 a0 be d6 92 cf 3d 46 cc 49 be
       -0.0028447127 -0.31360188 0.101354286 -0.1970683
000340 bd 28 7a be 31 45 c4 bc 00 8c d3 bd 7b 54 27 be
       -0.24429603 -0.023958774 -0.10329437 -0.1634082
000350 a3 fc a9 3d 5c 65 27 be 11 c7 7b 3e af 4a 91 3e
       0.0830014 -0.1634726 0.24587657 0.28377292
000360 53 6d 2f bd 61 f5 92 3e f0 b6 8b be 82 f0 84 be
       -0.04282887 0.28702834 -0.27288008 -0.25964743
000370 60 c8 5a 40 27 4d 3d 40 a9 50 59 bf 33 52 3d 3e
       3.41848 2.957834 -0.848887 0.18488388
000380 72 b1 0e bb fe ab c9 3c ba 4c 2f be 2d a7 96 bd
       -0.0021773246 0.024618145 -0.17119113 -0.07356105
000390 9a 76 84 3d 0f a7 81 be 44 11 8c be b1 0a 97 be
       0.06467934 -0.25322768 -0.27356923 -0.29500344
0003a0 d7 54 6d bd 5d 1a 71 bd 2b 3e 3e 3e a2 68 8a be
       -0.057942238 -0.058863033 0.18578403 -0.27032954
0003b0 ca 64 19 3e 40 c5 5a be 25 3f 39 be fa cc 43 3e
       0.14979854 -0.21364307 -0.18090494 0.19121161
0003c0 fe 93 39 be 38 46 b0 be e2 58 8e 3e 96 52 e6 3d
       -0.18122861 -0.34428573 0.27802187 0.11246221
0003d0 ff 00 25 bb 66 d1 b6 3c c4 c5 d7 3d 03 fb 9f be
       -0.0025177596 0.022316646 0.10535768 -0.31246194
0003e0 17 8a 6f 3e b7 3e 81 bd 4d 47 37 40 b5 d9 33 40
       0.23392521 -0.0631079 2.8637269 2.8101628
0003f0 e7 c8 f5 bf ee ae cd bf e3 f5 32 be 8c a3 94 3e
       -1.9201936 -1.6069009 -0.17476611 0.29031026

net.0.bias f4 [64]
000000 72 bd 4d 3e 2c 66 23 be 5b 6d 59 be 56 59 82 be
       0.20091799 -0.15956944 -0.21233122 -0.25458783
000010 95 b0 99 be f8 00 db be 1f f5 7f 3d 1d ae 82 be
       -0.30017534 -0.42774177 0.062489625 -0.25523463
000020 bd 6f 0b bd 51 14 8d be 20 66 65 be 14 4d b2 3e
       -0.03404211 -0.27554563 -0.22402239 0.3482443
000030 95 f8 86 be 0e 1a 80 be 21 c9 a9 3d fc 2d d5 bc
       -0.26361528 -0.25019878 0.082903154 -0.026022904
000040 d2 97 8e bc 38 f3 72 3d 84 55 6c 3e c3 12 0e 3e
       -0.017406378 0.059313983 0.23079497 0.13874345
000050 d8 74 07 be 09 35 56 be 87 10 be 3e 6b 7a 34 3e
       -0.13228166 -0.20918669 0.37121984 0.17624824
000060 b5 6b 68 3e 18 ec 15 3c ef 91 8c 3e d7 5f 0d bd
       0.22697337 0.009150527 0.27455088 -0.034515228
000070 70 96 d8 3d 12 71 89 bd cf ef 91 be ff 6f 64 be
       0.10575569 -0.067110196 -0.28503272 -0.22308348
000080 48 c7 80 3e 30 dd 8c 3d cb 37 c4 be 2b 3b ec 3b
       0.2515204 0.06878126 -0.38323817 0.007209202
000090 2c 65 ca be c8 2c ae be 73 4e ab be 77 a4 2a 3e
       -0.39530313 -0.3401854 -0.3345829 0.16664301
0000a0 d2 bf 9c bd 22 ee 5a 3e 2e 8d 3c bc a3 be 91 3e
       -0.07653774 0.21379903 -0.011508269 0.28465757
0000b0 ca f1 bd 3d ee 8c 13 be 7d 36 1c 3e 43 97 5a be
       0.09274633 -0.14409229 0.1525516 -0.21346764
0000c0 06 08 24 3e 2e 80 55 be 90 38 bb 3d f7 bd 63 bd
       0.16018686 -0.20849678 0.09141648 -0.055601086
0000d0 cd 69 93 be 58 32 c6 be b6 4f a7 be 9e f2 fa 3d
       -0.28791657 -0.38710284 -0.32678002 0.12253307
0000e0 ae 8f 9d be 46 d4 53 3e 50 07 66 be 55 45 41 3e
       -0.3077368 0.20686445 -0.22463727 0.18874104
0000f0 e2 13 ba bd 42 d4 ed bd 8c 41 21 3e 66 35 af 3e
       -0.090858236 -0.116127506 0.1574766 0.34220427

net.3.weight f4 [64, 64]
000000 33 03 57 3c 3a aa 6b bd 9e fc a8 3d f1 2b bc 3d
       0.013123321 -0.057535388 0.08251308 0.09188069
000010 12 47 30 be 80 b8 29 3c e2 45 9c 3d 5c 0d f9 3d
       -0.17214611 0.01035893 0.076305166 0.12160751
000020 18 fb ac 3d 0c ab 07 3d e0 78 81 bd 68 53 e3 3d
       0.0844633 0.033122107 -0.06321883 0.11099893
000030 b8 0f ea 3c 82 1a fb bd 24 51 49 bd 4b b7 91 3c
       0.028571948 -0.12260915 -0.049149647 0.017787596
000040 22 04 c3 bd 29 af 99 3c f8 7f 86 3d ec a3 1c 3e
       -0.09522273 0.01876028 0.06567377 0.15296906
000050 d8 5f 88 3d 92 00 e5 bd c9 9d 6e 3e 10 28 b9 bc
       0.06658906 -0.111817494 0.23302378 -0.022602111
000060 6a 4f 0d 3c 02 d3 ea bc 2c 77 52 3e e7 24 33 be
       0.008624891 -0.02866507 0.20553273 -0.17494546
000070 97 64 d4 3d b9 43 93 3d f4 9c e0 bd 48 b4 6c be
       0.103707485 0.071906514 -0.109674364 -0.23115647
000080 c1 31 66 3d b4 4e 86 bc b1 46 ce 3c 65 9a 87 3c
       0.056199793 -0.01639495 0.025180193 0.016553113
000090 2b c2 1a be f9 0b b0 bc f3 c2 92 3d d3 ca 5b 3e
       -0.15113132 -0.021490084 0.0716609 0.2146409
0000a0 20 c7 ba bd 6e 75 bc 3d 5f fc d1 bd 3c b1 a9 bb
       -0.09120011 0.092020854 -0.10253214 -0.0051785987
0000b0 92 61 43 3d 47 4d 86 3d 13 5a 1c 3d 5e eb b5 3d
       0.047700472 0.06557708 0.03817184 0.08882783
0000c0 ae 89 fd bd a0 df 38 bd 70 dd 8d 3c 46 72 9a 3d
       -0.12379776 -0.04513514 0.017317504 0.07541327
0000d0 38 0d 22 3d 55 71 4d bd 96 77 d6 bd 00 7f 98 3c
       0.039563388 -0.05015691 -0.10472028 0.018615246
0000e0 da 8b fb 3d dc e7 8a 3d 82 f9 eb 3d 27 37 0d 3e
       0.12282534 0.06782505 0.11522199 0.1379057
0000f0 d9 73 d9 bd 80 02 08 3e 78 7d 38 3e ed 56 aa 3d
       -0.10617799 0.13282204 0.18016613 0.08317361
000100 47 4e 24 3d d0 73 06 bd 7c db 1c bd 7e 5c e8 3d
       0.040113714 -0.03282529 -0.038295254 0.113457665
000110 2c e1 7f be 47 24 1d bf c0 5c c9 3c 43 d5 ee 3c
       -0.2498824 -0.6138348 0.02458036 0.029154425
000120 5b 38 c4 3c a6 5f 03 bf e4 44 26 3d 2c 92 a7 3d
       0.023952654 -0.5131782 0.040593043 0.08182177
000130 f0 b1 35 bc 72 e5 65 be c4 63 86 3d 4f 27 20 3e
       -0.011089787 -0.22450808 0.065619975 0.15639995
000140 14 9a b0 bd f0 ec 25 bf de 0a f1 bd 4f 73 90 3d
       -0.08623138 -0.6481466 -0.11769651 0.07053243
000150 f0 33 39 bd 60 17 50 bd 66 f7 af 3d 40 42 aa 3d
       -0.045215547 -0.050803542 0.085921094 0.083134174
000160 c8 78 b0 3c 1c e0 12 be eb 1a 11 3d 96 ac 67 be
       0.021541968 -0.14343303 0.03542606 -0.2262443
000170 ad 05 cc bb 72 35 8c 3d b2 e7 ce 3d 95 4e 79 3e
       -0.0062262625 0.068461314 0.10102786 0.24346383
000180 b7 51 32 3d e8 b9 37 3e c6 74 4c bf c2 e0 ef be
       0.04353496 0.17942011 -0.7986568 -0.46851164
000190 9b f5 22 3e db 71 ac bd d6 0e bf 3c f6 74 1b 3d
       0.15914004 -0.08420154 0.023322504 0.03795334
0001a0 36 33 b0 bd 00 04 fa 39 3d 94 61 3e 98 5d d9 bc
       -0.08603518 0.00047686696 0.22029205 -0.026533887
0001b0 73 12 e3 bd 2c 11 74 3d c0 6d 27 bd be cb b5 3d
       -0.11087503 0.05958669 -0.04087615 0.08876751
0001c0 12 35 9a bd 4d 59 18 3e be 9c 71 3d f0 64 13 3d
       -0.075296536 0.14877816 0.05898737 0.035984933
0001d0 6c c4 6d bd 63 46 2f be f4 3a 8b bf b8 02 f3 3c
       -0.05804865 -0.17116694 -1.0877366 0.029664382
0001e0 cc 73 a5 bd 2a f8 6e 3d 80 f9 f8 3a 85 4c 16 3c
       -0.08078727 0.058342136 0.0018995255 0.009173517
0001f0 4e c6 a4 3e 84 39 bd 3d 42 aa 4e 3d df b9 db 3d
       0.32182544 0.09239486 0.05045534 0.107288115
000200 d7 15 c8 ba eb 58 b4 bd 18 37 fe bc dc 50 2b bd
       -0.0015265298 -0.08806022 -0.03103213 -0.04182516
000210 a2 1e 24 bd f9 b0 ed 3c 10 b0 13 3c a5 a8 1e be
       -0.040068276 0.029015051 0.009014145 -0.1549402
000220 6d 34 60 bd 27 12 e6 bc 2a 35 a1 bd 52 44 11 be
       -0.054737497 -0.028084828 -0.07871468 -0.14186218
000230 18 ce 54 bd cb 0b 21 be b8 c3 a1 bc 73 d7 05 be
       -0.05195436 -0.15727155 -0.019746646 -0.13070469
000240 5a 96 17 be fb 7f c5 bd b4 18 75 3d 3d cd 57 be
       -0.14803448 -0.09643551 0.05983801 -0.21074386
000250 c0 d9 26 bd 98 71 ac 3d 74 7c a2 bc 40 4e 4b 3c
       -0.040735006 0.08420104 -0.019834734 0.012408793
000260 2c e7 d4 bd 04 72 d3 bd 01 fe 35 3c 13 c9 eb bd
       -0.10395655 -0.10324481 0.0111079225 -0.11512961
000270 c6 8b fe bd 53 8d 84 3d 66 d8 e2 3d 6d 18 05 be
       -0.124290034 0.06472268 0.11076431 -0.12997599
000280 24 33 e9 3c 28 a0 21 bd 50 17 15 3c 3b df 64 bd
       0.028466769 -0.039459378 0.009099796 -0.05587695
000290 54 ae e8 bc 60 d2 1a bd e3 37 72 3c bb 15 c0 3c
       -0.028403439 -0.037798285 0.014783832 0.023447862
0002a0 78 fc df 3d b2 2e f2 3d 4b bd ad bc 0e 38 e5 3d
       0.109368265 0.11825313 -0.021208426 0.11192332
0002b0 e8 f2 38 bd 50 94 14 3d 4d 5a cc bc f0 1b 6e bd
       -0.04515353 0.036274254 -0.024945403 -0.058132112
0002c0 20 71 8c bc ac 6c b7 bd bd 60 46 3d 58 80 ac 3d
       -0.017143786 -0.089562744 0.0484321 0.08422917
0002d0 24 2c ee bd 08 6f fc 3b 81 4b c7 bd 02 2f bb bd
       -0.11629513 0.0077036656 -0.09731198 -0.091398254
0002e0 10 b7 05 3c 1b 82 a5 bd 50 ce 71 3d 80 3a 85 bd
       0.008161321 -0.08081456 0.059034646 -0.065052986
0002f0 b2 2c 15 be a6 e4 de 3b f5 6a bc bc 43 69 0a 3c
       -0.14567831 0.0068021594 -0.02300022 0.008447948
000300 aa 47 c0 bd 54 32 e6 bd a0 43 5b bc 59 56 cf bc
       -0.09388669 -0.11240068 -0.013382822 -0.025309728
000310 91 7f e9 3c 2b 30 03 be 4c 39 20 bd ca 7a 31 3d
       0.028503211 -0.12811343 -0.039117143 0.04332999
000320 b9 87 55 bd fc 17 12 3d 70 c7 ac 3c e4 6f 0a be
       -0.05213139 0.035667405 0.021091193 -0.13519245
000330 d0 5c 53 3c 49 76 9e 3d 0a d4 93 3d 90 56 f4 3c
       0.012900546 0.07737405 0.072181776 0.029826432
000340 5b c5 e9 bd e1 e4 0a 3b cc 8b 77 3d 96 fd 0b bb
       -0.11414596 0.0021193551 0.060436055 -0.0021360866
000350 e0 ad b0 3c e0 0a ca 3d 93 13 ab bd a0 dc 1a bc
       0.021567285 0.098653555 -0.08353343 -0.009452015
000360 d8 e5 c9 3c eb e3 c1 bd 82 fb 21 be 92 cb 3f bd
       0.02464573 -0.094673 -0.15818599 -0.046825
000370 7f 6d 1e be 60 11 bc bd 88 88 dd bd 8c 52 7b 3d
       -0.15471457 -0.091830015 -0.10817057 0.06135802
000380 49 4c a7 bd ea 4a 75 bd d2 d1 7a bd c3 fc 1f bd
       -0.08168847 -0.059885897 -0.061235256 -0.03905941
000390 3b af 6b bd 29 de 4f 3d d3 60 81 3c 57 ad 09 bd
       -0.05754016 0.050748978 0.01579324 -0.033612575
0003a0 f0 88 81 3c 60 de 71 3d 94 a3 ce bd 6d 94 48 bd
       0.015812367 0.059049964 -0.10089794 -0.048969675
0003b0 d7 5b a3 3c 8f 2e 2d be a5 76 14 be 60 62 e0 3b
       0.019941254 -0.16912292 -0.14498384 0.0068476647
0003c0 f0 3b ae bc 62 61 22 be 24 4d b4 3b d2 43 d8 bd
       -0.021268815 -0.15857461 0.00550236 -0.10559811
0003d0 ce 21 90 bd 71 06 8b bd bc 58 f9 bc 00 fa 45 bc
       -0.07037698 -0.06788338 -0.03043782 -0.01208353
0003e0 54 a4 9e 3d de b2 0e be 06 76 e5 3d 63 0a 51 ba
       0.07746187 -0.1393542 0.11204152 -0.0007974265
0003f0 09 44 02 be 53 4d 17 be ea 5e d9 bc 19 14 23 3d
       -0.12721266 -0.1477559 -0.026534516 0.03981409

net.3.bias f4 [64]
000000 a4 ec 02 3f a9 7f 6e 3b b1 7e a4 3c 8d 24 85 bc
       0.51142335 0.003639201 0.020079942 -0.01625278
000010 90 70 4e 3e 7b 31 0a 3f cb a1 5b 3e ae f6 45 3e
       0.20160127 0.5398175 0.21448438 0.19332382
000020 70 7e 5f be 93 5d 8b 3e 83 54 a2 3e a7 8a b8 3e
       -0.21825576 0.2721983 0.31705102 0.36043283
000030 a4 27 15 3f e5 8a ba 3e b2 20 0d 3e f3 10 24 3f
       0.5826361 0.36434093 0.13782004 0.6408836
000040 25 3d 05 3e 37 3d fd 3e fc b8 d8 3c 1e 7b 08 3e
       0.13011606 0.49460766 0.026455395 0.13328215
000050 01 8d 43 bd 2f 3b fc bd 74 dc 51 3d 32 e0 92 bd
       -0.047741894 -0.12315976 0.05123563 -0.07171668
000060 e8 d1 48 3d e2 9f 04 3e bc 45 7f bd 7c ad 9d 3d
       0.049028307 0.12951615 -0.062322363 0.07699105
000070 e0 e0 9e 3d 64 67 d0 3e 2b 98 70 3e b1 46 c4 3e
       0.07757735 0.4070388 0.23495547 0.38335183
000080 33 d5 07 3f 4f 67 e0 3e 40 e7 26 3e 91 46 17 3f
       0.5305969 0.43828818 0.16299152 0.5909205
000090 24 b5 4c 3e bb 25 be 3e 21 76 97 3d ff db 04 be
       0.19990975 0.3713816 0.07395578 -0.12974547
0000a0 ee f2 83 3e e7 57 c0 3e ee 87 72 3e cc d4 1c 3e
       0.25771278 0.37567064 0.23684666 0.1531555
0000b0 4e 24 bd 3e 04 2b ed 3e c4 b5 0b 3f 27 26 ad 3e
       0.3694176 0.4632188 0.5457423 0.3381817
0000c0 c1 8f d6 3e 32 1d 67 3e 2a 51 1c 3d 13 89 3b 3e
       0.4190655 0.22569731 0.03816334 0.18314008
0000d0 aa 6c de 3e 9b 4f c5 3e 56 3b 48 3e b1 a3 5e 3e
       0.4344228 0.38537297 0.19553885 0.21742131
0000e0 5c 5f 8e 3e 7a 66 12 3d 83 6a 7a 3e 94 d0 16 3f
       0.27807128 0.03574226 0.24454693 0.58912015
0000f0 58 05 1b 3f 57 c5 ad 3e 66 0a d8 bc 8c 49 4a 3e
       0.6055503 0.3393962 -0.026372146 0.19754618
