2_Party/shadow_model_data/shadow_minus_F_client1_bottom_inter.pt (torch, 21936 bytes, 4 tensors)

net.0.weight f4 [64, 10]
1.4660255 0.8850221 1.2498723 -1.0673152 -1.3040177 -0.9585532 0.66034067 0.7569605
0.74347985 -0.046626642 1.0445554 1.0518911 1.100556 -0.28712738 -0.23021935 -0.18088357
1.0144091 0.8483556 0.83255017 -2.6523983 0.007363034 0.13514432 -0.061074354 0.23420095
-0.28361937 -0.25400668 0.26820463 0.2789658 0.103640966 0.1026323 0.98312545 0.51853293
1.0871227 -2.0805936 -1.8961617 -2.1561434 -0.043206077 0.53692704 0.041550525 -0.098272294
1.665567 1.2186023 1.7223366 -0.15491624 -0.277758 -0.2519175 0.7744404 0.85524005
0.9651147 -1.8560356 -0.8512285 -0.7674146 -1.2853551 0.046910163 -0.12770095 0.42848656
-0.05380955 -0.14558221 -0.37669247 1.317038 -1.3159268 -0.91848373 -1.105703 -0.15769376
-0.16215114 -0.3405339 -0.5179794 -0.44927496 -0.88141865 -0.123523064 0.24780376 -0.2025487
0.12972797 -0.0068178936 -0.19844994 0.13364986 0.032115187 0.057526097 0.23352772 -0.22701208
0.79691976 0.47435197 0.87106925 0.36598235 0.7515513 0.7562438 -0.14718574 -0.4575619
-0.33615068 0.072495416 0.553432 0.5717924 0.31584775 0.7955343 0.9329318 0.8837292
-0.15949656 -0.5186404 -0.1623817 -0.06206968 -0.039396342 0.28050652 -0.05768175 -0.2707402
-0.047891274 -0.032050535 0.25930315 0.23349504 -0.25260383 0.2705667 -0.10321604 -0.305774
-0.12956335 0.029460581 0.03468844 -0.05315016 -0.26331204 0.025696883 -0.15642516 -0.07146938
0.1908409 0.101228975 -0.26675633 0.090083286 0.030776102 -0.11796016 -0.29095745 -0.2240872
-0.010003465 -0.024016602 -0.2549704 0.28593498 0.008099337 -0.12979889 -0.21223067 -0.1782039
0.19803275 -0.029081307 0.14606522 -0.11494555 0.032256626 -0.14446282 -0.27956957 0.26350003
0.16296428 0.24337395 0.26050723 0.23807006 -0.19793375 0.30074546 -0.1482525 0.07642963
0.018368078 -0.03858204 -0.082928605 -0.07134265 0.05939042 -0.04313139 0.21816577 0.1290956
0.6385593 0.41927055 0.37460178 0.86688554 0.97428566 0.6954618 -0.5558466 -0.03898638
-0.23082386 -0.15154225 1.5125672 1.8527437 1.8085957 -0.1711464 -0.5032234 -0.28271395
0.81187665 1.0871392 1.2381263 -1.147393 1.159136 0.9332255 1.1109011 -0.7118631
-1.0827444 -1.0663556 0.8731095 1.0059756 0.43523443 0.2379264 0.055709913 0.27999672
0.02775375 0.96575296 0.8772848 0.9694024 -0.47597843 -0.22097294 -0.2544089 0.5935736
-1.1288099 -1.323666 -0.9354792 -0.28401133 -0.38862553 -0.49078313 -0.41134772 -0.4066989
-0.55248946 0.16150625 0.008985224 0.31039283 0.117800325 -0.15133248 -0.22835301 0.018816035
-0.28696257 0.1391581 0.26142153 -0.042497884 0.13035922 0.2734008 0.16927242 0.31109813
-0.29975566 -0.30467647 -0.20661053 0.31310433 0.2110714 0.21569362 0.9971582 0.73566604
0.66489923 0.58444893 0.5592655 0.89806527 -0.17003067 -0.026648287 0.03624745 0.18608871
-1.0323324 -1.1166245 -0.99502856 0.05048311 -0.052300327 0.014583985 -0.3349318 -0.6187863
-0.32371974 1.1843712 -0.104557045 -0.22422606 -0.2862162 0.19787978 0.14296885 0.058070935
00000000: b9a6 bb3f cf90 623f d1fb 9f3f c99d 88bf
00000010: 0dea a6bf be63 75bf 160c 293f 2ac8 413f
00000020: b254 3e3f 94fb 3ebd feb3 853f 5ea4 863f
00000030: 05df 8c3f 5c02 93be 9fbe 6bbe 8b39 39be
00000040: 28d8 813f d52d 593f 0222 553f e5c0 29c0
00000050: 9b45 f13b 4663 0a3e 1a29 7abd 60d2 6f3e
00000060: 8f36 91be 2a0d 82be 1e52 893e 9bd4 8e3e
00000070: b741 d43d e230 d23d 1cae 7b3f 93be 043f
00000080: d626 8b3f 7228 05c0 6db5 f2bf 41fe 09c0
00000090: dbf8 30bd 0d74 093f e230 2a3d fc42 c9bd
000000a0: 4d31 d53f 29fb 9b3f 8775 dc3f 5da2 1ebe
000000b0: 4c36 8ebe 55fb 80be ba41 463f 03f1 5a3f
000000c0: c211 773f 9392 edbf 1cea 59bf 4975 44bf
000000d0: 8486 a4bf df24 403d 0ac4 02be 9762 db3e
000000e0: 6767 5cbd 8113 15be d6dd c0be b494 a83f
000000f0: 4a70 a8bf c021 6bbf ad87 8dbf 797a 21be
00000100: f30a 26be 765a aebe 4c9a 04bf 5e07 e6be
00000110: a7a4 61bf a9f9 fcbd 45c0 7d3e ed68 4fbe
00000120: 69d7 043e a368 dfbb 7636 4bbe 82db 083e
00000130: 378b 033d 7ca0 6b3d e421 6f3e db75 68be
00000140: ef02 4c3f 43de f23e 65fe 5e3f 0a62 bb3e
00000150: aa65 403f 3299 413f dcb7 16be 8e45 eabe
00000160: f11b acbe 7a78 943d b8ad 0d3f fd60 123f
00000170: ccb6 a13e 23a8 4b3f 9ed4 6e3f 143c 623f
00000180: 1153 23be 9ec5 04bf 6347 26be c73c 7ebd
00000190: 0f5e 21bd 8d9e 8f3e b343 6cbd 769e 8abe
000001a0: a429 44bd 6c47 03bd 62c3 843e 5319 6f3e
000001b0: 4a55 81be b887 8a3e ee62 d3bd 698e 9cbe
000001c0: 41ac 04be 5157 f13c 7715 0e3d fbb3 59bd
000001d0: d6d0 86be 4582 d23c eb2d 20be 8a5e 92bd
000001e0: cc6b 433e 2351 cf3d 4994 88be 967d b83d
000001f0: 2a1e fc3c 1995 f1bd 60f8 94be 1d77 65be
00000200: 93e5 23bc 77be c4bc 7b8b 82be 1266 923e
00000210: 15b3 043c 00ea 04be ff52 59be 157b 36be
00000220: 19c9 4a3e ec3b eebc 1f92 153e 9368 ebbd
00000230: 861f 043d 10ee 13be be23 8fbe 7ae9 863e
00000240: 1ce0 263e 0537 793e 3461 853e a3c8 733e
00000250: 25af 4abe 4ffb 993e 81cf 17be 2387 9c3d
00000260: a778 963c 3408 1ebd 79d6 a9bd 181c 92bd
00000270: 5e43 733d 8aaa 30bd d966 5f3e a331 043e
00000280: 9f78 233f a1aa d63e cecb bf3e 36ec 5d3f
00000290: c96a 793f c909 323f f64b 0ebf 2fb0 1fbd
000002a0: 175d 6cbe e42d 1bbe cd9b c13f b526 ed3f
000002b0: 1080 e73f 0041 2fbe 40d3 00bf e2bf 90be
000002c0: 26d7 4f3f 6127 8b3f ec7a 9e3f c6dd 92bf
000002d0: 925e 943f dee7 6e3f 0232 8e3f a93c 36bf
000002e0: 5e97 8abf 577e 88bf 1b84 5f3f cfc3 803f
000002f0: 0cd7 de3e faa2 733e 1430 643d bb5b 8f3e
00000300: d55b e33c 963b 773f bd95 603f c12a 783f
00000310: 72b3 f3be bb46 62be e241 82be 70f4 173f
00000320: d87c 90bf e36d a9bf 917b 6fbf ef69 91be
00000330: edf9 c6be ed47 fbbe 2b9c d2be d73a d0be
00000340: f36f 0dbf e561 253e c336 133c cfeb 9e3e
00000350: 4c41 f13d e7f6 1abe 5fd5 69be 1624 9a3c
00000360: c2ec 92be 767f 0e3e 0bd9 853e 4312 2ebd
00000370: e37c 053e 31fb 8b3e c055 2d3e 4148 9f3e
00000380: 9379 99be 8efe 9bbe b691 53be 364f a03e
00000390: 1a23 583e cade 5c3e c345 7f3f 9c54 3c3f
000003a0: d636 2a3f 729e 153f 062c 0f3f 9be7 653f
000003b0: 851c 2ebe 824d dabc 3578 143d 0a8e 3e3e
000003c0: 7823 84bf 8ded 8ebf 31ba 7ebf 61c7 4e3d
000003d0: de38 56bd abf1 6e3c 2e7c abbe c768 1ebf
000003e0: 98be a5be 7a99 973f 0122 d6bd 849b 65be
000003f0: ee8a 92be ffa0 4a3e 6d66 123e cadb 6d3d

net.0.bias f4 [64]
0.055554297 -0.042905696 -0.18363799 -0.04400203 -0.08248252 0.03582715 -0.05109108 -0.1514026
-0.027656397 0.013529169 -0.21227036 -0.13937 -0.21754739 -0.18296047 -0.24702972 -0.11078592
-0.0026980052 -0.10329196 0.04764959 0.026566757 -0.05939354 -0.25077853 -0.07088432 -0.035322104
0.053029317 -0.2912786 -0.093044765 -0.041627806 -0.27596706 -0.22540218 -0.10444291 -0.040087186
-0.021502404 -0.048681296 0.04747489 0.050483912 -0.20325609 -0.08220546 -0.08784158 0.042416606
-0.11825718 -0.122971155 -0.026760861 -0.25114706 -0.02969244 -0.13242017 0.047743525 0.020511677
-0.066871345 -0.08446724 -0.110106826 -0.12857726 -0.28010392 -0.018887838 -0.10291751 -0.26739058
-0.1411055 -0.31352806 -0.08566372 -0.1832703 -0.2628978 0.046116576 -0.2618976 0.0077640153
00000000: e78c 633d e2bd 2fbd 990b 3cbe 793b 34bd
00000010: 98ec a8bd 7dbf 123d e144 51bd 4809 1bbe
00000020: ab8f e2bc 73a9 5d3c 675d 59be 02b7 0ebe
00000030: bec4 5ebe fd59 3bbe 5cf5 7cbe bae3 e2bd
00000040: 04d1 30bb bc8a d3bd 372c 433d 87a2 d93c
00000050: a446 73bd 0b66 80be cc2b 91bd e9ad 10bd
00000060: 4535 593d 7822 95be 418e bebd eb81 2abd
00000070: 8e4b 8dbe d4cf 66be 2ae6 d5bd 7632 24bd
00000080: cf25 b0bc 0a66 47bd 0875 423d 38c8 4e3d
00000090: 5d22 50be 565b a8bd 49e6 b3bd 09bd 2d3d
000000a0: d230 f2bd 4dd8 fbbd 9839 dbbc 5996 80be
000000b0: 8f3d f3bc 2799 07be b78e 433d 1b08 a83c
000000c0: d8f3 88bd 29fd acbd b07f e1bd c2a9 03be
000000d0: c869 8fbe abba 9abc 6ac6 d2bd 6be7 88be
000000e0: f67d 10be c086 a0be 7670 afbd 36ab 3bbe
000000f0: 8a9a 86be bce4 3c3d 7117 86be 4869 fe3b

net.3.weight f4 [64, 64]
0.076838024 -0.012531056 -0.08834508 0.17719808 0.1764306 -0.42982456 -1.0544347 0.11608584
0.38224283 0.21015619 -0.09709878 0.056037232 -0.022228941 0.11538403 -0.045812055 -0.05538158
0.31054074 0.34936816 0.064339615 0.13190606 -1.0696151 -0.10731436 -0.052548483 0.480244
-0.25374386 0.0025142878 0.24378529 -0.5102197 0.104525656 0.11887355 0.26459023 -0.010916821
-0.00033154886 -0.088235125 -0.24947943 0.049564198 0.11305706 -1.1696613 0.1348458 -0.329184
0.10825814 0.059122816 0.30090213 -0.09764245 0.13121724 0.0107486695 0.20564425 0.08656404
0.57546836 0.21302459 0.42448977 0.0016275942 -0.07089953 0.12324012 0.57377124 0.10576315
0.10514215 0.098157 0.017246025 -0.014734 -0.0040790886 -0.37375093 0.07611528 0.27213615
0.5718014 -0.025595928 0.119325876 0.49624604 0.14518608 0.31973833 0.13555785 -0.088039756
-0.08030257 -0.02061591 0.0008122176 -0.12007305 0.035520032 0.08005363 0.08702521 -0.060257956
-0.04831782 0.14282924 0.6180206 0.012481995 0.21818241 0.061056167 0.037370726 -0.12867925
0.029785488 0.013958335 0.043503363 0.52076316 -0.0093009025 -0.11197989 -0.88262975 0.33732146
0.31793696 -0.089184776 0.074092135 0.5667979 -0.07094814 0.5843967 0.12474732 0.16379702
0.07656981 0.07672231 0.11378839 0.08255911 -0.23548077 -0.07300341 0.5640538 0.0066147046
-0.08758921 0.8012008 0.16872321 -0.10556005 -0.07551479 0.4300531 -0.3494291 0.028023645
0.11848149 -0.09777072 -0.07574895 -0.102299556 0.12208639 0.23514508 -0.11536358 0.06963853
-0.048618373 0.6795745 0.0043576807 0.2512223 0.86978436 -2.713586 -0.49588424 0.079836056
0.029099928 -0.06824668 0.06228517 -0.10782002 0.030185953 0.1169993 0.07020232 -0.08576806
0.006651517 0.6970575 -0.031612344 -0.04447481 -0.7275118 0.10618664 -0.11946027 -0.13059154
-2.1448374 0.037658572 0.72730166 -0.30020702 -0.0012618005 0.1233508 0.30420008 0.3931755
0.403196 -0.02368167 -2.500714 0.03168496 0.04790345 -1.6674081 0.81870365 -2.175208
-0.11960997 -0.09258254 0.10283979 -0.023616701 0.53029835 0.06899127 -0.1020012 0.103909075
-0.07351936 0.35981524 0.68857366 -0.10190646 0.017251253 0.3142388 0.3051075 -0.117162526
-0.06762047 0.11913842 -0.019075766 -0.016126066 -0.028195545 -2.528148 -0.041310027 -0.017296305
0.5316416 -0.050962053 -0.050299883 0.2901938 -0.049605876 0.35515097 0.45428854 0.012720153
-0.13327031 -0.0027387298 0.07623534 -0.015813991 0.09854077 0.03287074 0.08035022 -0.071301445
-0.03005816 -0.10726294 0.5615199 0.035354484 0.4903933 0.012493163 -0.10355444 -0.1547488
0.35588744 -0.06827745 -0.12750219 0.41128227 0.090744734 0.08894755 -0.69702834 0.27889803
0.25643572 0.08557376 0.269599 0.35921556 -0.01585351 0.5442795 -0.031816892 0.21273707
-0.11298944 0.029070318 0.015493713 0.11881283 -0.23082623 0.0068544894 0.57369906 0.100852564
-0.32426438 0.2693236 -0.043929465 -0.09303114 -0.07146211 0.34036785 -0.43792358 -0.009833202
0.116514504 -0.032299504 -0.0025609434 0.06440382 0.030399308 0.24978462 -0.046231925 0.04425317
00000000: 415d 9d3d 0f4f 4dbc 44ee b4bd 6a73 353e
00000010: 39aa 343e f711 dcbe b7f7 86bf 6abe ed3d
00000020: 55b5 c33e 2f33 573e badb c6bd 4c87 653d
00000030: 7819 b6bc 764e ec3d 6ca5 3bbd ccd7 62bd
00000040: 32ff 9e3e 62e0 b23e 7dc4 833d 6212 073e
00000050: 26e9 88bf a2c7 dbbd 143d 57bd 8be2 f53e
00000060: b7ea 81be c0c6 243b daa2 793e c29d 02bf
00000070: 8c11 d63d fa73 f33d 5f78 873e 77dc 32bc
00000080: bcd3 adb9 9eb4 b4bd 8977 7fbe d403 4b3d
00000090: 768a e73d 76b7 95bf 0415 0a3e ce8a a8be
000000a0: 72b6 dd3d c42a 723d d80f 9a3e c4f8 c7bd
000000b0: d05d 063e 301b 303c 6894 523e 7d48 b13d
000000c0: e551 133f 1e23 5a3e b956 d93e 0055 d53a
000000d0: c633 91bd 5165 fc3d ace2 123f 5a9a d83d
000000e0: c454 d73d 8a06 c93d 8947 8d3c e066 71bc
000000f0: e0a9 85bb 485c bfbe 54e2 9b3d 6e55 8b3e
00000100: 9461 123f 8dae d1bc 2061 f43d f613 fe3e
00000110: a9ab 143e beb4 a33e adcf 0a3e 304e b4bd
00000120: ac75 a4bd b2e2 a8bc 00eb 543a dce8 f5bd
00000130: 747d 113d 28f3 a33d 463a b23d 0cd1 76bd
00000140: e8e8 45bd d441 123e 9936 1e3f 4881 4c3c
00000150: 366b 5f3e 0816 7a3d 0c12 193d 7ec4 03be
00000160: b200 f43c 80b1 643c 9530 323d bc50 053f
00000170: d062 18bc b655 e5bd 06f4 61bf 66b5 ac3e
00000180: a2c8 a23e 82a6 b6bd 9ebd 973d ab19 113f
00000190: 424d 91bd 069b 153f 867b ff3d 68ba 273e
000001a0: a2d0 9c3d 9620 9d3d e309 e93d c014 a93d
000001b0: df21 71be d082 95bd d465 103f 2ac0 d83b
000001c0: f961 b3bd 7f1b 4d3f c7c5 2c3e de2f d8bd
000001d0: 80a7 9abd ec2f dc3e 5fe8 b2be d891 e53c
000001e0: 6ca6 f23d 043c c8bd 4422 9bbd 6e82 d1bd
000001f0: 6e08 fa3d dfc9 703e be43 ecbd a59e 8e3d
00000200: 0f24 47bd 98f8 2d3f e0ca 8e3b 36a0 803e
00000210: 30aa 5e3f 65ab 2dc0 8ae4 fdbe 1681 a33d
00000220: f962 ee3c eac4 8bbd bc1e 7f3d bed0 dcbd
00000230: 8848 f73c 549d ef3d 3cc6 8f3d 2aa7 afbd
00000240: f8f4 d93b 5c72 323f f27b 01bd 382b 36bd
00000250: 373e 3abf 6278 d93d 96a7 f4bd cab9 05be
00000260: 0445 09c0 e03f 1a3d 7130 3a3f bcb4 99be
00000270: 0063 a5ba 589f fc3d 1dc0 9b3e 4d4e c93e
00000280: b56f ce3e 1000 c2bc b30b 20c0 17c8 013d
00000290: 6836 443d a16d d5bf 9096 513f 9c36 0bc0
000002a0: 12f6 f4bd ea9b bdbd ab9d d23d d077 c1bc
000002b0: a2c1 073f 4c4b 8d3d 01e6 d0bd 48ce d43d
000002c0: 5191 96bd b439 b83e 5d46 303f 56b4 d0bd
000002d0: 8052 8d3c e8e3 a03e 0d37 9c3e e8f2 efbd
000002e0: 9a7c 8abd d8fe f33d c844 9cbc d01a 84bc
000002f0: 58fa e6bc 2dcd 21c0 b434 29bd fbb0 8dbc
00000300: aa19 083f 96bd 50bd 4007 4ebd 4894 943e
00000310: 882f 4bbd 59d6 b53e 8298 e83e 3068 503c
00000320: 0378 08be 437c 33bb 4621 9c3d 588c 81bc
00000330: becf c93d 78a3 063d a88e a43d 7e06 92bd
00000340: 883c f6bc acac dbbd c5bf 0f3f ddcf 103d
00000350: d514 fb3e 20b0 4c3c 5a14 d4bd 7876 1ebe
00000360: e136 b63e 0cd5 8bbd ef8f 02be 9793 d23e
00000370: 60d8 b93d 222a b63d 7370 32bf b9cb 8e3e
00000380: 8b4b 833e 4c41 af3d e108 8a3e 1aeb b73e
00000390: 38df 81bc e755 0b3f 6e52 02bd bfd7 593e
000003a0: 0267 e7bd e024 ee3c 58d9 7d3c 2454 f33d
000003b0: b65d 6cbe a09b e03b f1dd 123f ca8b ce3d
000003c0: fb05 a6be c8e4 893e 62ef 33bd 1c87 bebd
000003d0: ba5a 92bd b244 ae3e 8537 e0be 701b 21bc
000003e0: 289f ee3d 7c4c 04bd 80d5 27bb 26e6 833d
000003f0: f807 f93c 8ac7 7f3e b05d 3dbd d042 353d

net.3.bias f4 [64]
0.14397144 0.14353214 0.14853446 0.17088099 0.09565022 0.0750648 0.29376495 0.26597244
0.20618834 0.2116606 0.11803148 0.19647941 0.25895473 0.11322955 0.16161056 0.1545165
0.19067343 0.12091539 -0.122931644 0.096016794 0.1319146 0.081553355 0.13521975 0.18079793
0.12495012 0.18918768 0.26642817 0.12733261 0.15736409 0.214072 0.09703336 0.3235999
0.16602588 0.19235489 0.11894337 0.1241734 0.24633282 0.103312336 0.10134533 0.077378646
0.19441748 0.16809255 0.30186027 0.104558386 0.086238764 0.0648256 0.2023039 0.14987618
0.10964936 0.09881635 0.09376515 0.119700216 0.16674927 0.34809622 0.23106542 0.1974788
0.2334913 0.123884186 0.02395561 0.1182568 0.38004056 0.15909918 0.1431884 0.19934392
00000000: 406d 133e 17fa 123e 6b19 183e 6dfb 2e3e
00000010: 43e4 c33d 93bb 993d 5c68 963e 8a2d 883e
00000020: 0923 533e 8ebd 583e 7dba f13d e631 493e
00000030: b795 843e e5e4 e73d 3d7d 253e 9339 1e3e
00000040: e53f 433e 7da2 f73d 96c3 fbbd 74a4 c43d
00000050: 9f14 073e 7205 a73d 0c77 0a3e 1823 393e
00000060: d9e5 ff3d 6aba 413e 4669 883e 7b63 023e
00000070: 0d24 213e b135 5b3e 6db9 c63d e3ae a53e
00000080: b002 2a3e aef8 443e 9598 f33d a04e fe3d
00000090: ac3e 7c3e 6b95 d33d 248e cf3d b278 9e3d
000000a0: 6015 473e 7420 2c3e 6e8d 9a3e b522 d63d
000000b0: f39d b03d 49c3 843d c128 4f3e 2479 193e
000000c0: d88f e03d 3a60 ca3d f107 c03d 6325 f53d
000000d0: 52c0 2a3e ab39 b23e 6a9c 6c3e e237 4a3e
000000e0: 5818 6f3e feb6 fd3d 8e3e c43c 9f30 f23d
000000f0: ad94 c23e e5ea 223e fb9f 123e d020 4c3e
