2_Party/shadow_model_data/shadow_minus_F_client1_bottom_inter.pt (torch, 21936 bytes, 4 tensors)

net.0.weight f4 [64, 10]
00000000: c2b0 f0bf 18ad d9bf db06 5b3f b1bb 2b3e
00000010: 4682 4abe 385b 97bd f60a 0fbe 3d84 edbd
00000020: 7d43 e33c 3871 193e 01b6 883e ea40 59be
00000030: 9515 eebc 1f0f e5bd 3793 fdbd b12f 2e3e
00000040: 17d4 eb3d a1eb cbbd d812 8cbe 64c8 e53d
00000050: d148 e5bf 1780 f3bf 4738 993f cf12 8a3e
00000060: ec99 8fbe 333b f53d 7edc 9fbd 3a4c f43d
00000070: 898d 17be cee9 81be 6f3b ffbd 90cf 98be
00000080: 60bc 1e3e dd2b 99be 77ce 56bd 0ca8 6d3d
00000090: 9b6c 293e 5929 4bbb e785 913d c0c7 70be
000000a0: dd65 a13d 1b62 543d 88e1 2bbe cbfb 513d
000000b0: 8ac6 acbc d5f1 873d faee bc3d eb87 2cbe
000000c0: d4aa 8e3e b312 60be f093 c63e ec13 bb3e
000000d0: e869 34bf f71c e4be a392 783e f9f4 0f3e
000000e0: b581 0f3d 7830 6b3e ec64 d2b9 c654 533e
000000f0: 62bf 4cbf a67e 60bf c3d7 72bf a84c c7bf
00000100: f2be ae3e 3389 833e e0ba dfbd fec8 9c3e
00000110: ca47 273e ddca 913e 35ce 053e 4b7e b4bd
00000120: 4312 113d a4d7 93bd c4a6 3a3e eb46 623e
00000130: aa48 c33d 4624 8ebe bf94 733e 9c19 1a3d
00000140: 8f5f a4bf efa6 95bf fe5e b03f 91e3 9b3d
00000150: ea28 20be ae65 76be 4000 58be b304 923d
00000160: ea6f d2be bf22 3abd 5d6e 92bf d1ae 86bf
00000170: dfb7 ae3f 705c 0b3f 3841 b1be 7147 c33c
00000180: ab15 b8bd 0019 75be 5686 7e3e 954c bfbe
00000190: 477f 2abe 2db8 9abe dd75 913e 24cf 263e
000001a0: d8a0 7d3e 1de2 a63d 5500 3c3e 083f d23d
000001b0: f76f bebd 84e8 76be 3333 8b3e ef26 af3e
000001c0: 9752 16bf d39d 59bf ea09 293e 9efd 8b3d
000001d0: e587 3f3e afbc e13d 7025 883d 46db 8b3e
000001e0: a859 8abf 9587 66bf aa74 a63e f570 043e
000001f0: 2b69 b6be 2552 6a3e 97b3 9fbe 4aee 1c3c
00000200: bca7 73be 8d9a e4bd 05be f93d 4c3f ea3c
00000210: 3570 6fbe 5110 89bb f49f 043e 66bd 87bc
00000220: d9eb 823e a2b5 99be 3a2b 4bbe 82e0 22be
00000230: 677a bb3d 84d9 16be c594 3d3e 0fc0 ac3c
00000240: 5e9d cf3d 1720 6d3e fee0 3abe 49e2 65be
00000250: 763f 0cbe bd5a 9e3c 68e6 21bf 8a09 26bf
00000260: d3ba 493f f5ad 90be 3ebf 84be a4e2 a5be
00000270: 4c12 f73c a256 6cbd 2fd3 7cbe 6878 cbbd
00000280: d69c 033f e08c d33d ed42 d53e 28fc 64bd
00000290: 33b7 4c3e a90e 92bd 65cb acbe d4e0 3c3d
000002a0: 0e07 b6be d1c4 973c 6e0c 423d 485c 193f
000002b0: e89d 683f 074a 453f 175a a8be 59d1 a3be
000002c0: 4f0b 87be ca80 f4be be7f 2dbd 58e6 ecbe
000002d0: a0a9 96be 0d5e 9a3e 9a75 193e 882a a6bd
000002e0: 8730 9b3e 5f11 2f3e b7c4 96bd ba1a 7e3e
000002f0: 8b4d 033e 20b0 61be b48e e73e a018 f43e
00000300: 32c4 c1bf 01c0 01c0 37d1 143e 2c02 c83d
00000310: 50bf c73e 8508 433e 0aaf 203e 8937 ba3e
00000320: 98d7 99be e566 78be 4786 ed3e f286 a83e
00000330: aa60 b2be d7b9 eabd 7e9a 73be 1940 a6be
00000340: cf8f 18be 9e11 dabe d652 18bd 656e fdbd
00000350: 812a 33be 4025 773e a126 8d3e ca15 8f3e
00000360: cccd 96bd 3c71 3dbe 0b20 dcbd e3f6 9a3e
00000370: 4a06 a9bf 4c61 c9bf 0727 813f dd92 20bc
00000380: 7c82 213e 1b32 87be 4b21 3cbe 954b 2b3e
00000390: a584 a3bd 5b02 d8be ac05 863f 150a a53f
000003a0: 8066 d7be b4ca a0bd 9b67 dbbd b344 6bbe
000003b0: 2afb 44be b9fa f9be 4202 c63d 23c7 1abe
000003c0: 4c07 303e f197 423e a214 36be d29c 893d
000003d0: 0d4d 263e 2270 66bd 080c aabd daf8 0fbe
000003e0: d6ad 09bd 05c2 d03d dc1e b73f 41d4 aa3f
000003f0: 9835 e8bf ef99 f4bf fb3b c73e 69c8 18be
-1.8803942 -1.7005949 0.85557336 0.16770817 -0.19776258 -0.073904455 -0.13969025 -0.11597488
0.027742142 0.14984596 0.26701358 -0.21216169 -0.029063025 -0.11184525 -0.12381595 0.1701038
0.11515062 -0.09957052 -0.27358127 0.11219862 -1.7912847 -1.9023465 1.19703 0.26967475
-0.2804712 0.11974182 -0.078057274 0.119286016 -0.14800085 -0.2537369 -0.12462508 -0.29845858
0.15501547 -0.29916278 -0.052442994 0.05802159 0.16545336 -0.0030999987 0.07105618 -0.23513699
0.07880757 0.051851373 -0.16785252 0.05126552 -0.021090765 0.06637923 0.09225269 -0.16848724
0.27864707 -0.21882133 0.38784742 0.36538637 -0.704741 -0.44553348 0.24274687 0.14058293
0.035035808 0.22967708 -0.00040129514 0.20637807 -0.79979527 -0.8769325 -0.94860476 -1.5570269
0.34130055 0.25690612 -0.109243155 0.30622095 0.16335979 0.28475085 0.13066943 -0.08813151
0.035417806 -0.072188646 0.18227679 0.22097366 0.09535344 -0.2776205 0.23787211 0.03762208
-1.2841662 -1.1691569 1.3778989 0.07611764 -0.15640607 -0.24062225 -0.21093845 0.071298026
-0.4110101 -0.045443293 -1.143993 -1.05221 1.3649863 0.54437923 -0.3462007 0.023837777
-0.08988508 -0.23935318 0.24855933 -0.37363115 -0.16650115 -0.3021864 0.28410235 0.16289955
0.24768388 0.081485964 0.18359502 0.102659285 -0.09298699 -0.24112135 0.271875 0.3420939
-0.5871977 -0.85006446 0.16507688 0.06835483 0.18704183 0.11022317 0.06647766 0.2731573
-1.0808611 -0.9005063 0.32510883 0.12933715 -0.35627112 0.22882898 -0.31191704 0.009578297
-0.23794454 -0.11162291 0.121944465 0.028594635 -0.23382647 -0.0041828533 0.12951642 -0.016569804
0.25570562 -0.30021387 -0.19840708 -0.15905955 0.09154206 -0.14731413 0.18513782 0.021087674
0.10137437 0.23156773 -0.1824989 -0.22449602 -0.13696083 0.019330377 -0.632422 -0.64858305
0.78800696 -0.2825772 -0.25927156 -0.32399476 0.030160092 -0.057699807 -0.24689935 -0.09935075
0.5141119 0.10329604 0.41652623 -0.055904537 0.1999176 -0.071317025 -0.33748928 0.04611285
-0.35552257 0.018526467 0.047375135 0.59906435 0.90865946 0.7706608 -0.32881233 -0.31995657
-0.26375815 -0.47754508 -0.042358153 -0.46269488 -0.2942629 0.3014988 0.14986268 -0.08113581
0.3031046 0.1709647 -0.07361739 0.24814883 0.12822549 -0.22039843 0.4522606 0.47675037
-1.5137999 -2.027344 0.14532934 0.09766039 0.39013147 0.19046219 0.15691772 0.36370495
-0.30047297 -0.24258001 0.46391508 0.32915455 -0.34839374 -0.114612274 -0.23789403 -0.32470778
-0.14898609 -0.42591566 -0.037188374 -0.12374572 -0.17496683 0.24135303 0.27568534 0.2794631
-0.073634714 -0.18500227 -0.10748299 0.30266485 -1.3205044 -1.5732818 1.0090035 -0.00980064
0.15772432 -0.26405415 -0.18372075 0.16728051 -0.07984284 -0.42189297 1.0470481 1.2893702
-0.4207039 -0.078511626 -0.107131205 -0.22975425 -0.19236436 -0.488241 0.096683994 -0.15115027
0.17190284 0.19003274 -0.17781308 0.06719364 0.1624033 -0.056259282 -0.08303076 -0.14059773
-0.03361305 0.10193256 1.4306293 1.3346025 -1.8141356 -1.9109477 0.3891295 -0.149202

net.0.bias f4 [64]
00000000: a5ea fb3d dfcf 8a3e c0c3 6f3e 63c0 2ebe
00000010: 6761 903e 68d1 b93d 8a1d 57be b11e 153e
00000020: 97c0 81bd 0fc7 1e3e 0802 033e fb28 b73d
00000030: 8ed3 823d 3d1c 6abd 3742 083e ed9b 673d
00000040: d9c3 b33e 67c9 863d 7d61 563e a7e8 913d
00000050: 3b9c 883e f826 8abe f661 703e 3e49 97bb
00000060: 068e b43d 4223 a0be f9a7 cc3e 9036 49bd
00000070: 02e9 3b3e 509a 20be 0e41 44be 5ee2 243e
00000080: 443f cbbd 6af3 0dbe cba4 373e 57a1 3dbe
00000090: 95b7 bc3c bb2a 3ebe 7395 733c a1ee 27be
000000a0: 2375 d33d 6445 7b3d b4f0 64bc b9ab 9abe
000000b0: aab3 b23d 5bb2 2bbe 4e7c 9cbe e647 2d3e
000000c0: 9ffa e4be 6729 083e b53b 61bb e81d 1b3d
000000d0: a8a4 403d 2107 89be f124 95be 58d4 d93e
000000e0: f424 89be 8f97 a7bc 8b52 31be 1033 60be
000000f0: 95e5 f53d e9e8 8b3e 5571 28be 695a 6e3e
0.12300614 0.27111718 0.23414516 -0.17065577 0.28199312 0.09073144 -0.21007362 0.14562489
-0.06335562 0.15505622 0.12793744 0.08943363 0.06388007 -0.057155836 0.13306509 0.056545187
0.35110357 0.06581383 0.20935626 0.07124453 0.26681694 -0.26982856 0.23474869 -0.0046168854
0.08816151 -0.312769 0.39971903 -0.0491243 0.18350604 -0.15683866 -0.19165441 0.16101977
-0.09924176 -0.13862386 0.17933957 -0.18518578 0.023036757 -0.18570988 0.014867174 -0.16399623
0.103250764 0.061345473 -0.013973404 -0.3020914 0.087256745 -0.16767256 -0.30563587 0.16921958
-0.4472246 0.13297044 -0.0034367864 0.037870318 0.04703203 -0.2676325 -0.29129747 0.42544818
-0.26786005 -0.020458011 -0.17316644 -0.21894479 0.1200668 0.27326134 -0.16449483 0.23276676

net.3.weight f4 [64, 64]
00000000: cc1d 883d d227 9dbd 21af e13d a006 833b
00000010: 2207 92bd 7142 2ebe b582 ecbd 3a91 eabd
00000020: a4b7 babc 9ba8 4b3d 40a4 d7bd 3dd6 a6bd
00000030: 8336 ebbc e01b e03c e002 94bc 661a 63bd
00000040: 8728 0fbe 2f83 abbe a9ce 383d f36c 203b
00000050: abda c4be 303e e5bd 9fde 77bd 0da4 64be
00000060: e6f1 c93d 4dc5 1ebe a1ae 5a3d 6432 24bc
00000070: 345e 033e e803 0e3d 5f04 d13d 3478 d9bd
00000080: e85d 023d e0e6 5ebc 801e edbc 1fcd 2dbd
00000090: 3425 d23d 9850 0b3d 76c5 eebd f586 e93c
000000a0: cc2e 5dbe 345e 0bbd 0cf1 86bd ac8f 63bd
000000b0: 6edc 013d a454 e0bd 101f d1bd b84f 1bbd
000000c0: 25c2 063e 7c1e 96bd 881c 38bd 9e6f e73d
000000d0: e7b2 cdbc 4f48 d73d 805e ae3d 51d3 8ebe
000000e0: 7e5f 313e d63d 3e3c 687f 56bd 523b ebbd
000000f0: e39b d23d c9aa 5a3b be7c 81bd b27f a63d
00000100: e5bf 013d c2ef de3d fdd0 b23c 8072 df3b
00000110: 3499 a63d 90a3 9c3d ae68 2b3e cae2 ee3d
00000120: 88fa f9bd 11c0 82bd e00c 593c 3216 143e
00000130: 4f1e d3bc d8b0 913d 20f8 bf3b c1ef 33bd
00000140: 59c9 a0bd c24b 12bf 692a 0a3d 6714 713e
00000150: 23a2 05bf a645 f93d 5f44 46bc 0f49 28bf
00000160: f09b 59bc b501 833e e4e0 4dbd 8507 60bd
00000170: fcfe c6bd a84c c9bd c5a3 173e 4c78 a6bd
00000180: 0ad4 ebbd a0d1 b63b c059 853c 9c70 98bd
00000190: 8b0b 353e bcc4 0cbd 9eaa d2be 4e32 af3d
000001a0: e677 743e 2082 e73d c01e c33d 58ef 953c
000001b0: bf49 053e a664 b33d e7c0 3c3e 6fce 54bd
000001c0: 796a 183e f014 64bc 0cf1 033d 704b c13c
000001d0: 4048 6bbd b135 a9bd 98af cdbc ad4e 34bf
000001e0: bd77 253b 008d 763e 6041 7b3d 10bf 043c
000001f0: 3210 8a3d a61c d3bd 8075 8cbb 42cd 8fbd
00000200: bdbe de3c 4046 bd3c 9a8e acbc c2e1 913d
00000210: 50f2 e63c 1ee8 5a3e 01a5 0e3e ea52 c1bd
00000220: 5ac6 86bd 4afd e23b e08a b7bb fcc1 743e
00000230: 5a1c 97bc c8b4 00bd 3081 79bc 3498 41bc
00000240: 5f16 9abd 16bf 11bf 24c1 6b3d 73fb 713e
00000250: a74e 07bf 5ee8 833d 1454 25bd e505 d8be
00000260: 246e 183d f79f 8b3e fb90 12bd a982 bf3c
00000270: e59b af3c 8eb0 923d 77ab 813e 66fb 993d
00000280: 7011 f5bd 1603 c73d e4bd 80bd 2ec6 1fbd
00000290: a79f 013e 3efe d63d 23bb ccbe 80ee 503d
000002a0: d3db 233e 707d bdbc 9a73 e93d d226 ccbd
000002b0: 5e8d 133e 6cf4 3ebd 4fe3 4d3e 4f0e c13b
000002c0: c569 253e d096 ed3d 2444 f43d 8465 fe3d
000002d0: bda0 99bd 0644 ad3d 00f1 54bd adcc f1be
000002e0: 2fe5 973d e25d 1c3e 48a0 d7bd a074 e3bb
000002f0: b139 f13d 65c5 cdbc 5a47 d7bd 4866 5bbd
00000300: f02f 513d d427 c03d 1cbd 673e 60f8 fd3c
00000310: 8ca4 a3bd dba4 0fbe 65b5 a63c 5870 663d
00000320: 39fa 043e d3fe b83e 44ea 73bd 3404 07be
00000330: 5a29 6a3e bc70 2abd 7878 4a3d 41cf 7e3e
00000340: 3617 7cbc 7597 493d f5c5 ea3d a407 abbd
00000350: af46 013e 0444 81bd 9b66 3d3e 0c26 063d
00000360: 2a9f e1bd a429 9dbd e8b7 623e 15af db3d
00000370: 859c 883d a09d 6f3d c494 603d 44b1 54bd
00000380: c8e4 acbd 5086 3abd 28fb ee3c 6909 53bd
00000390: a1e1 823d 54be d43d 45fe 893c a650 7ebd
000003a0: 34aa 993c deb9 8dbd 68c9 9f3c 20a9 86bd
000003b0: aae9 0cbd 6847 bf3c d304 3cbd 4859 b53d
000003c0: e444 9d3c f08a fe3d a4a9 353d f469 9cbd
000003d0: edca 8fbd cad3 233d b067 d5bd 7126 623d
000003e0: 2e7d a1bd a855 37bd d000 2e3d f097 b73c
000003f0: 6b8c 103d 5d26 273e 28ef d63d b0be 883c
0.06646308 -0.07673611 0.11019731 0.0039985925 -0.07130267 -0.17017533 -0.11548368 -0.11453481
-0.022792645 0.04972134 -0.10529375 -0.081463315 -0.028712517 0.027357042 -0.018067777 -0.055445097
-0.13980304 -0.33498523 0.04511896 0.0024479001 -0.3844808 -0.11193502 -0.060515042 -0.22328205
0.098605916 -0.15504952 0.053389195 -0.01002178 0.12828904 0.034671694 0.10205912 -0.1061863
0.031827837 -0.01360485 -0.028945208 -0.042431947 0.10261002 0.034012407 -0.116587564 0.028506735
-0.21599883 -0.034025386 -0.06588945 -0.055556938 0.03170436 -0.10953644 -0.10211003 -0.037917823
0.13159998 -0.07330033 -0.044949085 0.11300586 -0.025109721 0.10511839 0.08514118 -0.27895597
0.17321584 0.0116114225 -0.052367598 -0.11485924 0.10283639 0.0033365956 -0.06322621 0.08129825
0.031677146 0.10885574 0.021828169 0.0068190694 0.0813469 0.076483846 0.16739151 0.1166435
-0.12205988 -0.0638429 0.013247699 0.14461592 -0.025771288 0.071138084 0.005858436 -0.04392982
-0.07850904 -0.5714685 0.03373185 0.23542939 -0.52200526 0.121714875 -0.012101262 -0.6573648
-0.013281807 0.2558724 -0.0502633 -0.05469467 -0.09716603 -0.09829074 0.14808567 -0.081284136
-0.115150526 0.0055791885 0.016278148 -0.074433535 0.17680185 -0.034367308 -0.41145796 0.08554517
0.23873863 0.11304116 0.095273495 0.018302605 0.13016413 0.087594315 0.18432961 -0.051954683
0.14884366 -0.0139210075 0.032212302 0.023595542 -0.05744195 -0.08262194 -0.025108144 -0.7043255
0.0025248372 0.24077225 0.061341643 0.0081021935 0.0674137 -0.10308199 -0.004286468 -0.07021572
0.02719056 0.023104787 -0.021064091 0.07123138 0.028191715 0.21377608 0.13930131 -0.09439643
-0.06580801 0.006927167 -0.005601272 0.23902124 -0.018446136 -0.031422406 -0.015228555 -0.011816073
-0.07523798 -0.569322 0.05755724 0.23631077 -0.5285439 0.06440805 -0.040363386 -0.42191997
0.037214413 0.2727048 -0.035782795 0.023377733 0.021436641 0.071625814 0.2532613 0.075186536
-0.119662166 0.097173855 -0.06286219 -0.03900736 0.12658559 0.104977116 -0.39986524 0.0510087
0.16001825 -0.023131102 0.113990024 -0.09968342 0.14409396 -0.046619818 0.20106243 0.0058915983
0.16153629 0.11601031 0.11927059 0.12421706 -0.075013615 0.0846024 -0.051987648 -0.47226468
0.0741676 0.15270188 -0.10528618 -0.006941393 0.11778582 -0.02511854 -0.10511656 -0.05356434
0.051071107 0.093825966 0.22630733 0.031002223 -0.07990369 -0.14027731 0.020350168 0.056259483
0.12986077 0.36131915 -0.059549585 -0.13185197 0.22867337 -0.041611418 0.049431294 0.24883749
-0.015386393 0.049216706 0.114635386 -0.08351067 0.1262462 -0.06311801 0.18496172 0.032751128
-0.11016686 -0.07673958 0.22140467 0.107267536 0.06670479 0.058499932 0.054829374 -0.051926866
-0.08442074 -0.045538247 0.029172495 -0.051522646 0.063906915 0.10387865 0.016844878 -0.06208863
0.018757917 -0.06920217 0.019505218 -0.06575227 -0.034402527 0.023349479 -0.04590304 0.0885492
0.019197889 0.12428844 0.044351235 -0.076373965 -0.07021127 0.0399969 -0.104201674 0.05521244
-0.07885204 -0.044759423 0.042481244 0.022411317 0.035290163 0.16323228 0.10494834 0.01669249

net.3.bias f4 [64]
00000000: b8e8 ce3d c042 8f3e 17e7 3c3e 8f5b c43e
00000010: d0c8 7b3e ae8a 913e 7244 803e 7cc5 aa3e
00000020: efec c83e 8bdb 113f 7e03 053f d1a2 cc3e
00000030: 88f8 5e3d 2afc a23e f54d 163f 1989 ed3e
00000040: 246f 843e de43 a43e b394 da3e e3b5 ae3e
00000050: f662 d63e dccc 4f3d 1979 b33e 7110 a13e
00000060: 4728 613e 5e76 1b3f 1947 923e 2070 023f
00000070: 8e14 3d3d da79 033f 997c cb3e 565d ea3e
00000080: a8e0 823e b25b 573e de12 a13e 9763 c53e
00000090: 986b 083d 884c 893d ad0f 053f 733e bd3e
000000a0: 381d 6b3e 77eb 453e 96db c43e 7cc5 b23e
000000b0: e07e 893e 249c 953e 649b d83e 7d32 f03e
000000c0: e7fc bd3e c04f c73e f6fa 1b3e 36f9 a63e
000000d0: 7b1d bb3e 7bd5 b8bd 5f9c 033e eefe 523e
000000e0: 25c5 213e dca9 483e 0c4a 523e 9607 093c
000000f0: ebeb 8b3d b32f 8f3e 0018 16be 2a8b 473e
0.10102981 0.27980614 0.18447529 0.38351104 0.24588323 0.28426117 0.2505222 0.33353794
0.39243266 0.5697562 0.51958454 0.3996797 0.054436237 0.3183301 0.58712703 0.4639366
0.25866044 0.3208303 0.42691574 0.34123144 0.41872376 0.05073248 0.35053328 0.31457856
0.21988021 0.6072749 0.28569868 0.5095234 0.04616218 0.51357806 0.39743498 0.45774335
0.25562024 0.21031073 0.31459707 0.38552544 0.033305734 0.0670405 0.51977044 0.36961707
0.22960365 0.19328104 0.3844878 0.34916294 0.2685461 0.29220688 0.42306054 0.4691352
0.37107012 0.38928032 0.15232453 0.32612008 0.3654593 -0.09025093 0.1285262 0.2060506
0.15797861 0.19596046 0.20536059 0.008363625 0.06832107 0.2796608 -0.14657593 0.1948668
