2_Party/shadow_model_data/shadow_plus_F_client1_bottom.pt (torch, 21880 bytes, 4 tensors)

net.0.weight f4 [64, 10]
00000000: 9736 823f 3684 ce3f 9292 863f 2ac8 b3bf
00000010: bb27 79bf 70f7 b8bf 072c b73e 9749 a73e
00000020: ab29 80bd 0ff9 3b3f 27ef ff3c ff7b 3f3e
00000030: 4533 4ebd e2f4 a83d bac1 b73d e379 b1bd
00000040: 7acd a2bd 9b72 0ebe 5667 59bd b437 4cbe
00000050: 5de7 62bd 0918 963e 51c5 3bbe 2e44 133e
00000060: e196 c13d cc55 433e c9bc 1dbd 3c4a cebd
00000070: 64c1 923e 3120 473e 6a8c 903d ab81 823e
00000080: 15c0 293f 6310 afbf fef5 82bf f993 52bf
00000090: 820a 003f 9492 293f 838d 4a3f 6821 8b3e
000000a0: fdf7 93bf ea8e 50bf bcfc 93bf f2e3 23bf
000000b0: efea 08bf 19bb e9be b1b1 2abe 766f 983e
000000c0: 6922 513e 2e84 b3be 1c8a c03f 5773 e43f
000000d0: 528c be3f 8b12 cdbf f573 a6bf 8208 7dbf
000000e0: b505 13bd 4aff 77bd b1d9 cdbb 1b15 13bf
000000f0: eb53 93be 3bb4 363e 82f8 9c3e 1a3d d63d
00000100: 1e58 dc3d 7efc 72be ae5b 303c 99dd 633e
00000110: 7f83 13be d616 793e 48fe 66bf f755 e8be
00000120: ddf4 74bf a154 00be 0524 80be 0aeb 3abe
00000130: 8539 0fbf 382b 2dbf 983d 1ebf 09b1 c6be
00000140: 78c1 1dbf a518 4fbf 4d6b 40bf 6b89 c3be
00000150: 3978 e1be c3bc 3cbe fdfb 4bbf e9fc d9be
00000160: bfbb 54bf fa7b c33e b2db 9c3e 0fe1 98bd
00000170: f708 7d3d c7f4 54be e158 7ebc 6bca 873e
00000180: 8d7c 93be 6b30 b73d 45a3 e1bc 6e3e 653e
00000190: a80d 3c3f 292d 8d3f 4436 a13f 2469 91bf
000001a0: 5bf1 85bf 4e0e 86bf 44a2 d43e 5968 283f
000001b0: 3222 c23e 325c a4be e253 753e 1d44 e43d
000001c0: f45c 463e 6a02 6fbf eab4 87bf 1516 81bf
000001d0: ccc7 193f 6ad0 623f 5754 ac3e 2e23 213f
000001e0: 574d 21bf 99b6 b3be de6f adbe 8e72 cd3e
000001f0: 8d33 303e 8560 de3e 5029 d5be 95fe 06bf
00000200: 47d0 e5be 399b 6f3e bf4f adbf 2762 79bf
00000210: df79 aebf 50f5 ccbd b5db e6be 3942 cfbe
00000220: 482e 8dbe 09e2 cdbe 517c 22bd fd1d a8be
00000230: 9853 91be 4243 8bbe 34ac dbbe 4c3e 6e3f
00000240: 1db2 7c3f da08 843f 02be d1be 2a00 0dbe
00000250: 7863 fdbd 33ac 53be a8a4 603f 0825 363f
00000260: fe70 0f3f 4797 2b3f 8702 293f 1ce8 673f
00000270: 532a 0fbf ff79 2cbf af45 0abf 0422 433e
00000280: 2cbb 25be 27c3 2cbe b425 1b3e a727 1abe
00000290: 6091 733e 5c8f 8fbd a09b 96be 3665 80be
000002a0: 427e 453d b332 d53d d210 91be 2d5a 5dbf
000002b0: e41f febe 14e6 17bf 8da1 2dbf 8669 77be
000002c0: 6fa1 0dbf 904f 2abf 2d0a 53bf 4997 cc3e
000002d0: 20c0 823e b39f 623d 87e9 8b3e 7c0d 30be
000002e0: 0f57 07bd 642a 5cbe a488 7dbe 671e 8dbe
000002f0: bbb6 49ba 2277 9dbb 3a99 40bf d7dc 4cbf
00000300: f884 31bf a8e2 adbe 4a79 e7be bd58 88be
00000310: 11b1 70bf 839f c9be 1326 4ebf 4bca b43e
00000320: f60d fcbc 9573 88be 27af 3b3e 63de 97bd
00000330: 65da b13c 1f5e 383e b229 913e 8782 553e
00000340: e429 263d da19 a43d cf84 6dbe 6dfc 1abd
00000350: d288 70bc 390b 4fbe 4df8 9e3c cd20 fa3d
00000360: 0511 133e 27e2 9c3d 2fd6 8cbe c755 d8bd
00000370: 99a5 6c3e 00bf 053e 6a20 6f3e dd49 3ebf
00000380: 2c5c 44bf f761 87bf 6b89 953e 8369 043f
00000390: 747a 373f 0959 d63e a238 9c3d 387a d1bc
000003a0: ba34 903d 7338 cb3d 84cb 0bbe c20a 2dbe
000003b0: b61d b53d 38f5 8bbe 6cbe 10bd ffe9 973e
000003c0: 2106 1fbf 9e0c 57bf cda4 45bf 44f9 11be
000003d0: d36b bd3e bbb8 083e 8a15 e8be e40a aabe
000003e0: bf61 5ebf 4581 a23f b24a 4d3f 5e64 a03e
000003f0: 4ffe f73e 8288 59bf 25bf 75bf caa4 a0bf
1.017291 1.6134098 1.051348 -1.404546 -0.9732625 -1.4450512 0.35775778 0.32673332
-0.062579475 0.7342691 0.031241966 0.18699645 -0.050341863 0.08249833 0.08972497 -0.08665826
-0.07949348 -0.13910906 -0.053077064 -0.19943124 -0.055396426 0.29315212 -0.18336989 0.14381477
0.09452606 0.19075698 -0.038510118 -0.10072753 0.2866317 0.19445874 0.07058032 0.25489554
0.6630872 -1.3676876 -1.0231321 -0.8225704 0.50016034 0.66239285 0.7912218 0.27173924
-1.1560055 -0.8146807 -1.1561503 -0.6401969 -0.5348348 -0.45650557 -0.16669346 0.29772538
0.20423283 -0.35061783 1.5042148 1.7847699 1.4886572 -1.6021284 -1.3004137 -0.98841107
-0.035894115 -0.060546197 -0.0062820544 -0.5745408 -0.28774962 0.1784219 0.30658346 0.10460873
0.107589945 -0.2372913 0.010764046 0.22252502 -0.1440563 0.24325117 -0.9023175 -0.45378086
-0.9568613 -0.12532283 -0.2502748 -0.18253723 -0.5594714 -0.6764407 -0.61812735 -0.38806942
-0.61623335 -0.8089698 -0.7516373 -0.3819078 -0.44037035 -0.18431382 -0.7968138 -0.42575768
-0.8309898 0.38180524 0.30636364 -0.074648015 0.061776128 -0.207965 -0.01552412 0.2652162
-0.28805962 0.08944782 -0.027543673 0.22387096 0.7345834 1.1029407 1.2594686 -1.1360211
-1.0464281 -1.0473115 0.4153005 0.6578422 0.37916714 -0.3210159 0.2395778 0.11145804
0.19371396 -0.9336306 -1.0602086 -1.0084864 0.6007049 0.88599265 0.33658096 0.62944305
-0.63008636 -0.35100248 -0.3387441 0.4012646 0.17207165 0.43433014 -0.4163308 -0.5273221
-0.44885466 0.23399056 -1.3539962 -0.97415394 -1.3630942 -0.10007727 -0.45089498 -0.4048021
-0.27574372 -0.40211514 -0.03966934 -0.3283538 -0.2838409 -0.2719975 -0.42904818 0.9306381
0.9870928 1.0315201 -0.40965277 -0.13769594 -0.12372488 -0.20671158 0.87751245 0.71150255
0.5603179 0.67027706 0.6601948 0.90588546 -0.55923957 -0.6737365 -0.5401258 0.19055945
-0.16184682 -0.1687132 0.15151101 -0.15054189 0.23785925 -0.070097655 -0.29415607 -0.25077218
0.048216112 0.10410061 -0.28333145 -0.8646572 -0.49633706 -0.59335446 -0.6782463 -0.24161348
-0.55324453 -0.6652765 -0.824374 0.3995917 0.25537205 0.055328082 0.27326605 -0.17192644
-0.03304201 -0.21500546 -0.24759156 -0.27562258 -0.00076947705 -0.0048054615 -0.75233805 -0.80024475
-0.6934352 -0.33961987 -0.45209724 -0.26630202 -0.9402018 -0.3937951 -0.80526847 0.35310587
-0.030768376 -0.26650682 0.18328534 -0.07415464 0.021710584 0.18004654 0.28352123 0.20850573
0.040567294 0.08012743 -0.23195194 -0.03783839 -0.014681058 -0.20219125 0.019405508 0.122132875
0.14361961 0.07660323 -0.2750716 -0.10563236 0.23110045 0.13061142 0.23352209 -0.74331456
-0.76703143 -1.0576771 0.29206404 0.517235 0.71671224 0.41864803 0.07627989 -0.025570974
0.07041307 0.09922876 -0.13651854 -0.16898635 0.088435575 -0.27335525 -0.03533785 0.29670712
-0.62118727 -0.8400363 -0.7720459 -0.14255244 0.36996326 0.13351719 -0.45328933 -0.33211434
-0.868679 1.26957 0.801921 0.31326574 0.4843621 -0.8497392 -0.9599479 -1.255029

net.0.bias f4 [64]
00000000: f4dd 113d f03b 75be e38f efbd 8bdc e03d
00000010: 32a9 02bd b7ce 673d 18b6 47be 3ca0 d5bd
00000020: f0d2 43bc 0b8f 70be a26c 743d 1873 e73d
00000030: 486d 47be b9c2 19bc 192c 353d bee1 8abc
00000040: a6b4 88be dcf3 c5bd a1d2 89be add4 5cbc
00000050: d25f 2bbe 8d6c 88be 5178 bf3d d477 aabd
00000060: c847 893d 3b4f a93d 198f 1a3d a374 afbd
00000070: 9824 13bd 2afb 70be 5a28 783d 14f5 843d
00000080: ed26 a9bd c579 89be 8814 983d 09c8 153d
00000090: 60f2 753d ab4f 6b3d 5cea b53c f340 283d
000000a0: 6ec5 983c c3a6 833d 2d44 a43b 471e 7bbe
000000b0: d063 033d c0b5 2cbe 3e09 763d 440c 9cbd
000000c0: 3bfe 7dbd 8df3 06be 7016 073e 2142 54be
000000d0: 0c40 d13c da9a 433d 4f78 5abe b140 65be
000000e0: 082d 20bd 74e8 d3bd 2315 cdbd 184c 973d
000000f0: a2be e2bd 3134 48be 9650 50bd bfaf 7f3d
0.03561206 -0.23948646 -0.11697366 0.10979565 -0.03189964 0.056593623 -0.19503057 -0.10430953
-0.011952147 -0.23492067 0.059673913 0.11301249 -0.19475281 -0.009384804 0.044231508 -0.016953345
-0.26700324 -0.09665653 -0.2691851 -0.01347844 -0.16735771 -0.26645318 0.093491204 -0.08323637
0.06703144 0.08267065 0.037734125 -0.085671686 -0.03592357 -0.23533311 0.060585357 0.064920574
-0.08259378 -0.26850715 0.07425791 0.03656772 0.0600456 0.057449024 0.022206478 0.041077565
0.01864883 0.06428292 0.00501301 -0.24523269 0.03207761 -0.16866207 0.060067408 -0.07619527
-0.06201003 -0.13178845 0.13192153 -0.20728351 0.025543235 0.0477551 -0.21334957 -0.22387959
-0.039105445 -0.10347071 -0.10013797 0.073875606 -0.110715166 -0.1955116 -0.050858103 0.062423464

net.3.weight f4 [64, 64]
00000000: 7995 753e d037 5ebd 18f0 8dbd e330 82bc
00000010: e24c b43e 7c61 3b3e 981a 4cbd 26e4 0c3f
00000020: e324 9d3e f674 ef3d 44b3 643e e25f 9a3d
00000030: df39 953d 7aac 8e3e 516a 273b f05b 44bd
00000040: f4c3 313d 190a 3b3f 4e5e 9f3d 1b33 db3e
00000050: a87a ae3c c23d 81bd ed31 3b3e 7417 38bd
00000060: c973 ad3e 29d0 6c3e 0c5e e1bd 20de 9abc
00000070: d8b4 703c c03e 3c3c 1f0f d63e 112c b73e
00000080: 80a7 6e3c a072 173d 05e8 b63e 1b57 97bd
00000090: 245a cb3e 17f1 1f3e 2ce1 963e 931c 62bd
000000a0: 26d4 2d3e 7910 9a3e 6ef5 ba3d 6876 963c
000000b0: 9287 91bd 6611 783d c9c7 e53e 2254 233c
000000c0: 6cf7 d8bc 53f8 ec3d 5764 063e ac44 5bbd
000000d0: 11db 063e 0716 633e 7ca2 013d b8b0 95bd
000000e0: 9871 edbc 03d1 f33b 75ae c13f 21cc ae3e
000000f0: a61c 28be e812 203d 2dca 6fbb 849c 923e
00000100: ccd5 103e cc76 cabd 304d 7cbc 600e c73c
00000110: 52ce 9cbf cdb1 9c3e 200f ce3b 05d9 b1be
00000120: 4487 6bbf 9641 99bd 4b58 243e 285a 903c
00000130: 3128 9cbe 71bf 70bf 38c1 a83d 2e40 b83e
00000140: bc87 c5bd 99f9 16bf 403c 033b 6fb0 42bf
00000150: f4ba 22bd 2082 b1bc b64d db3c 2e6f b63d
00000160: 05df d8bd cf9c a7bc d4b0 0d3e 9029 3dbc
00000170: 8a86 cd3e f01d 683d 781c 02be ed2d 2dbe
00000180: 6406 c1bd a03a 4d3c 780c 19be cae3 aa3d
00000190: aaca 76be aeea 80be adab 0a3e 47a6 1f3e
000001a0: e984 a93e 9747 8dbd 7f02 5fbf 24ee e13d
000001b0: c3bb b53d 2e41 98be 15f4 67be 896b 363f
000001c0: 1eaa 5d3f 8a7e 07bd be06 e2bd 1870 5f3d
000001d0: 7e1d 653e de9e 8f3e 70a9 bfbd 34f2 923d
000001e0: 1d42 203f 136b cc3e 7aac 93bf eb4d b7bd
000001f0: 16b2 b73e a8bb 57bd 176b 083f c5ae e33d
00000200: 4e81 a23e 22b7 97bd 1008 20bc c553 543e
00000210: 9327 dd3e 210d 223e 8e30 a43d dc81 c83e
00000220: be6a 803e e8dc e6bc b94b 903e 0e34 853d
00000230: 36f0 ea3d 1488 c73e 5da9 9dbc 7c59 0bbc
00000240: f0b5 9a3d 1b65 2c3f 0444 f03d 6138 d73e
00000250: 8efd ab3d d418 ffbd 8869 6d3d 989c 833d
00000260: 9afd 963e 2f3b 843e 0a03 2dbd ccbe 713d
00000270: dc84 d53c 10a1 1abc eaa5 253e 15b1 b53d
00000280: bebe 8c3d a8af d2bc be36 8a3e 922a 62bc
00000290: 7f42 6c3e ab0b cb3d 4416 153e c6f2 c7bc
000002a0: 13f4 de3d 4fef 2c3e 6c77 7d3e 0071 e8bd
000002b0: 6bf7 14bc 4541 873e 8624 6c3e 0e43 8c3c
000002c0: db59 e5bc d8f3 13bc 4f0d 4d3e bcf9 f3bd
000002d0: f052 253e 1754 623e c822 bebd 6e9b f9bd
000002e0: 9c86 73bb 634a 74bd f446 bc3f 95f7 103e
000002f0: 94e8 06be 94ea 95bd b52f 1a3c fa23 c23e
00000300: bc59 2a3e d8fb ffbd a070 c83d f0f5 f03a
00000310: 5ef0 e73e efd4 443e 9cd4 13bd cf01 153f
00000320: d227 d63e f036 5c3d 1689 b33e bbf0 6a3d
00000330: d763 283e 04dc e83e 9b4f ceb9 2c58 083d
00000340: 12b7 ee3d 6a49 2a3f fcfa 7d3d 53ea e03e
00000350: 7af5 933d d06e 5f3c 436e 173d f82c 483d
00000360: c4b8 f73e 9b00 4a3e fbf0 62bd f4c2 fcbd
00000370: e728 253d 0499 5cbd 2cf3 bb3e 71e7 033e
00000380: a01a cdbc 428d e3bd 8450 983e 28f6 08bc
00000390: 89a3 b43e d7cb 51bd 5136 723e e856 dabc
000003a0: 9c99 e33d 958a 943e a974 8a3e 80d7 82bb
000003b0: 57fd 8cbd c94d 043e c2ec 083f fed2 6c3d
000003c0: d5ba 833d ab89 983d d226 55bc be9e fd3d
000003d0: 34e3 323e bf5c 4d3e cceb 3abd d0b3 bfbd
000003e0: 12ab 173d beb7 993b 9891 d13f a32d 1d3e
000003f0: 095a 59be 50ab 143d fced 033d 4096 6c3e
0.239828 -0.054252446 -0.0693056 -0.015892452 0.35214907 0.18298906 -0.04983005 0.55035627
0.30692205 0.116922304 0.2233401 0.075378194 0.07286429 0.27865964 0.0025545547 -0.04793924
0.043399766 0.7306228 0.07781659 0.42812428 0.021298721 -0.063106075 0.18280764 -0.04494424
0.338774 0.23126282 -0.11004266 -0.018904746 0.014691554 0.01148957 0.4180841 0.35775807
0.014566302 0.03697455 0.35723892 -0.07389661 0.3971721 0.15619312 0.29468668 -0.05520303
0.1697546 0.30090693 0.09128843 0.018367007 -0.07105936 0.060563467 0.44878986 0.009968789
-0.026485167 0.115708016 0.13124214 -0.053532287 0.13169505 0.22176372 0.031649098 -0.07309097
-0.02898483 0.0074406876 1.5131365 0.34140113 -0.16417179 0.03908053 -0.0036589012 0.28635037
0.14144057 -0.0988594 -0.015399262 0.024298847 -1.2250464 0.306044 0.006288424 -0.34735885
-0.92003274 -0.07483213 0.16049306 0.017621115 -0.30499414 -0.94042116 0.082399786 0.35986465
-0.0964503 -0.58974606 0.0020024925 -0.76050466 -0.039729074 -0.021668494 0.026770454 0.089079246
-0.105894126 -0.020460514 0.13836986 -0.011545554 0.40141708 0.056669176 -0.12706172 -0.1691205
-0.09425047 0.012526184 -0.14946163 0.083442286 -0.24100748 -0.25179046 0.13542052 0.15590774
0.33109215 -0.0689842 -0.87113184 0.1103175 0.08873703 -0.29737228 -0.22651704 0.71257836
0.86587703 -0.03307966 -0.11036442 0.05455026 0.22374532 0.28050894 -0.093584895 0.07175103
0.6260088 0.3992544 -1.1537011 -0.089504085 0.35878056 -0.052669197 0.53288406 0.11117319
0.31739277 -0.07407977 -0.009767547 0.2073508 0.43194255 0.15825321 0.080170736 0.39161575
0.25081438 -0.028181508 0.28182772 0.06504069 0.11471598 0.38971007 -0.019245798 -0.008505221
0.07554233 0.67341775 0.11731723 0.420352 0.08397971 -0.124559075 0.05796197 0.06426352
0.29490358 0.25826403 -0.042239226 0.05901985 0.026064329 -0.009437814 0.16176572 0.08871666
0.06872319 -0.025718525 0.2699489 -0.013804095 0.23072241 0.09914335 0.14559275 -0.024407756
0.10886397 0.16888164 0.24752587 -0.11349678 -0.009092192 0.26416984 0.23060808 0.017121818
-0.027996948 -0.009030305 0.20024608 -0.119128674 0.1614492 0.2210239 -0.09283978 -0.12187849
-0.003715909 -0.059641253 1.4709153 0.14156945 -0.13174659 -0.07320133 0.009410788 0.37918073
0.16635793 -0.12499207 0.097871065 0.0018383842 0.45300573 0.19221853 -0.036091432 0.58205885
0.41827255 0.05376333 0.35065526 0.057358485 0.16444336 0.4548036 -0.00039350693 0.033287212
0.11656012 0.6651827 0.062006935 0.43928775 0.07224555 0.01363726 0.03697039 0.04887101
0.48383152 0.19726793 -0.055405598 -0.12341872 0.04032221 -0.053856865 0.36708963 0.12881257
-0.02503711 -0.11110927 0.2974893 -0.0083594695 0.35281017 -0.051219787 0.23653533 -0.026652768
0.11113283 0.2901198 0.2704213 -0.0039929748 -0.06884258 0.12920298 0.53486264 0.057818405
0.0643212 0.07448133 -0.013009744 0.12383793 0.17469484 0.20054911 -0.04563503 -0.093604684
0.03702838 0.004691093 1.6372557 0.1534944 -0.21225752 0.03629619 0.03220938 0.23104191

net.3.bias f4 [64]
00000000: 1622 e93d 5837 923e 01f8 223d 9b9c 8f3c
00000010: 343c 8c3e d9d5 a13d 0ed5 fc3d e116 b83e
00000020: 430a d43d 69b7 043e 86d4 a8bd c11d 2c3e
00000030: bd79 463e f225 ad3e aa88 843d b6fb 483e
00000040: e5c4 113e fb34 5c3e 2ddf 443d 09c5 303e
00000050: c902 3f3e d8bc 0c3e 4ca0 523e e751 053e
00000060: 81f5 353e 7459 b83e d7bb a53d 1c5d b33d
00000070: 65c8 5e3e 00e5 833e 2491 f93d 391c 7b3e
00000080: 7c9a b03d 4aea 6e3e d635 863e 960f c83d
00000090: 75da 363e 41c1 893e 6534 7b3e 5287 1e3e
000000a0: f002 093c bde9 093e 9ada 2e3d 02e1 193e
000000b0: 9c39 4d3d 79c7 093e 506e 053e 6224 d43d
000000c0: eb7e b93e 3358 1c3e bd17 7c3e 91b3 a93e
000000d0: 7cbf a63d 30ce 1e3e 7f03 453e d90d 7d3e
000000e0: 3713 e03d 4d3a b93e e42f 8a3e 2b62 243e
000000f0: 62a9 233e b23d 3a3e 2ac8 fb3d cf7c 953e
0.113834545 0.2855785 0.039787296 0.01753073 0.2738968 0.07902116 0.123453245 0.35954955
0.1035352 0.1296059 -0.08243661 0.16808225 0.19382377 0.33818012 0.06471379 0.1962727
0.14235266 0.21504585 0.0480644 0.17262663 0.18653406 0.13743913 0.20568961 0.13019525
0.17769434 0.36005747 0.08092468 0.087579936 0.21756132 0.2576065 0.121858865 0.24522485
0.086232156 0.23331562 0.2621295 0.09768598 0.17856772 0.26905254 0.24531706 0.15481308
0.008362517 0.1346807 0.042688943 0.1502724 0.05010377 0.13454999 0.13030362 0.10358502
0.36229643 0.1526802 0.2461843 0.3314481 0.081419915 0.15508342 0.19239615 0.24712314
0.10941165 0.36177292 0.26989663 0.16053073 0.15982583 0.18187597 0.12294038 0.29196784
