2_Party/shadow_model_data/shadow_plus_F_client2_bottom.pt (torch, 21880 bytes, 4 tensors)

net.0.weight f4 [64, 10]
-0.7275284 -0.639883 -0.9585161 -1.1914189 0.015852628 0.39208308 0.02973401 0.20587875
0.27247703 0.4156782 -3.3186054 -3.6100945 2.0088732 0.90588343 -0.28602463 -0.3600179
0.03345428 -0.1578736 -0.2978557 0.013516916 -1.1008368 -1.3868484 1.1471684 1.6072037
-0.27626038 -0.41848764 0.08145112 -0.27269644 -0.10202775 -0.20749564 0.057185728 0.2530197
-0.11768712 0.1723918 0.043143716 0.2883171 -0.21266522 0.11020903 0.17659768 -0.21006519
0.9865416 1.2483398 -1.1135926 -1.2895039 -0.011313482 0.38103792 0.2509681 0.41726658
0.2050325 0.22403167 0.23567945 -0.02642576 -0.044372912 0.040084206 0.039615136 0.055220757
0.19069192 -0.15681118 0.312277 -0.020106602 1.4051492 1.4786237 -0.79752785 -1.6212155
-0.001200681 0.07377555 0.38778865 0.30122146 0.2785409 0.17251132 0.026536025 -0.07638307
0.19671115 -0.06668537 -0.0798778 0.3039367 -0.16249393 -0.17187913 0.17574619 -0.23580638
-0.07734963 0.1288295 -0.11277852 -0.045971464 -0.11563107 0.24220824 0.08937133 -0.22122155
-0.030648611 0.058959726 -1.9035851 -1.6471702 -0.035818003 -0.8662269 0.14526701 0.13760018
0.018308867 0.14292789 0.04609624 0.25807112 -3.0877717 -2.790809 1.843501 1.4337193
-0.17607753 -0.17219895 -0.017939482 -0.21093097 0.13693345 -0.34912083 0.07307555 -0.21401228
-0.31437737 -0.09354005 0.19328707 -0.14956982 0.008220723 -0.16661228 0.14513165 -0.2894716
-0.123885915 -0.077205025 0.24165608 -0.059589382 -0.053516615 0.21169145 0.23128809 -0.05524609
0.01895284 -0.02947645 2.7340388 2.6462843 -0.83311504 -1.192335 0.32516602 0.14031678
-0.22309849 0.27583572 -0.054632418 0.10871121 -0.16804297 0.1855246 -0.28320393 0.018021679
0.10700748 -0.11441481 -0.11096241 -0.0046423455 -0.16414376 0.15726727 -1.3327303 -1.6478524
-0.988766 -2.117774 0.39497614 0.34142256 -0.07843052 0.30772707 0.4087195 0.22679707
-2.1040714 -2.0563579 -0.7486953 -1.5116987 0.16568743 0.004444442 0.24527526 0.19357087
0.19843623 0.36265805 -0.3006628 -0.29930043 -0.18267396 -0.023330173 0.06552214 0.106304996
-0.09098067 -0.004104707 -0.201915 -0.015238412 3.216888 3.1788595 0.15223789 -0.019768234
0.00022811587 0.038902417 -0.32249954 0.18053547 -0.32123566 -0.068919845 0.12781635 0.1694236
0.22096223 -0.09674858 0.23730703 0.09797861 -0.20582737 -0.14567868 0.14437231 0.0049829027
-3.2222314 -3.074449 1.3256893 0.6842402 0.09411365 -0.21086234 -0.42710257 -0.2449526
-0.27579153 0.17998283 0.23521896 0.28449297 -0.122896776 0.18882658 -0.114451036 0.27912775
0.08422114 0.28533092 -0.13457492 -0.009624019 -2.0295568 -2.0351322 1.6147037 1.1107539
-0.24152839 -0.42167264 -0.053178806 -0.07544268 -0.21479005 -0.16700561 0.21995354 -0.3217107
-0.88517004 -1.6450881 0.11609748 0.09886999 0.34853175 0.28927684 -0.023227733 0.32037514
-9.243375e-05 -0.16318446 -0.17971635 0.31012577 0.068900615 -0.0153368395 0.22552624 0.2471154
-0.05221685 -0.18854418 -0.28817865 0.06972256 -0.25073516 -0.15264525 -0.24218008 0.053469643
00000000: 4d3f 3abf 5fcf 23bf 5061 75bf 6a80 98bf
00000010: 5fdd 813c 1dbf c83e bd94 f33c e1d1 523e
00000020: 1c82 8b3e c6d3 d43e 0864 54c0 ca0b 67c0
00000030: 6191 0040 fae7 673f d271 92be 4454 b8be
00000040: 5b07 093d 9ea9 21be 8b80 98be 0e76 5d3c
00000050: 38e8 8cbf 4084 b1bf 6ad6 923f dab8 cd3f
00000060: 0072 8dbe 0344 d6be d8cf a63d de9e 8bbe
00000070: edf3 d0bd bd79 54be 953b 6a3d cc8b 813e
00000080: f205 f1bd 7a87 303e 77b7 303d 4d9e 933e
00000090: e9c4 59be 46b5 e13d 06d6 343e 541b 57be
000000a0: fe8d 7c3f 99c9 9f3f 348a 8ebf 770e a5bf
000000b0: 2f5c 39bc 6717 c33e e47e 803e f7a3 d53e
000000c0: 0af4 513e 8f68 653e f455 713e d67a d8bc
000000d0: 5fc0 35bd 562f 243d 7b43 223d 292f 623d
000000e0: be44 433e 1c93 20be c5e2 9f3e 9ab6 a4bc
000000f0: eedb b33f 8b43 bd3f c92a 4cbf fd83 cfbf
00000100: 2b60 9dba a317 973d 3c8c c63e b339 9a3e
00000110: ea9c 8e3e cfa6 303e 1462 d93c ba6e 9cbd
00000120: a66e 493e 5792 88bd f996 a3bd 979d 9b3e
00000130: cf64 26be 1501 30be cff6 333e 3a77 71be
00000140: 7c69 9ebd e1eb 033e 6df8 e6bd 934c 3cbd
00000150: fccf ecbd 7005 783e 5108 b73d e787 62be
00000160: cc12 fbbc c17f 713d ada8 f3bf 79d6 d2bf
00000170: e6b5 12bd 0cc1 5dbf e0c0 143e 10e7 0c3e
00000180: 7afc 953c b05b 123e 69cf 3c3d e621 843e
00000190: 0d9e 45c0 9d9c 32c0 d7f7 eb3f 1d84 b73f
000001a0: ab4d 34be ec54 30be d2f5 92bc 4afe 57be
000001b0: 4838 0c3e f7bf b2be a2a8 953d 0926 5bbe
000001c0: 12f6 a0be ed91 bfbd 0ced 453e d528 19be
000001d0: 36b0 063c 699c 2abe 649d 143e 9f35 94be
000001e0: e6b7 fdbd ab1d 9ebd b174 773e ff13 74bd
000001f0: 3d34 5bbd a5c5 583e c9d6 6c3e b949 62bd
00000200: fc42 9b3c 9978 f1bc 7efa 2e40 b95c 2940
00000210: 0747 55bf 6f9e 98bf 297c a63e 34af 0f3e
00000220: ee73 64be 573a 8d3e 3ec6 5fbd fca3 de3d
00000230: 7513 2cbe 29fa 3d3e 1b00 91be 33a2 933c
00000240: bd26 db3d 5052 eabd 4340 e3bd d11e 98bb
00000250: 4d15 28be ac0a 213e e896 aabf d4ec d2bf
00000260: c51f 7dbf 9c89 07c0 503a ca3e f0ce ae3e
00000270: 2ea0 a0bd 678e 9d3e af43 d13e 7e3d 683e
00000280: 1ba9 06c0 5e9b 03c0 7faa 3fbf 587f c1bf
00000290: f7a9 293e afa2 913b 7029 7b3e 7137 463e
000002a0: de32 4b3e 51ae b93e 79f0 99be e83d 99be
000002b0: e20e 3bbe eb1e bfbc 7930 863d 6fb6 d93d
000002c0: 1354 babd c780 86bb cec2 4ebe 88aa 79bc
000002d0: 7ee1 4d40 6f72 4b40 40e4 1b3e fef0 a1bc
000002e0: 6332 6f39 2458 1f3d a91e a5be 4ade 383e
000002f0: 0079 a4be d925 8dbd 4ae2 023e 617d 2d3e
00000300: ec43 623e 1f24 c6bd 9d00 733e 02a9 c83d
00000310: 69c4 52be cb2c 15be 56d6 133e 9e47 a33b
00000320: 0a39 4ec0 c6c3 44c0 30b0 a93f 5e2a 2f3f
00000330: a8be c03d 4cec 57be 30ad dabe dbd4 7abe
00000340: 8c34 8dbe 6b4d 383e 3ddd 703e 10a9 913e
00000350: 4eb1 fbbd c15b 413e 4e65 eabd d5e9 8e3e
00000360: 227c ac3d e516 923e 02ce 09be 10ae 1dbc
00000370: 42e4 01c0 9b3f 02c0 9cae ce3f 2f2d 8e3f
00000380: 3853 77be 7ae5 d7be 05d2 59bd b181 9abd
00000390: ecf1 5bbe 8503 2bbe 803b 613e 44b7 a4be
000003a0: 819a 62bf 3f92 d2bf 84c4 ed3d 597c ca3d
000003b0: c172 b23e 181c 943e 1648 bebc 3608 a43e
000003c0: fed8 c1b8 d419 27be 9007 38be cec8 9e3e
000003d0: c41b 8d3d 5e47 7bbc 5af0 663e d20b 7d3e
000003e0: 56e1 55bd ba11 41be 278c 93be b4ca 8e3d
000003f0: 5c60 80be 094f 1cbe 0efe 77be fc02 5b3d

net.0.bias f4 [64]
-0.44605154 0.06310074 0.114142045 -0.03760308 -0.12841351 0.088888355 -0.25645822 -0.044882655
0.021917505 -0.13344 0.38167763 -0.28497633 -0.23751715 -0.07380953 -0.22158287 -0.34604755
-0.30502975 0.04084825 0.1213286 -0.09962812 -0.1387634 -0.01713768 -0.03621739 0.12848508
0.20015582 -0.29957235 -0.08419318 0.03144214 0.22455512 0.041262623 0.28581208 -0.065953046
-0.23631272 0.2591463 0.2603348 0.16252859 -0.13417979 -0.01637853 -0.45351496 0.21767724
-0.23548707 0.16661322 -0.3722795 0.158104 -0.027193164 -0.15303177 0.036334913 0.21274935
-0.20926976 -0.29108262 -0.38502353 0.3816557 0.20532806 0.42300072 -0.168542 0.060156856
0.0777792 -0.0020248343 0.10872005 -0.3009619 0.0899544 0.1669637 -0.20129496 -0.23840703
00000000: de60 e4be f63a 813d 4ec3 e93d b005 1abd
00000010: d57e 03be 190b b63d 7e4e 83be e0d6 37bd
00000020: 578c b33c 7fa4 08be 406b c33e 6be8 91be
00000030: b237 73be 7329 97bd 9fe6 62be 252d b1be
00000040: dc2c 9cbe 7f50 273d 217b f83d d409 ccbd
00000050: fe17 0ebe 5264 8cbc b058 14bd 9891 033e
00000060: a6f5 4c3e 8c61 99be 796d acbd 79c9 003d
00000070: c7f1 653e ff02 293d f655 923e 6412 87bd
00000080: f6fb 71be d3ae 843e 9a4a 853e e56d 263e
00000090: 6d66 09be 442c 86bc 1d33 e8be c8e6 5e3e
000000a0: 8623 71be a89c 2a3e 6b9b bebe 04e6 213e
000000b0: 33c4 debc 5cb4 1cbe ebd3 143d f7da 593e
000000c0: d04a 56be c808 95be ce21 c5be 6068 c33e
000000d0: 8541 523e 8d93 d83e 4696 2cbe 0967 763d
000000e0: b44a 9f3d 15b3 04bb 9ea8 de3d ae17 9abe
000000f0: 033a b83d 88f8 2a3e 4420 4ebe f920 74be

net.3.weight f4 [64, 64]
-0.03417744 -0.05584716 0.039036825 -0.057923824 -0.13601358 0.06313354 -0.10437267 -0.11614855
-0.12344456 -0.119282566 -0.2334452 -0.034504518 -0.050730273 0.07611878 0.081270024 0.022881905
-0.25625286 -0.12075022 0.056725495 0.013014942 -0.088893555 -0.059868578 -0.058062773 -0.05057463
-0.041700378 -0.08505857 -0.27916417 0.12224953 0.061284333 -0.014262199 -0.050284997 -0.06773985
0.038754404 0.06386996 0.0979887 -0.079229966 0.076032944 -0.11502233 0.08871472 0.00041855918
0.06453611 0.058397695 -0.0023099582 0.046643957 0.09901793 0.07064934 0.069080055 0.095825106
0.074012555 -0.1099222 -0.24342133 -0.050507586 0.10796176 0.0009953284 -0.050418317 -0.3003966
0.046586163 0.029868424 0.04233767 0.0072713643 -0.109401375 -0.08761382 0.10482413 0.10730782
0.015777832 0.04518952 -0.00067200663 0.025527105 -0.14869235 -0.1188162 -0.06099886 -0.028022692
-0.0058507174 -0.049944423 0.08619585 0.0927771 -0.075435 0.06832305 0.10414247 0.16089715
-0.061384525 0.11214012 -0.045662977 -0.0964763 -0.0914087 0.01819031 -0.069434956 -0.021324871
0.102508634 0.055180237 0.023815501 0.0393361 0.01591137 0.009253293 -0.038902402 -0.018491156
-0.12648958 -0.074288785 0.04417731 0.120587975 0.04852331 0.07426791 0.046874832 -0.06852851
-0.035023257 -0.1249257 0.026544955 0.03152695 0.08983764 0.01412493 -0.0474967 -0.10621503
0.016287383 -0.043828696 0.0574265 0.068069324 -0.2938875 0.013567327 -0.098189324 -0.04240549
-0.16238452 -0.05159366 0.050567564 0.04563862 -0.11987218 0.028149799 -0.13638288 -0.08089067
0.09052576 -0.071738996 -0.0545082 -0.03733003 0.087654375 -0.0070230365 0.06632983 0.059991345
0.07562409 -0.08522424 -0.079608575 0.05858417 -0.020427883 -0.09173589 -0.05411789 0.17162265
-0.1331595 0.014572129 -0.18208367 0.033428505 -0.04584304 0.07217586 -0.18943541 -0.05656412
0.049546197 0.09528422 0.3845038 0.07984038 0.061305255 -0.120703414 -0.06653492 -0.32587442
0.19025807 0.02048114 -0.20497064 -0.07960789 0.0048657544 0.0913104 -0.04960579 -0.19660683
0.031467363 0.09240052 -0.01048616 -0.0151531035 -0.009288058 0.10233472 -0.005961868 0.067524925
0.11655452 0.048587933 0.029944528 0.044933856 -0.164444 -0.10331617 0.15054145 0.5131142
-0.20133549 -0.02630712 -0.2257776 -0.11661783 0.015529051 -0.07187699 0.059065297 -0.056345105
0.0101187825 0.0033046715 0.0031812955 0.1021658 0.0001787535 0.0804988 0.10660027 0.040676087
0.07694766 0.108875856 0.002256851 0.015031189 -0.0406882 0.14771067 -0.01919654 -0.036150236
-0.09715328 -0.108000875 0.15878145 0.056955963 0.13040651 0.11881451 0.22781207 0.095042944
0.06267026 -0.00026981533 0.1924266 -0.11747733 -0.049496055 0.029143497 0.11908387 -0.109453656
-0.051310804 0.006917502 0.14091438 0.08911976 -0.040131826 0.0141476095 -0.021793624 0.19247977
-0.022076756 0.05457981 -0.11287801 -0.06303057 -0.11423753 -0.118218094 0.038021505 0.07432087
-0.1401349 -0.0844342 0.0270241 0.0005558622 -0.037309017 0.15540418 -0.08778658 -0.037487604
0.038178418 0.064256355 0.16147795 -0.038538605 0.10327074 0.10717267 -0.020742847 0.07192384
00000000: a5fd 0bbd febf 64bd 14e5 1f3d 8841 6dbd
00000010: 2547 0bbe 284c 813d 57c1 d5bd 4adf edbd
00000020: 80d0 fcbd 6b4a f4bd 420c 6fbe 9c54 0dbd
00000030: 8cca 4fbd 2ae4 9b3d e670 a63d d572 bb3c
00000040: 9333 83be e44b f7bd fe58 683d a03c 553c
00000050: d30d b6bd c138 75bd 3bd3 6dbd 5827 4fbd
00000060: 04ce 2abd 3033 aebd 9bee 8ebe f65d fa3d
00000070: 4805 7b3d 00ac 69bc a4f7 4dbd 31bb 8abd
00000080: f0bc 1e3d 41ce 823d 4dae c83d 5243 a2bd
00000090: 29b7 9b3d d490 ebbd 10b0 b53d 1072 db39
000000a0: 822b 843d 6c32 6f3d ab62 17bb bc0d 3f3d
000000b0: eac9 ca3d 9ab0 903d d879 8d3d f43f c43d
000000c0: e593 973d e41e e1bd 7143 79be 0be1 4ebd
000000d0: 0e1b dd3d ae75 823a 7083 4ebd 95cd 99be
000000e0: 22d1 3e3d a0ae f43c 446a 2d3d a044 ee3b
000000f0: d40d e0bd e06e b3bd 09ae d63d 34c4 db3d
00000100: 8340 813c a518 393d 9a29 30ba 381e d13c
00000110: cf42 18be e855 f3bd f1d9 79bd d88f e5bc
00000120: 60b7 bfbb 8692 4cbd 7387 b03d ec01 be3d
00000130: aa7d 9abd f5ec 8b3d a648 d53d 39c2 243e
00000140: 576e 7bbd b8a9 e53d 1a09 3bbd 5e95 c5bd
00000150: 7c34 bbbd d803 953c ea33 8ebd 7fb1 aebc
00000160: 0cf0 d13d ac04 623d ba18 c33c e41e 213d
00000170: 9058 823c 209b 173c 2058 1fbd c47a 97bc
00000180: 7c86 01be b824 98bd 44f3 343d d4f6 f63d
00000190: 61c0 463d c619 983d d3ff 3f3d ad58 8cbd
000001a0: 8c74 0fbd 0cd9 ffbd ce74 d93c 6722 013d
000001b0: ccfc b73d 406c 673c e68b 42bd 4487 d9bd
000001c0: 1e6d 853c b885 33bd 0d38 6b3d ee67 8b3d
000001d0: 6c78 96be 7e49 5e3c 7c17 c9bd 61b1 2dbd
000001e0: 2148 26be e053 53bd ef1f 4f3d 90ef 3a3d
000001f0: 8c7f f5bd 689a e63c f4a7 0bbe 02aa a5bd
00000200: 9265 b93d e5eb 92bd fe43 5fbd 60e7 18bd
00000210: 2384 b33d 8021 e6bb efd7 873d 7cb9 753d
00000220: cee0 9a3d 0c8a aebd d209 a3bd f4f5 6f3d
00000230: 6058 a7bc 07e0 bbbd b8aa 5dbd d9bd 2f3e
00000240: f75a 08be f0bf 6e3c 2474 3abe 54ec 083d
00000250: e9c5 3bbd f0d0 933d 5bfb 41be c7af 67bd
00000260: f4f0 4a3d 6024 c33d afdd c43e 5a83 a33d
00000270: 381b 7b3d 5a33 f7bd 7643 88bd 03d9 a6be
00000280: 03d3 423e 10c8 a73c d3e3 51be 7609 a3bd
00000290: e870 9f3b f200 bb3d 712f 4bbd 4d53 49be
000002a0: ece3 003d 7c3c bd3d 25ce 2bbc b944 78bc
000002b0: f02c 18bc de94 d13d c65b c3bb 824a 8a3d
000002c0: 23b4 ee3d 2404 473d 3a4e f53c 900c 383d
000002d0: 0264 28be 6e97 d3bd 8a27 1a3e 745b 033f
000002e0: e42a 4ebe 0882 d7bc 3e32 67be 54d5 eebd
000002f0: 906d 7e3c 3e34 93bd 74ee 713d 20ca 66bd
00000300: 40c9 253c 3093 583b 487d 503b 4e3c d13d
00000310: c76f 3b39 8edc a43d 3e51 da3d f89b 263d
00000320: bc96 9d3d 4efa de3d ade7 133b 6045 763c
00000330: aca8 26bd 7741 173e 1042 9dbc 4512 14bd
00000340: 4df8 c6bd 902f ddbd 9b97 223e a84a 693d
00000350: 4989 053e 0655 f33d 9147 693e e0a5 c23d
00000360: 4459 803d 0076 8db9 7b0b 453e f497 f0bd
00000370: 60bc 4abd 58be ee3c 3ee2 f33d 3d29 e0bd
00000380: 472b 52bd 36ac e23b dc4b 103e 6c84 b63d
00000390: 4561 24bd 60cb 673c 8b88 b2bc 6b19 453e
000003a0: 50da b4bc 148f 5f3d 962c e7bd 2c16 81bd
000003b0: 5ef5 e9bd 541c f2bd 70bc 1b3d 8a35 983d
000003c0: 867f 0fbe d6eb acbd a561 dd3c 48b7 113a
000003d0: 57d1 18bd 4622 1f3e 73c9 b3bd 9a8c 19bd
000003e0: f960 1c3d d698 833d 7a5a 253e a8da 1dbd
000003f0: 9c7f d33d 587d db3d e7ec a9bc ce4c 933d

net.3.bias f4 [64]
0.22853228 0.09473204 0.21784215 0.39639324 0.5558805 -0.06810107 0.019186623 -0.1391509
0.38030478 0.37093127 0.29544678 -0.09623814 0.17250507 -0.019528966 0.32667938 0.24573502
0.43569666 0.5298103 -0.06684272 0.39392608 0.3249117 0.44912222 0.22891124 0.3231948
0.35367978 0.25067255 -0.008647739 0.5171791 0.46740398 0.2800119 0.37784114 0.36076468
0.28189325 0.31246066 0.29484588 -0.12988335 0.054424644 0.46904948 0.21181381 -0.0075423326
0.33878362 -0.056612063 0.3257174 0.30622497 0.29826546 0.623823 0.05029464 -0.03316144
0.41738594 0.32346252 0.31401184 0.20277229 -0.1976579 -0.12552936 0.014547171 0.0536412
0.19432744 0.38916227 0.19424397 0.30252406 0.42108798 0.10320757 0.37607375 0.4448637
00000000: 5e04 6a3e df02 c23d 0312 5f3e 0ef4 ca3e
00000010: 2f4e 0e3f 9378 8bbd 442d 9d3c 937d 0ebe
00000020: 4fb7 c23e b4ea bd3e cd44 973e 8018 c5bd
00000030: 2ba5 303e 36fb 9fbc 8542 a73e f6a1 7b3e
00000040: a213 df3e a6a1 073f d6e4 88bd aeb0 c93e
00000050: d45a a63e 59f3 e53e b567 6a3e ca79 a53e
00000060: 8415 b53e 2758 803e 3faf 0dbc d965 043f
00000070: 934f ef3e b85d 8f3e 6574 c13e 26b6 b83e
00000080: 5054 903e d8fa 9f3e 0af6 963e 2400 05be
00000090: 60ec 5e3d 4127 f03e b8e5 583e ac25 f7bb
000000a0: 0c75 ad3e 0de2 67bd 6ec4 a63e 85c9 9c3e
000000b0: 40b6 983e ddb2 1f3f c101 4e3d 4ad4 07bd
000000c0: 9cb3 d53e e19c a53e 29c6 a03e 8aa3 4f3e
000000d0: d566 4abe c58a 00be 4257 6e3c e0b6 5b3d
000000e0: c6fd 463e 4740 c73e e4e7 463e 6fe4 9a3e
000000f0: d898 d73e 7e5e d33d bd8c c03e 2dc5 e33e
